Test_Result/GNN/gnn_model_contextual.pt (torch, 271189 bytes, 6 tensors)

convs.0.bias f4 [128]
0.009968748 -0.008639189 0.009211429 -0.008318297 0.010074792 0.0101141995 -0.0010352741 0.0019499974
0.009742987 0.009977644 0.0100659 0.0101132905 -0.0019366164 -0.00801734 0.005489812 0.0098610995
0.009954034 -0.009315195 0.0039196424 0.010137833 -0.005060273 -0.00847679 -0.008818834 0.010069741
0.0060748123 -0.008217944 -0.0036441006 0.009985152 0.005682501 -0.00628131 0.009312076 0.0099536665
0.009185103 0.010019648 0.009568322 0.003602878 0.010056973 -2.452979e-05 0.010020763 -0.0034846242
0.010097565 0.009071854 0.010021433 -0.009305422 0.009897332 0.009981005 0.009997953 0.010010139
-0.0064967326 0.010048858 -0.007940715 0.0024068968 0.0012925703 0.010078029 0.009845815 -0.007291449
0.009262871 0.010016339 0.0098348595 -0.007194708 0.010111686 0.0066502313 0.0065140184 0.009260302
0.010061359 -0.005852945 0.010121802 0.009265901 0.0016667788 0.002473284 -0.0019619868 0.009962702
-0.009806822 0.009847374 0.010109286 0.009687778 0.009510311 0.010119496 -0.0046130796 0.009646075
0.0068270466 0.010067142 -0.008168745 0.010080918 0.009641997 0.009395468 0.0069221836 0.00721215
-0.005948532 0.00977441 0.009707798 0.01005437 0.009964033 0.0065414165 -0.0030533078 -0.0049495
-0.004842784 0.009983547 -0.0072915475 -0.008617036 0.010139767 0.010085469 0.0100485515 0.00606834
-0.008779796 0.006792318 0.010041917 -0.008871711 -0.008239806 0.009689113 0.00719761 0.0009590263
0.010009051 0.010143385 -0.0023624562 -0.008142782 0.0014327121 -0.0028390402 -0.0074325996 0.0032948558
0.0065727704 0.01009256 0.007032916 -0.0016343531 0.00723256 0.003952378 -0.006411822 0.009817017
00000000: f653 233c 638b 0dbc 89eb 163c 7749 08bc
00000010: be10 253c 07b6 253c 09b2 87ba 0e97 ff3a
00000020: 0da1 1f3c 4679 233c 72eb 243c 37b2 253c
00000030: 10d6 fdba 295b 03bc e2e3 b33b 7390 213c
00000040: 3f16 233c c29e 18bc 5870 803b 2719 263c
00000050: a6d0 a5bb 3ce2 0abc df7c 10bc 8efb 243c
00000060: 380f c73b 8ea4 06bc ddd1 6ebb c398 233c
00000070: 4634 ba3b 73d3 cdbb ad91 183c b414 233c
00000080: 1d7d 163c 7329 243c 74c4 1c3c 431e 6c3b
00000090: 01c6 243c 53c5 cdb7 202e 243c 4b5e 64bb
000000a0: 4270 253c 1da2 143c f030 243c c575 18bc
000000b0: 6b28 223c 5f87 233c 74ce 233c 9101 243c
000000c0: 8be2 d4bb f7a3 243c c619 02bc 07bd 1d3b
000000d0: 766b a93a 511e 253c 5750 213c 1bed eebb
000000e0: 4cc3 173c 921b 243c 6422 213c 96c1 ebbb
000000f0: 7cab 253c 2fea d93b 8c73 d53b 86b8 173c
00000100: 66d8 243c 10ca bfbb ead5 253c 01d0 173c
00000110: d177 da3a d216 223b ad94 00bb 9a3a 233c
00000120: cbac 20bc e156 213c 6ba1 253c 7cb9 1e3c
00000130: 23d1 1b3c 3ecc 253c 5129 97bb 920a 1e3c
00000140: 6bb5 df3b a7f0 243c 33d6 05bc 6f2a 253c
00000150: 77f9 1d3c 73ef 193c 7cd3 e23b e653 ec3b
00000160: e7eb c2bb d924 203c 750d 1f3c 16bb 243c
00000170: 2f40 233c 6159 d63b 011a 48bb 6a2f a2bb
00000180: 37b0 9ebb 0892 233c efed eebb 782e 0dbc
00000190: 4421 263c 863d 253c aea2 243c edd8 c63b
000001a0: 22d9 0fbc 1892 de3b da86 243c a75a 11bc
000001b0: 4000 07bc 16bf 1e3c eed9 eb3b 2a67 7b3a
000001c0: 01fd 233c 7130 263c 70d3 1abb 4e69 05bc
000001d0: d7c9 bb3a 310f 3abb 2a8d f3bb 82ee 573b
000001e0: 6560 d73b 445b 253c 6074 e63b ca37 d6ba
000001f0: 1cff ec3b f382 813b 431a d2bb 8ed7 203c

convs.0.lin.weight f4 [128, 384]
0.05991569 0.009695031 0.07136087 0.046006948 -0.018689187 -0.06475892 0.028119717 0.059020605
0.061537325 0.02071633 0.05665353 -0.079572335 0.014507625 -0.024282467 0.09481225 -0.012925859
0.06897526 0.06303042 0.034891095 -0.06942393 -0.085290775 -0.092267185 0.072812736 0.08771188
0.07124824 -0.06724373 -0.038319953 -0.06191872 -0.045802947 -0.021932451 -0.06683656 0.11562137
0.08660809 0.06825174 0.09661914 0.0705223 0.100273415 0.09017218 -0.06636045 -0.07402809
-0.086075865 -0.060618024 0.032886997 0.019614978 0.059763484 0.09290777 0.0050601405 0.06050497
-0.002975306 0.013875753 -0.05464057 -0.09095783 -0.09274275 -0.09645777 0.021619998 0.014042453
-0.05940073 -0.07685552 -0.08039423 0.07234803 -0.08065817 -0.053180814 -0.08587497 0.024324352
-0.09562475 -0.061473146 -0.10041691 -0.077402845 -0.060797166 -0.0936598 -0.025497628 0.09257692
-0.071474954 0.049730536 0.031790294 -0.031904653 -0.03045088 -0.09811084 0.0814047 -0.0010124046
-0.114622116 -0.09165096 -0.055778664 0.07714406 -0.063393265 0.026040137 0.04278518 0.01750753
-0.004283585 -0.10392909 -0.08670987 0.036566272 0.07726766 0.07172963 0.041453198 -0.08400181
-0.0009510954 0.01586769 0.08450982 0.032161616 0.03514015 -0.037951197 0.032422476 0.010605826
-0.028387576 -0.020434547 -0.05571426 0.08897613 -0.07151755 -0.04980906 0.087861635 -0.0046217316
0.015966108 0.06442924 0.01868889 -0.0060112183 -0.04677095 0.056387335 -0.0856297 -0.09121978
0.07638139 0.080211096 -0.08135791 -0.06857828 -0.10056412 -0.06759213 0.06488798 0.021289978
0.063764386 -0.058098607 0.042245645 -0.08539087 0.07544067 0.011757648 -0.040902972 0.019241389
-0.06320699 -0.02420573 -0.051619045 -0.010122301 0.08749291 -0.024015663 -0.0046421853 0.04824067
0.019723477 0.065148994 0.060377043 -0.11199396 -0.10220755 0.024639174 0.04809273 0.011279158
-0.05314391 0.1164578 -0.06422815 -0.004773812 -0.0064872783 0.11249217 -0.0030372075 -0.043300938
0.055825323 0.05742131 -0.0081919655 -0.06757422 0.077510685 -0.11338939 0.015837863 0.03662354
0.088687785 0.11174762 -0.022522723 -0.037827715 -0.061485026 -0.07020837 0.084844865 -0.046311647
-0.06876407 0.05352805 0.033169594 0.05366746 -0.051919784 0.051139444 0.061247163 -0.02812019
-0.044135917 -0.0028573205 0.087970495 -0.08917831 -0.07841935 -0.031451706 -0.091061525 -0.08644774
0.062568106 -0.01304496 -0.051882163 0.032220665 -0.10194412 0.05709195 0.07779137 -0.07665093
-0.06250833 0.039582536 -0.049894724 0.09332679 -0.07884516 -0.04592018 0.09861462 -0.098033756
-0.013681189 -0.091563195 0.098457 -0.03810213 0.08790206 -0.08948522 0.042407252 -0.029408569
-0.021909425 -0.031544805 0.04772057 0.011377761 -0.070625424 -0.06584053 -0.0020766668 -0.057243686
-0.016503459 0.055738486 -0.0077358303 0.009998954 0.11372056 0.04533112 0.05175289 0.055767216
-0.08668376 0.05926902 0.009285771 -0.024521265 0.084753245 -0.04381302 0.020552548 0.056852065
0.02993742 0.08857777 0.041680712 -0.07705384 0.06307137 -0.11080748 0.03541749 0.104562834
0.08905545 0.057510883 0.09251356 0.018812679 0.06178337 0.02156266 -0.0648468 -0.012967419
00000000: 286a 753d e8d7 1e3c a625 923d c871 3c3d
00000010: 111a 99bc 53a0 84bd 525b e63c 97bf 713d
00000020: 900e 7c3d 4bb5 a93c 880d 683d d2f6 a2bd
00000030: 64b1 6d3c 06ec c6bc ed2c c23d fbc6 53bc
00000040: e742 8d3d 1816 813d f7e9 0e3d 222e 8ebd
00000050: eeac aebd 94f6 bcbd d81e 953d 49a2 b33d
00000060: 99ea 913d 15b7 89bd 62f5 1cbd 7c9e 7dbd
00000070: df9b 3bbd afab b3bc 9be1 88bd e6ca ec3d
00000080: 955f b13d 91c7 8b3d 41e0 c53d ff6d 903d
00000090: 265c cd3d 31ac b83d fde7 87bd 0a9c 97bd
000000a0: 8b48 b0bd 9b4a 78bd 84b4 063d 97af a03c
000000b0: 8eca 743d 6e46 be3d 89cf a53b 0fd4 773d
000000c0: 5afd 42bb 2057 633c cace 5fbd 1948 babd
000000d0: e9ef bdbd a78b c5bd 6c1c b13c 5112 663c
000000e0: 2e4e 73bd 6d66 9dbd bba5 a4bd 342b 943d
000000f0: 1c30 a5bd 20d4 59bd 37df afbd dd43 c73c
00000100: e9d6 c3bd 44cb 7bbd 62a7 cdbd 6285 9ebd
00000110: 7306 79bd b6d0 bfbd 67e0 d0bc f898 bd3d
00000120: 7661 92bd 3fb2 4b3d 8a36 023d 74ae 02bd
00000130: 2074 f9bc 56ee c8bd 82b7 a63d a9b2 84ba
00000140: 00bf eabd 80b3 bbbd 2b78 64bd b4fd 9d3d
00000150: 54d4 81bd 2052 d53c 833f 2f3d f46b 8f3c
00000160: 515d 8cbb c6d8 d4bd f294 b1bd 84c6 153d
00000170: 823e 9e3d fce6 923d d4ca 293d 2409 acbd
00000180: ef52 79ba f5fc 813c 7c13 ad3d e6bb 033d
00000190: 1eef 0f3d b772 1bbd 6ecd 043d 0fc4 2d3c
000001a0: 108d e8bc 5a66 a7bc a334 64bd 1e39 b63d
000001b0: cb77 92bd 9604 4cbd cdf0 b33d e571 97bb
000001c0: 5bcb 823c 7af3 833d 7119 993c c1f9 c4bb
000001d0: e592 3fbd 68f6 663d a05e afbd 70d1 babd
000001e0: d96d 9c3d b745 a43d fa9e a6bd c572 8cbd
000001f0: 90f4 cdbd be6d 8abd fde3 843d 5268 ae3c
00000200: e796 823d cef8 6dbd c509 2d3d 69e1 aebd
00000210: a380 9a3d 26a3 403c e089 27bd 1ea0 9d3c
00000220: ab72 81bd 184b c6bc 7e6e 53bd 02d8 25bc
00000230: 7c2f b33d 7fbc c4bc 791d 98bb 0298 453d
00000240: 2193 a13c d66c 853d eb4d 773d 175d e5bd
00000250: 3152 d1bd 18d8 c93c e2fc 443d 38cc 383c
00000260: 6ead 59bd 6d81 ee3d 0c8a 83bd a36d 9cbb
00000270: 3c93 d4bb 4b62 e63d e30b 47bb 535c 31bd
00000280: 18a9 643d 9c32 6b3d 9837 06bc 5a64 8abd
00000290: ecbd 9e3d b238 e8bd 68be 813c 9102 163d
000002a0: f1a1 b53d f0db e43d 9381 b8bc 3cf1 1abd
000002b0: b9d7 7bbd 68c9 8fbd 25c3 ad3d 48b1 3dbd
000002c0: 2dd4 8cbd 3b40 5b3d d7dc 073d 69d2 5b3d
000002d0: d7a9 54bd 9877 513d 4ede 7a3d 505c e6bc
000002e0: ddc7 34bd e241 3bbb e029 b43d 1ea3 b6bd
000002f0: 539a a0bd 81d3 00bd 777e babd 830b b1bd
00000300: b523 803d 87ba 55bc 6482 54bd d1f9 033d
00000310: 14c8 d0bd 40d9 693d 1551 9f3d 2afb 9cbd
00000320: 5e04 80bd 4c21 223d 695e 4cbd 1e22 bf3d
00000330: 9279 a1bd cc16 3cbd 76f6 c93d ecc5 c8bd
00000340: 1127 60bc 7c85 bbbd d3a3 c93d fb10 1cbd
00000350: ff05 b43d 0744 b7bd 3ab3 2d3d 3dea f0bc
00000360: 657b b3bc 2035 01bd a576 433d ca69 3a3c
00000370: 10a4 90bd 66d7 86bd b018 08bb 5b78 6abd
00000380: 4332 87bc 0a4e 643d d97c fdbb a7d2 233c
00000390: 53e6 e83d 20ad 393d d7fa 533d 2a6c 643d
000003a0: 4187 b1bd 12c4 723d 5923 183c d2e0 c8bc
000003b0: 1c93 ad3d 4875 33bd d15d a83c b6dd 683d
000003c0: 523f f53c 4368 b53d 65b9 2a3d 67ce 9dbd
000003d0: 902b 813d 08ef e2bd ee11 113d 0a25 d63d
000003e0: b462 b63d 8890 6b3d c077 bd3d 0c1d 9a3c
000003f0: 8f10 7d3d 2da4 b03c 66ce 84bd 4c75 54bc

convs.1.bias f4 [128]
0.010150695 0.00942336 -0.008640204 0.0098384265 0.010086204 -0.0035976479 0.010070041 -0.008880578
-0.009117466 0.009816224 0.010101944 0.010053829 0.009644666 0.010119579 0.010122915 -0.009184443
0.00990462 0.010033704 -0.009707852 0.010105967 0.008495539 0.010027107 0.0072716195 0.009935426
0.009959921 -0.0020930434 0.0063792514 0.010072951 0.009849492 0.00183369 0.008618753 -0.007719851
0.0052087 -0.008026807 -0.0017206413 0.009542636 0.009970822 0.009883558 -0.008171884 0.0057773576
0.0061004953 0.01007759 0.007217799 0.009929168 -0.0031308953 -0.002397518 0.010086765 -0.0066599706
-0.0070887906 -0.0056954464 -0.008629613 0.009838524 0.006237259 0.009407665 0.0061323107 -0.00432274
-0.0070239557 0.009967654 0.010127008 0.009850385 0.00936557 0.010071721 0.010046517 0.010077498
0.009965726 0.010086563 0.010003174 -0.008982311 -0.0044661155 0.010064406 -0.0077023203 0.010058946
-0.008124453 -0.00936351 0.00940693 0.004096419 0.0068412265 -0.005699592 -0.00398508 -0.008624131
0.010016749 -0.0021429253 0.010029603 -0.008203085 0.010151148 0.0016391848 0.010142869 -0.0077753034
0.00988103 0.0011719855 0.010109043 0.009348577 -0.0028963466 0.009836249 0.009932157 -0.008026034
-0.006628606 -0.008451023 0.010102301 0.0047368505 -0.009394291 0.0065013343 0.010048479 0.009239898
-0.005000712 -0.008376046 0.010025885 -0.00783134 -0.008784202 -0.0061824895 -0.0051131444 0.009993921
-0.005884256 0.009967231 0.0016582392 -0.0079979 0.010031604 -0.008900273 0.009820785 -0.007991299
0.010100878 0.009916396 0.009384018 0.009399659 0.009294711 0.0028534748 -0.00507125 -0.008403327
00000000: 1a4f 263c 7064 1a3c a48f 0dbc 5a31 213c
00000010: 9b40 253c 84c6 6bbb d0fc 243c d87f 11bc
00000020: 6d61 15bc 3ad4 203c a082 253c d1b8 243c
00000030: a904 1e3c 97cc 253c 95da 253c 597a 16bc
00000040: fd46 223c 6864 243c af0d 1fbc 7f93 253c
00000050: e030 0b3c bc48 243c c446 ee3b 32c8 223c
00000060: f02e 233c 712b 09bb 0a09 d13b 0509 253c
00000070: c45f 213c 6d58 f03a ac35 0d3c cef6 fcbb
00000080: bead aa3b de82 03bc 2487 e1ba b758 1c3c
00000090: a95c 233c a6ee 213c 5ee3 05bc fd4f bd3b
000000a0: aae6 c73b 7a1c 253c 4983 ec3b f3ad 223c
000000b0: b52f 4dbb ad1f 1dbb f542 253c e23b dabb
000000c0: 1649 e8bb dea0 babb 3863 0dbc c331 213c
000000d0: ec61 cc3b 9b22 1a3c 8df1 c83b c5a5 8dbb
000000e0: 3629 e6bb 5f4f 233c c0eb 253c 8263 213c
000000f0: 0c72 193c dc03 253c 259a 243c 171c 253c
00000100: 4947 233c 1d42 253c 5ae4 233c 8b2a 13bc
00000110: 7e58 92bb 2ee5 243c bf63 fcbb 47ce 243c
00000120: 6d1c 05bc 6869 19bc 861f 1a3c 413b 863b
00000130: 5e2c e03b a5c3 babb 4695 82bb 3a4c 0dbc
00000140: 4a1d 243c 5270 0cbb 3453 243c 3b66 06bc
00000150: 0051 263c ead9 d63a 472e 263c f9c7 febb
00000160: 0be4 213c 4f9d 993a 66a0 253c c62a 193c
00000170: a2d0 3dbb 3828 213c 7cba 223c a07f 03bc
00000180: c734 d9bb 2976 0abc 1f84 253c 9537 9b3b
00000190: 83ea 19bc 2509 d53b 60a2 243c f162 173c
000001a0: 03dd a3bb af3b 09bc 9c43 243c 054f 00bc
000001b0: 9deb 0fbc 7b96 cabb 2a8c a7bb 8bbd 233c
000001c0: b8d0 c0bb 994d 233c 4659 d93a a009 03bc
000001d0: 995b 243c 73d2 11bc 5ce7 203c f0ed 02bc
000001e0: 277e 253c 6178 223c 6dbf 193c 0701 1a3c
000001f0: d848 183c 5d01 3b3b ba2c a6bb 1cae 09bc

convs.1.lin.weight f4 [128, 128]
-0.04800625 0.031267267 0.15926495 -0.03602923 -0.1340097 0.03362386 0.02762224 0.092709675
0.12731785 0.0108337505 -0.13378458 0.09863578 -0.08969245 0.06517527 0.14018577 0.10839348
0.01589221 0.01153829 0.10280448 -0.07424508 -0.084110565 0.06862912 -0.103109345 0.0018817766
-0.080995776 -0.12997372 -0.0846283 -0.00057329674 0.15147203 -0.026143407 0.10776767 -0.084160894
0.0563035 0.111982174 -0.106957614 -0.0966716 0.08780781 0.099627376 -0.121934354 0.09787206
-0.021442292 0.056279995 -0.097235665 0.1003384 0.08245702 0.13521598 0.03579639 0.088793956
0.14011809 0.041377097 0.06052231 -0.06717171 -0.14237384 -0.1250649 -0.08158353 0.041587096
-0.032034636 -0.12919666 -0.028863229 -0.020697778 -0.085038915 0.12054682 0.14754929 -0.057894543
0.021794913 0.08805581 0.0068218843 -0.048174217 0.14651327 -0.008341767 -0.104630366 -0.010804814
0.043020975 -0.06880302 -0.08877716 0.01183574 -0.01224521 0.068033904 -0.04325036 0.034677994
-0.05066015 0.086687274 0.053117216 0.11857573 -0.08544227 0.055469293 -0.09837418 -0.121925704
0.04016646 -0.03858308 -0.040568702 0.12087646 0.031059977 0.013707217 -0.07460351 0.16255176
0.15758553 -0.07713398 -0.062493853 -0.056717135 -0.11717805 0.010027734 -0.10083312 -0.10901596
-0.080077186 -0.13902 0.021940297 0.06389852 -0.021367194 0.08770183 -0.1246436 0.024717515
-0.115145005 0.12922533 0.030015402 0.1512411 -0.039625723 -0.10877018 -0.06922543 -0.09881492
-0.032626495 0.06535894 0.09127531 -0.062157374 -0.015028385 0.0052994913 -0.12594798 0.14809638
-0.12682873 0.1541621 0.16083233 0.14711182 -0.11096656 -0.011890652 0.13545135 -0.028059088
-0.13881813 -0.037217274 -0.13786423 0.1084089 0.14995417 -0.09778764 -0.104352795 -0.09252096
0.06954052 -0.09774885 0.1169765 -0.06519379 0.040137526 0.02556944 0.12219937 0.017378803
-0.08308117 0.111663505 0.14624651 0.05002451 -0.15055372 -0.008919324 -0.09188257 0.02431189
0.14638168 -0.09733103 0.102697186 -0.02960243 0.03084132 -0.0733101 -0.06248356 -0.060754575
-0.12502727 -0.003709944 0.0627891 0.11794427 0.0806131 -0.12649359 -0.032349326 -0.113409095
-0.049277738 0.12767412 0.13742405 0.0868642 0.0690843 0.16142935 -0.034774262 -0.014778948
-0.076799795 -0.13306041 0.054829232 0.0066259564 0.10589795 0.12018865 -0.13395043 -0.040722124
-0.08054404 0.13937703 -0.013116051 0.09799569 -0.041992065 -0.04151932 -0.10599685 0.12710829
-0.0047505177 -0.07312318 -0.052663676 0.07298449 -0.07739778 -0.13078254 0.050856274 0.15345447
0.077134244 0.012202889 0.13023777 -0.009987455 0.030767096 0.10866302 0.06332136 -0.0387854
-0.019636145 0.1532325 0.12505604 -0.11178352 0.08942183 -0.03091798 -0.061512444 -0.12881878
-0.114758916 -0.077993594 -0.041578714 0.07903098 -0.07979095 -0.05039255 -0.116291024 -0.013309708
0.04553068 0.03768502 0.009689398 -0.04354495 0.059980106 -0.02475102 0.12606774 0.117202185
0.07083807 -0.10476756 0.09394861 -0.072971724 -0.052838292 -0.06619109 -0.08018343 -0.11889655
-0.071245894 0.0054689483 -0.04101646 0.083042115 0.08136003 -0.06982127 0.123252064 -0.0036012784
00000000: 34a2 44bd 1b12 003d 5a16 233e 6393 13bd
00000010: d739 09be 2cb9 093d 0948 e23c 92de bd3d
00000020: 9c5f 023e 0b80 313c d3fe 08be 8e01 ca3d
00000030: adb0 b7bd 9d7a 853d dc8c 0f3e 67fd dd3d
00000040: 6130 823c 190b 3d3c 288b d23d ce0d 98bd
00000050: 2942 acbd 6d8d 8c3d fe2a d3bd f2a5 f63a
00000060: 1de1 a5bd d517 05be 9a51 adbd 4b49 16ba
00000070: 7c1b 1b3e b32a d6bc 4cb5 dc3d 8c5c acbd
00000080: 809e 663d e956 e53d 980c dbbd c3fb c5bd
00000090: 95d4 b33d 7009 cc3d b8b8 f9bd 2671 c83d
000000a0: bfa7 afbc da85 663d 7e23 c7bd 387e cd3d
000000b0: 3adf a83d 0f76 0a3e 3c9f 123d 9bd9 b53d
000000c0: 1e7b 0f3e 087b 293d 3ee6 773d 5291 89bd
000000d0: 73ca 11be 0311 00be 4415 a7bd 3b57 2a3d
000000e0: c036 03bd 214c 04be 9472 ecbc 638e a9bc
000000f0: e228 aebd 40e1 f63d 2917 173e d422 6dbd
00000100: 3f8b b23c 9b56 b43d 1d8a df3b 5452 45bd
00000110: 9307 163e e8ab 08bc 7248 d6bd ad06 31bc
00000120: c336 303d 99e8 8cbd cdd0 b5bd b1ea 413c
00000130: 22a0 48bc 5c55 8b3d 4a27 31bd 830a 0e3d
00000140: 0481 4fbd 1989 b13d 7091 593d d5d7 f23d
00000150: 5bfc aebd c533 633d 6778 c9bd 2fb4 f9bd
00000160: 9685 243d 4b09 1ebd 5e2b 26bd 148e f73d
00000170: 7e71 fe3c 3c94 603c bac9 98bd f873 263e
00000180: 1a5e 213e 6cf8 9dbd 8ef9 7fbd 3a50 68bd
00000190: 0cfb efbd 5d4b 243c 9881 cebd c243 dfbd
000001a0: 82ff a3bd 425b 0ebe 23bc b33c 3add 823d
000001b0: 410a afbc 049d b33d 2545 ffbd 637c ca3c
000001c0: 25d1 ebbd a553 043e dce2 f53c f2de 1a3e
000001d0: 954e 22bd e6c2 debd 10c6 8dbd 7a5f cabd
000001e0: 5ca3 05bd e8da 853d 8dee ba3d bb98 7ebd
000001f0: 9e39 76bc 5ba7 ad3b 82f8 00be 94a6 173e
00000200: 64df 01be abdc 1d3e 3bb1 243e 7ba4 163e
00000210: 7042 e3bd 02d1 42bc c2b3 0a3e 2cdc e5bc
00000220: 5726 0ebe 2471 18bd 482c 0dbe 7c05 de3d
00000230: 968d 193e e344 c8bd ebb6 d5bd a17b bdbd
00000240: 436b 8e3d 8d30 c8bd 6091 ef3d 5284 85bd
00000250: 3f67 243d 0177 d13c aa43 fa3d fe5d 8e3c
00000260: 7626 aabd d6af e43d a5c1 153e 80e6 4c3d
00000270: c12a 1abe 5b22 12bc ee2c bcbd bb29 c73c
00000280: 14e5 153e 7e55 c7bd e752 d23d cc80 f2bc
00000290: f0a6 fc3c 9b23 96bd c3ee 7fbd cad9 78bd
000002a0: 2607 00be 8822 73bb 9297 803d c48c f13d
000002b0: 7b18 a53d 8987 01be ba80 04bd 0743 e8bd
000002c0: 74d7 49bd 01bd 023e e4b8 0c3e dce5 b13d
000002d0: 127c 8d3d bc4d 253e 756f 0ebd 6723 72bc
000002e0: 3649 9dbd fd40 08be 9e94 603d 8d1e d93b
000002f0: 06e1 d83d 7825 f63d 4d2a 09be 3ecc 26bd
00000300: 46f4 a4bd dab8 0e3e b5e4 56bc f7b1 c83d
00000310: dfff 2bbd 2a10 2abd e014 d9bd ad28 023e
00000320: 3baa 9bbb 9bc1 95bd deb5 57bd e478 953d
00000330: ba82 9ebd dceb 05be ab4e 503d 2b23 1d3e
00000340: 8ff8 9d3d a0ee 473c 0d5d 053e 6ca2 23bc
00000350: 470b fc3c b88a de3d a1ae 813d 71dd 1ebd
00000360: fbdb a0bc fbe8 1c3e b10e 003e c2ee e4bd
00000370: cb22 b73d b447 fdbc 79f4 7bbd 12e9 03be
00000380: b906 ebbd 1bbb 9fbd 714e 2abd ffda a13d
00000390: 7069 a3bd 6b68 4ebd fd29 eebd f610 5abc
000003a0: 617e 3a3d 9c5b 1a3d 48c0 1e3c 315c 32bd
000003b0: b3ad 753d a7c2 cabc e717 013e b307 f03d
000003c0: 8d13 913d 6090 d6bd 2168 c03d 3372 95bd
000003d0: f76c 58bd 328f 87bd 3637 a4bd 0980 f3bd
000003e0: 5ee9 91bd dd34 b33b e000 28bd fc11 aa3d
000003f0: 16a0 a63d 74fe 8ebd 946b fc3d 6d03 6cbb

lin.weight f4 [10, 128]
-0.030988093 -0.028971087 -0.013377212 0.08778286 -0.06374712 -0.047774766 -0.06878729 0.033198703
-0.0005817419 -0.026248455 0.09191035 -0.042130418 0.080224626 0.058431044 -0.034206275 -0.059500113
0.048413288 0.04683793 -0.062471163 0.075089335 0.027289622 0.00030100456 0.08028016 0.047419067
-0.0205923 0.069038525 0.023708183 -0.075783275 -0.09452856 -0.0074713523 -0.046044923 0.05554869
0.020180471 -0.009467778 -0.078908615 0.081689626 0.06092574 0.054019917 -0.08609285 0.07880142
0.086881615 -0.07013537 0.070687324 0.041373502 -0.045336857 0.047725044 -0.06422123 -0.0005566189
-0.06821352 -0.015813712 0.007176033 0.077194676 -0.050224718 -0.074146 -0.022271052 0.066668004
0.026675925 0.054495428 0.08060252 0.053920794 -0.042824253 0.026146604 -0.02642927 -0.016100628
0.0009456539 0.07327945 0.064343765 -0.025678677 -0.08088063 -0.031661004 0.065653384 0.0047976715
0.011801523 -0.05541967 0.03067454 -0.050146054 -0.024406163 -0.07423163 0.024874147 -0.07558175
0.08846549 0.061005004 -0.021222964 -0.01344359 0.013614398 -0.07744527 0.08948711 -0.015549064
0.014663987 -0.06930103 0.036727555 -0.034124628 -0.043963555 0.0126968315 0.010334744 0.063372135
-0.010113052 -0.0020945994 0.0396717 0.07796505 -0.03661101 0.07917688 -0.07843769 -0.0013508939
-0.040022563 0.028493293 0.007931196 0.0019699996 0.071442686 0.027239038 0.06672032 0.009342087
0.04773099 0.06400993 -0.089574516 -0.062093955 -0.07277386 -0.017560784 0.09261511 0.07245026
0.061540723 0.06709784 0.007195811 -0.02549823 0.035585977 0.004893749 -0.04704624 -0.07093616
0.031244235 0.02728042 -0.0064762617 0.017902447 -0.011488247 -0.0033371157 0.0141727505 -0.06121131
-0.07874753 -0.015389793 -0.06851644 0.0070377616 0.06709836 -0.045790028 -0.07629246 -0.060873438
-0.058699813 -0.060721893 0.029951705 0.050037947 -0.022992622 -0.040570077 0.023982553 0.055746995
-0.047439806 0.06501166 -0.0020245442 -0.016972147 0.06191148 0.05023517 -0.03505605 -0.002500271
0.058006905 -0.009666453 0.01277748 -0.04076867 -0.024265388 0.018788831 0.00051149295 0.060167424
-0.057656642 0.0834679 -0.050504517 0.03681147 0.04630137 0.026684584 0.041110974 0.0029748606
0.06487872 0.033691976 -0.03979855 -0.050834086 0.09031096 0.04785171 0.07542248 -0.067162596
-0.038663883 0.073317505 0.08443188 0.084738135 -0.09572527 0.013427942 -0.09821681 -0.0800324
0.04688658 -0.0190672 0.017349392 0.075797886 -0.09178572 -0.07218832 -0.0505514 0.04476111
0.09775913 -0.0573233 -0.0016469086 0.019260047 -0.070507266 -0.03343868 -0.041324783 -0.020632548
0.061629623 0.08002169 -0.045442637 0.008254509 -0.043112442 0.025743136 -0.008311654 0.023709122
0.04658674 -0.014842181 0.05080142 0.004018242 -0.056087475 0.0067765084 0.006689547 -0.04016601
-0.019712571 -0.049569137 -0.0306554 -0.009735654 0.023241935 0.029470487 -0.083754994 -0.054593682
-0.09396541 -0.0706659 -0.0055364743 0.06466689 0.087454416 -0.06887226 0.09702969 0.035391945
0.017180882 0.09140821 -0.012575689 -0.0394179 -0.03220538 -0.034643926 0.038083088 0.09100178
0.008139579 0.019979374 -0.045556337 -0.0877907 0.082191125 0.04096423 0.07597122 -0.05817835
00000000: beda fdbc c654 edbc 182c 5bbc 80c7 b33d
00000010: da8d 82bd 79af 43bd 5ae0 8cbd 5dfb 073d
00000020: 0a80 18ba 0007 d7bc 7e3b bc3d f290 2cbd
00000030: cf4c a43d 6455 6f3d e11b 0cbd 64b6 73bd
00000040: 034d 463d 21d9 3f3d c3e1 7fbd 70c8 993d
00000050: 7c8e df3c 26d0 9d39 ed69 a43d 7f3a 423d
00000060: 2fb1 a8bc 1264 8d3d aa37 c23c 4334 9bbd
00000070: 3198 c1bd 3fd2 f4bb 9a99 3cbd 0687 633d
00000080: 8451 a53c bd1e 1bbc d79a a1bd e44c a73d
00000090: 458d 793d fd43 5d3d 7351 b0bd a462 a13d
000000a0: fdee b13d 22a3 8fbd 84c4 903d 4377 293d
000000b0: 24b3 39bd 567b 433d 6c86 83bd 10ea 11ba
000000c0: 88b3 8bbd c28b 81bc ee24 eb3b 3e18 9e3d
000000d0: 6fb8 4dbd dcd9 97bd c871 b6bc 3c89 883d
000000e0: 7887 da3c 9936 5f3d ef12 a53d 0ddc 5c3d
000000f0: 7c68 2fbd 6731 d63c 3282 d8bc 77e5 83bc
00000100: c2e5 773a 8913 963d aac6 833d 175c d2bc
00000110: bea4 a5bd f8ae 01bd 4875 863d c935 9d3b
00000120: 2d5b 413c bcff 62bd 2c49 fb3c f365 4dbd
00000130: 6fef c7bc c106 98bd dec4 cb3c 9bca 9abd
00000140: 652d b53d 62e0 793d c8db adbc 8142 5cbc
00000150: ed0e 5f3c a09b 9ebd 0545 b73d 80c1 7ebc
00000160: 3841 703c b3ed 8dbd a26f 163d 44c6 0bbd
00000170: 2113 34bd 5f06 503c 0f53 293c 40c9 813d
00000180: 37b1 25bc 8c45 09bb cb7e 223d 24ac 9f3d
00000190: 6df5 15bd 7d27 a23d f1a3 a0bd 7a10 b1ba
000001a0: b3ee 23bd c46a e93c d9f1 013c 1c1b 013b
000001b0: 8b50 923d 6724 df3c aaa4 883d 8e0f 193c
000001c0: 9281 433d a317 833d d872 b7bd 3b56 7ebd
000001d0: 760a 95bd a2db 8fbc feac bd3d cd60 943d
000001e0: 2012 7c3d 986a 893d d6ca eb3b aae1 d0bc
000001f0: 9ac2 113d be5b a03b 8fb3 40bd fa46 91bd
00000200: e9f3 ff3c 307b df3c d236 d4bb 27a8 923c
00000210: 3339 3cbc 83b3 5abb d334 683c b6b8 7abd
00000220: 6346 a1bd 7825 7cbc 5952 8cbd 069d e63b
00000230: dd6a 893d 538e 3bbd 393f 9cbd 6d56 79bd
00000240: 376f 70bd 85b7 78bd 475d f53c 97f4 4c3d
00000250: 065b bcbc cf2c 26bd 0f77 c43c f656 643d
00000260: 3e50 42bd d524 853d 37ae 04bb 2c09 8bbc
00000270: e496 7d3d 65c3 4d3d ef96 0fbd 96db 23bb
00000280: a698 6d3d 0b60 1ebc a358 513c 0dfd 26bd
00000290: 35c8 c6bc 09eb 993c b615 063a 1e72 763d
000002a0: 5f29 6cbd 38f1 aa3d d3dd 4ebd a0c7 163d
000002b0: 81a6 3d3d a199 da3c fb63 283d e1f5 423b
000002c0: 22df 843d 9900 0a3d ce03 23bd 6737 50bd
000002d0: f4f4 b83d 2800 443d 1a77 9a3d 8b8c 89bd
000002e0: 055e 1ebd 7d27 963d 9fea ac3d 308b ad3d
000002f0: 9c0b c4bd df00 5c3c e525 c9bd 07e8 a3bd
00000300: 240c 403d d132 9cbc 5020 8e3c ec3b 9b3d
00000310: 27fa bbbd 78d7 93bd fc0e 4fbd 6d57 373d
00000320: f035 c83d d6cb 6abd 15dd d7ba 3fc7 9d3c
00000330: 1d66 90bd fff6 08bd 2d44 29bd 9705 a9bc
00000340: 586f 7c3d 69e2 a33d 0f22 3abd ec3d 073c
00000350: ac96 30bd 45e3 d23c 9b2d 08bc a239 c23c
00000360: bdd1 3e3d 9e2c 73bc 2615 503d 75ab 833b
00000370: fbbb 65bd 790d de3b fd33 db3b 1d85 24bd
00000380: 427c a1bc 0209 4bbd 0921 fbbc 4b82 1fbc
00000390: df65 be3c 176c f13c bd87 abbd a09d 5fbd
000003a0: f070 c0bd 49b9 90bd 506b b5bb 1370 843d
000003b0: 4d1b b33d e60c 8dbd 81b7 c63d 25f7 103d
000003c0: ecbe 8c3c 3a34 bb3d 430a 4ebc aa74 21bd
000003d0: cae9 03bd cae6 0dbd 03fd 1b3d 245f ba3d
000003e0: de5b 053c c9ab a33c 4899 3abd 9ccb b3bd
000003f0: d253 a83d 1cca 273d cd96 9b3d 6c4c 6ebd

lin.bias f4 [10]
0.052304275 0.016242266 0.0002854131 -0.0059759165 0.060460977 0.05894775 -0.05948533 -0.07819104
-0.08170915 -0.044047866
00000000: 023d 563d 800e 853c 7fa3 9539 9fd1 c3bb
00000010: eea5 773d 3273 713d e4a6 73bd a022 a0bd
00000020: 2057 a7bd 896b 34bd
