Test_Result/GNN/gnn_model_template_binary.pt (torch, 267093 bytes, 6 tensors)

convs.0.bias f4 [128]
0	0x3bdc8801	0.00673008
1	0x3bad6baf	0.005292378
2	0x3bfc9dfc	0.007709263
3	0x3ba4c9d9	0.005028945
4	0x3b5cb572	0.0033677486
5	0xbbedc689	-0.0072563333
6	0x3b5f7a1f	0.003409989
7	0x3bc0bb7e	0.005881726
8	0xbb6a91ac	-0.0035792394
9	0x3b9523d9	0.0045513925
10	0xbb205723	-0.0024466
11	0x3b3aefbe	0.0028524245
12	0x3b7a49c1	0.0038190933
13	0x3bb844c9	0.005623434
14	0x3bbec2d2	0.0058215642
15	0xbad35e8d	-0.0016126201
16	0x3c09c610	0.008409038
17	0xbbb1e284	-0.005428614
18	0x3b18dd19	0.0023325144
19	0xbb823742	-0.0039738724
20	0xba289c5c	-0.0006431991
21	0x3bbde833	0.0057955026
22	0xb9c9b052	-0.00038469076
23	0x3b4f5979	0.0031639023
24	0x3bb308b6	0.005463685
25	0xba6ec43c	-0.00091082207
26	0xba5c846f	-0.0008412068
27	0x3c04da34	0.008108664
28	0xbb39a09c	-0.002832449
29	0x3b0b884b	0.0021290954
30	0x3c1195b3	0.008885789
31	0x3c036b33	0.008021164
32	0xbc13ec9d	-0.009028581
33	0xbc0fe72b	-0.008783142
34	0x3be8f54c	0.00710932
35	0xbbde6d17	-0.006787907
36	0x3c24159c	0.010014918
37	0xb9a8650d	-0.00032118746
38	0x3c1ad85f	0.009451001
39	0xbaf2e673	-0.0018531814
40	0x3c143044	0.009044711
41	0x3b151eb9	0.0022753908
42	0xbb2082d6	-0.0024492047
43	0x3be78e6f	0.00706654
44	0x3b904c94	0.00440366
45	0x3adf09d4	0.0017016479
46	0x3baf23cc	0.0053448435
47	0xbaf7d545	-0.0018908164
48	0x3ba40bb0	0.005006276
49	0x3b8b121b	0.0042441017
50	0x3ae0365d	0.0017106045
51	0x3bf6bd04	0.0075298566
52	0xba8d5ce9	-0.0010785136
53	0xba346945	-0.00068821415
54	0x3bd29bcd	0.0064272643
55	0x3c0ede6a	0.00872002
56	0x3bc2dd1e	0.0059467694
57	0xbbf1473d	-0.0073632286
58	0x3bb3b700	0.005484462
59	0xbb72c1d1	-0.0037041793
60	0x3ae1f3c1	0.0017238782
61	0x3bc2697e	0.005932986
62	0x3b8a95d4	0.0042292867
63	0x3c09bbba	0.008406574
64	0x3c1c4781	0.009538532
65	0xbbfd71ba	-0.0077345045
66	0xbc14e066	-0.009086704
67	0x3c1c7d65	0.009551381
68	0xbbc5bd17	-0.006034504
69	0x3bb67f73	0.0055693923
70	0x3a89d20a	0.0010514867
71	0x3b5369c2	0.0032259081
72	0xbbe96536	-0.007122661
73	0x3c0a632d	0.008446497
74	0xb9baa396	-0.00035598566
75	0x3a821630	0.0009924825
76	0xbb1c1ebf	-0.0023822037
77	0x3bc012fb	0.0058616376
78	0xbbcdf4b8	-0.0062852763
79	0x3bb4e23b	0.005520133
80	0xbc07a975	-0.008280148
81	0x3a8e9267	0.0010877372
82	0xbb94cbbc	-0.0045408886
83	0xbc1edf77	-0.009696833
84	0x3b605541	0.0034230503
85	0x3bd1e2a2	0.0064051906
86	0x3b3ffe2f	0.0029295792
87	0x3bebaacc	0.0071919914
88	0x3b500dd7	0.003174653
89	0xbbc13c17	-0.005897056
90	0x3c13c467	0.009018994
91	0xbbca335d	-0.0061706738
92	0x3bf182d4	0.0073703323
93	0x3b94cab7	0.004540767
94	0x3c23e378	0.010002963
95	0xbad6dbf6	-0.0016392458
96	0x3bbdcf8b	0.0057925633
97	0xbb80a115	-0.0039254525
98	0xbac8c971	-0.0015318823
99	0xbbb327ad	-0.005467376
100	0xbc140faa	-0.009036938
101	0x3b2f9d3e	0.0026796605
102	0x3b787114	0.0037909197
103	0xbc16c6d6	-0.00920268
104	0x398980d7	0.0002622667
105	0x3be0dc49	0.0068621975
106	0x3b39f690	0.0028375722
107	0x3c24a55a	0.0100491885
108	0xba422e60	-0.0007407423
109	0x3bf86552	0.0075804377
110	0x3c1a2baf	0.009409829
111	0xb9a52c66	-0.00031504332
112	0x3bf0f3f9	0.0073533026
113	0x3b21bcf7	0.0024679282
114	0x3bb59241	0.0055411165
115	0x3b48b8ec	0.00306278
116	0xbae89adf	-0.001774635
117	0x3b800a94	0.003907511
118	0xba621b98	-0.00086253276
119	0xba9dc6de	-0.0012037416
120	0xbb110de9	-0.0022133535
121	0x3c13fa19	0.009031796
122	0xb9ab3eb9	-0.00032662394
123	0x3a03e5ce	0.0005031497
124	0x3a7394a5	0.0009291864
125	0x3b6d5278	0.0036212485
126	0x3ba096eb	0.0049008033
127	0x3995b533	0.000285545

convs.0.lin.weight f4 [128, 384]
0	0x3cff6797	0.031177325
1	0xbc7dc057	-0.015487752
2	0x3c9cb29b	0.019128134
3	0x3dc19e29	0.09453995
4	0xbd8c7a55	-0.068592705
5	0xbd0e4271	-0.034731332
6	0xbda7dc07	-0.08196264
7	0x3c471694	0.012151379
8	0xbddc462b	-0.10755571
9	0x3a91a15f	0.0011110714
10	0xbc347922	-0.011015208
11	0x3d9c23e4	0.07624033
12	0x3db16fd4	0.08663908
13	0x3d9d87f0	0.07691944
14	0xbd64c047	-0.055847432
15	0x3d4415e0	0.047872424
16	0x3dbc370a	0.09190185
17	0x3dec33aa	0.11533292
18	0x3dd21626	0.10258131
19	0xbdb6191b	-0.08891507
20	0x3d8cd653	0.068768166
21	0xbd006f1d	-0.031355966
22	0x3daedf54	0.0853869
23	0x3de7a8de	0.11311506
24	0xbd5251f5	-0.05134769
25	0xbcd120f8	-0.025528416
26	0xbc9a0ea4	-0.01880581
27	0xbcb1d28a	-0.021706838
28	0x3ddb67b7	0.107131414
29	0xbd448ded	-0.047986913
30	0x3d7ca957	0.061684933
31	0xbb1a5185	-0.0023547125
32	0x3d394106	0.045228027
33	0xbd9d9d49	-0.076960154
34	0x3c570259	0.013123118
35	0x3c394b21	0.011309416
36	0x3b909a9c	0.004412962
37	0x3c9f92b7	0.019479139
38	0xbca35022	-0.019935671
39	0x3db8cd90	0.09023583
40	0x3c4833e9	0.012219408
41	0xbd83fddc	-0.06444904
42	0xbdd031b2	-0.10165729
43	0x3df06e9f	0.11739849
44	0xbd4001f7	-0.046876874
45	0x3c5b856f	0.013398512
46	0x3b912b37	0.0044302004
47	0xbdcedec1	-0.10101081
48	0xbc7ecb3d	-0.0155513855
49	0x3cfabaf5	0.030606726
50	0xbd98edaf	-0.074672095
51	0xbd6654e0	-0.056233287
52	0xbc8067e3	-0.015674537
53	0x3dc83b52	0.097769395
54	0x3d0ac81d	0.03388225
55	0xbddc2baa	-0.10750516
56	0x3c12eb20	0.008967191
57	0x3d5b32fa	0.053515412
58	0x3c81b04a	0.015831131
59	0xbd9fd0f0	-0.078035235
60	0x3c6a42d5	0.014298161
61	0xbc7bdcba	-0.0153724495
62	0xbc00e512	-0.007867115
63	0x3daeaf51	0.08529533
64	0xbd3766da	-0.04477582
65	0xbbc2bb8c	-0.0059427675
66	0x3c1b9afe	0.009497402
67	0x3c8f159c	0.017466359
68	0x3c2c87a5	0.010530387
69	0x3cca679c	0.024707608
70	0x3ad71ffd	0.0016412731
71	0xbd81658a	-0.06318195
72	0xba41404e	-0.0007371948
73	0xbd78bc78	-0.060726613
74	0x3d83f1c1	0.06442595
75	0x3d98b19f	0.074557535
76	0xbd92748c	-0.07151136
77	0x3d3c24ba	0.045933463
78	0x3dc6a276	0.09698956
79	0x3b972f40	0.004613787
80	0xbcc45203	-0.023964887
81	0xbd1e2175	-0.038606126
82	0x3d8cd417	0.068763904
83	0xbd0b8fb4	-0.034072593
84	0x3bd8174e	0.006594575
85	0xbd0a7417	-0.03380212
86	0xbd6feb45	-0.05857398
87	0x3c631b33	0.013861465
88	0xbc2d5bc5	-0.010580962
89	0x3cb92e3c	0.022605054
90	0x3c8f1717	0.017467065
91	0xbc5b241e	-0.01337531
92	0x3d6454e9	0.05574504
93	0xbd06e8aa	-0.03293673
94	0xbdc23030	-0.09481847
95	0x3d7d617d	0.06186055
96	0x3dc14662	0.094372526
97	0xbce5364a	-0.027979989
98	0xbd541466	-0.051777266
99	0xbd57db33	-0.05269928
100	0xbc0231fd	-0.007946488
101	0x3d60be3b	0.054868918
102	0xbd3c805e	-0.046020858
103	0x3cfe2f14	0.031028308
104	0x3d03ba1e	0.032159917
105	0xbc8dd87d	-0.017315144
106	0x3d7354d5	0.059407074
107	0x3d1e2d5d	0.03861748
108	0x3dc647e7	0.09681683
109	0x3dde70e1	0.10861374
110	0xbbfecd73	-0.0077759563
111	0xbd7a6d2d	-0.061139274
112	0x3c60eaec	0.013727885
113	0x3dcd0051	0.10009826
114	0xbd25abb4	-0.040446952
115	0xbdc119b4	-0.094287306
116	0x3d5df318	0.05418691
117	0xbc987e8c	-0.01861503
118	0x3da6e6f1	0.08149517
119	0x3a6135b6	0.00085910724
120	0xbd647ec2	-0.05578495
121	0x3cb42ecc	0.02199497
122	0x3c3f459a	0.011674309
123	0x3dcf62a3	0.10126235
124	0x3db6e471	0.089302905
125	0x3c465a23	0.012106451
126	0x3da8d0d1	0.082429536
127	0x3d2114b7	0.039326396
128	0xbda42945	-0.08015684
129	0x3d4c1957	0.049828853
130	0x3d4d90ec	0.050187036
131	0xbdc290aa	-0.09500249
132	0xbd5f159b	-0.054463964
133	0xbdbd9f7f	-0.09258937
134	0xbd900d06	-0.07033734
135	0x3cfe7512	0.031061683
136	0x3d6742ce	0.056460194
137	0xbd4cc422	-0.049991734
138	0xbdac78da	-0.08421488
139	0xbc94fe5a	-0.01818769
140	0x3dc424b3	0.09577312
141	0x3d50f033	0.05101032
142	0xbc042fe1	-0.008068056
143	0x3d9a7181	0.075411804
144	0xbd97bd37	-0.07409137
145	0x3d5212c2	0.05128742
146	0xbd0af023	-0.03392042
147	0xbd212df0	-0.03935045
148	0xbdbbbf91	-0.09167398
149	0x3db0c884	0.08631995
150	0x3da0388f	0.07823288
151	0xbd5339f9	-0.05156896
152	0xbdbf5938	-0.09343189
153	0x3ce4ef36	0.027946096
154	0x3d1c805d	0.038208354
155	0xbd87d8df	-0.06633162
156	0x3cfa2263	0.030533975
157	0x3de7eb34	0.11324158
158	0xbdbdabb7	-0.09261268
159	0x3dca6eec	0.09884438
160	0x3d4a4113	0.049378466
161	0xbd348356	-0.044070564
162	0x3db2df2b	0.08733972
163	0xbd557bcf	-0.052120026
164	0xbd35b032	-0.044357486
165	0x3d4d51b9	0.050126765
166	0xbb9e8579	-0.0048376885
167	0x3d0a5bb1	0.03377885
168	0xbdaf5fed	-0.08563218
169	0xbc991556	-0.018686932
170	0xbdc495a9	-0.09598858
171	0x383920d7	4.413802e-05
172	0xbc5308e0	-0.012880534
173	0x3d79a087	0.060944106
174	0x3dd85d77	0.10564702
175	0x3dac7496	0.084206745
176	0xbda66212	-0.08124174
177	0x3d544a44	0.051828638
178	0x3dd13cad	0.10216651
179	0x3d02dfbe	0.03195166
180	0xbd33bcd1	-0.04388124
181	0xbd5755f3	-0.052572202
182	0xbdedf82b	-0.116196
183	0xbdd83f75	-0.105589785
184	0x3c262b21	0.010142119
185	0x3d9e7fbd	0.07739208
186	0x3dac0efc	0.084012955
187	0xbd80bdd6	-0.06286208
188	0x3d1331e8	0.035936266
189	0x3c83e5e3	0.01610083
190	0xbc18b7a9	-0.009321132
191	0xbdc8e7c4	-0.09809831
192	0xbd6f7f1d	-0.058470834
193	0x3dc71abc	0.09721896
194	0x3dd702cb	0.104985796
195	0x3ce57212	0.028008495
196	0x3d7f7dc8	0.062375814
197	0xbdb5e120	-0.0888083
198	0xbde807d5	-0.11329619
199	0xbdb07f98	-0.086180866
200	0xbca129b0	-0.019673198
201	0x3db36d67	0.08761101
202	0x3d1ff9d4	0.039056614
203	0xbd412dfe	-0.047163002
204	0xbdc560c8	-0.096376
205	0xbdaabdb3	-0.083369635
206	0xbdb803d6	-0.08985107
207	0xbd7ff44a	-0.06248883
208	0xbca400c6	-0.0200199
209	0x3d950d78	0.072779596
210	0xbc9c1584	-0.019053228
211	0xbd83ed84	-0.06441787
212	0xbdc5b329	-0.09653313
213	0xbd548c8b	-0.051891845
214	0xbdc6cd22	-0.09707095
215	0x3da74724	0.08167866
216	0xbd2b2c14	-0.041790083
217	0xbd948658	-0.072521865
218	0x3d6747f8	0.05646512
219	0x3d534d90	0.05158764
220	0x3db02b63	0.08602025
221	0x3d7d7763	0.061881434
222	0xbae3b031	-0.0017371235
223	0xbdbaaaf8	-0.09114641
224	0xbcd76730	-0.02629432
225	0xbc1b6604	-0.009484772
226	0x3d7300ff	0.05932712
227	0xbb80b3f0	-0.0039277
228	0x3dae8515	0.08521477
229	0x3d856617	0.06513613
230	0x3db475f6	0.08811562
231	0xbd483d93	-0.048886847
232	0x3d7c1184	0.06154014
233	0x3ce55336	0.02799378
234	0xbd4a5f17	-0.04940709
235	0xbda952ab	-0.08267721
236	0x3db8e10e	0.09027301
237	0x3d2b48a6	0.04181733
238	0xbd149259	-0.03627238
239	0xbd1bc73e	-0.03803181
240	0xbd2db865	-0.04241218
241	0xbc12af9c	-0.008953001
242	0x3c4f3a5e	0.012648193
243	0xbd814c28	-0.06313354
244	0xbdcb2b71	-0.09920395
245	0x3d535be4	0.051601306
246	0x3cdc6882	0.026905302
247	0xbdc6d16e	-0.09707914
248	0xbc49e694	-0.0123230405
249	0xbdbd20f3	-0.092348
250	0x3c94b93b	0.018154731
251	0x3ba49b01	0.0050233607
252	0xbcfa661d	-0.03056627
253	0xbce257f5	-0.027629832
254	0x3d842dc5	0.06454042
255	0x3db1ea4e	0.08687268

convs.1.bias f4 [128]
0	0x3b7c8be2	0.0038535525
1	0xbc01f5a4	-0.0079321
2	0xbbc5b997	-0.006034087
3	0xbb93c762	-0.0045098523
4	0x3bd6ed3d	0.0065590427
5	0x3bd73959	0.0065681157
6	0x3b82e750	0.0039948598
7	0xbbd6f153	-0.00655953
8	0xbc09513c	-0.008381184
9	0x3bc93e5c	0.006141467
10	0x3c159731	0.009130285
11	0x3a53968f	0.0008071446
12	0x3b7e9605	0.0038846743
13	0xbb5bb90a	-0.003352704
14	0x3bdf2c15	0.006810675
15	0xba9b3dd8	-0.0011843992
16	0xbb4d311f	-0.0031309796
17	0x3be2f1c3	0.006925793
18	0x3c0bb1a2	0.008526238
19	0x3bcbef92	0.0062236274
20	0x3bbea581	0.0058180694
21	0x3b75fe06	0.0037535443
22	0xbc0a6362	-0.008446546
23	0x3bdca903	0.006734015
24	0x3c01e4e4	0.007928107
25	0x3bdb8ffc	0.006700514
26	0x3b86187c	0.0040922742
27	0xbb4a86d1	-0.003090311
28	0xba521253	-0.0008013595
29	0xbb8b259f	-0.004246428
30	0x3a52a0a5	0.0008034802
31	0x3bee7a54	0.0072777662
32	0xb9f166e4	-0.00046043762
33	0xbb85699a	-0.0040714266
34	0x3bae37d3	0.0053167134
35	0xb9728732	-0.00023129283
36	0x3b8f368a	0.0043705152
37	0x3c1014e5	0.008794044
38	0x3aca8f52	0.001545409
39	0xbb99963f	-0.0046871
40	0xbb03ce62	-0.0020112027
41	0x3baf53b2	0.0053505534
42	0x3bc85936	0.0061141504
43	0xbab5939c	-0.0013853195
44	0x3b2a9070	0.0026026033
45	0xbb6bf2db	-0.0036002907
46	0xbb8ac2e6	-0.0042346595
47	0xbc1876a7	-0.009305633
48	0xbb4accc9	-0.0030944815
49	0x3b897f07	0.004196051
50	0xb8c95ec4	-9.602078e-05
51	0x3ba66bfc	0.0050787907
52	0x38d4cbb6	0.00010146892
53	0x3a948254	0.0011330345
54	0x3bbc4b19	0.005746257
55	0x3be8f3b7	0.007109131
56	0xbbd6d4e9	-0.0065561426
57	0x3ba331a4	0.004980283
58	0x3a8e89f8	0.0010874858
59	0x39a6a279	0.0003178304
60	0xbb5700b5	-0.0032806818
61	0xbc077531	-0.008267687
62	0x3b48d792	0.0030646068
63	0xbbbd56ac	-0.0057781544
64	0xbb866e4e	-0.004102505
65	0x3ad72247	0.0016413414
66	0x3c148378	0.009064548
67	0xb869ae94	-5.5714117e-05
68	0x3b71cb25	0.0036894765
69	0x3b656aff	0.0035006402
70	0x3c199e44	0.009376112
71	0x3b2dfb9a	0.0026547671
72	0x3c0ff6ad	0.008786839
73	0x3c1af044	0.009456698
74	0xbc0b99e4	-0.008520577
75	0x3bc0165e	0.0058620414
76	0xb9d0ef34	-0.00039851072
77	0xbb0df162	-0.0021658768
78	0xbbc97715	-0.006148229
79	0x3b6237f1	0.0034518207
80	0xbc074cb7	-0.008258036
81	0x3bd09bf5	0.006366248
82	0x3a3f4f06	0.0007297847
83	0xbc1d098f	-0.0095847985
84	0x3bb44ce3	0.0055023297
85	0x3bd77f5a	0.006576461
86	0x3b41497c	0.0029493263
87	0xbbde063b	-0.006775645
88	0x3b9f9bdc	0.004870875
89	0xbc03faba	-0.008055383
90	0x3ac79de5	0.0015229551
91	0x3bbf4f4b	0.00583831
92	0x3bcb9f56	0.0062140627
93	0x3996da6e	0.00028772972
94	0x3bd02d4d	0.0063530565
95	0xbbd2c6a4	-0.006432371
96	0xbb99d88f	-0.0046950052
97	0x3c19e6ab	0.009393374
98	0x3c0d35e2	0.008618804
99	0x3bc39413	0.0059685796
100	0xbbe14700	-0.006874919
101	0x398ab340	0.00026454963
102	0x3b7fe795	0.0039047946
103	0xbbdae260	-0.006679818
104	0xbb9e39d0	-0.004828669
105	0x3b63a34a	0.003473478
106	0x3b87be64	0.0041425694
107	0xbbd1020d	-0.0063784183
108	0xbb7602e0	-0.0037538335
109	0x3c19f21b	0.009396101
110	0xb8f6a3b1	-0.00011760684
111	0x3c1d7831	0.009611175
112	0xba8968f7	-0.0010483552
113	0x3a81d2e6	0.0009904772
114	0x3bb8fe09	0.0056455177
115	0x3b843b63	0.0040353998
116	0x3c1a04f5	0.009400596
117	0x3b97b936	0.004630233
118	0xbbaa1f5e	-0.0051917275
119	0x3b795b5f	0.0038048846
120	0x3bf8dcee	0.0075946962
121	0x3b8b63e9	0.0042538536
122	0xbb8c4ad1	-0.0042813797
123	0x3b3ee528	0.0029128287
124	0x3bdb0a16	0.006684552
125	0xbbe96ddd	-0.0071236924
126	0x3b57f9ee	0.0032955366
127	0x3b065666	0.0020498275

convs.1.lin.weight f4 [128, 128]
0	0x3d316ea7	0.043318417
1	0x3e02dc3a	0.12779322
2	0x3dbde5c7	0.09272342
3	0xbd45ca2d	-0.048288513
4	0xbe08ddb1	-0.13365819
5	0x3cfd5a1d	0.030926758
6	0x3d0e948a	0.034809627
7	0x3e15e531	0.14638211
8	0x3da90094	0.082520634
9	0xbda398e8	-0.07988149
10	0xbe023aab	-0.12717693
11	0x3c52648d	0.012841356
12	0xbc8ae3fd	-0.016954416
13	0x3d38fe2f	0.045164283
14	0xbe1afe6c	-0.15136117
15	0xbe17898d	-0.14798565
16	0x3de5501e	0.11196922
17	0xbd812da2	-0.06307532
18	0x3dac6b6d	0.08418927
19	0xbc6a9ac0	-0.014319122
20	0xbdfc996a	-0.12333949
21	0x3e1a602c	0.15075749
22	0x3d3ffd6a	0.046872534
23	0x3dcc3df9	0.09972758
24	0xbe0ca091	-0.13733126
25	0xbd0f4c59	-0.03498492
26	0x3e0522cd	0.13001557
27	0xbdc83bfa	-0.097770646
28	0xbdb757c8	-0.0895229
29	0xbd37d547	-0.04488113
30	0x3e07aa51	0.13248564
31	0xbc2a9172	-0.010410653
32	0x3bd47802	0.0064840326
33	0xbd514b22	-0.051097043
34	0x3dd0ec73	0.10201349
35	0xbca4905e	-0.02008837
36	0x3d1069d3	0.03525717
37	0x3db7a6fd	0.08967397
38	0xbddb9f90	-0.107237935
39	0xbd41f7ad	-0.047355343
40	0xbcd410c1	-0.025886895
41	0xbdde61b7	-0.108584814
42	0x3d93c9c8	0.07216221
43	0x3e1869d3	0.14884119
44	0x3e03ee0d	0.12883778
45	0x3d15bac7	0.036555078
46	0xbe00f451	-0.125932
47	0xbcb04083	-0.021515137
48	0x3c15a8f1	0.009134517
49	0xbbb6edef	-0.005582563
50	0x3db80090	0.08984482
51	0x3cfa3fac	0.03054794
52	0x3d3b0c6a	0.045666136
53	0x3d9d97e1	0.07694984
54	0x3e1a1bbc	0.15049642
55	0xbd09c3c5	-0.033633966
56	0x3dec872e	0.11549221
57	0xbdfad0ed	-0.12246881
58	0x3d92f486	0.071755454
59	0x3da4a054	0.08038393
60	0xbdda8c4b	-0.1067129
61	0x3de64854	0.11244264
62	0x3da32bee	0.07967363
63	0x3cefe8b6	0.02928577
64	0x3e14683e	0.1449289
65	0x3e0d4483	0.13795666
66	0xbca493c9	-0.02009
67	0x3bac618f	0.0052606533
68	0xbc8fec12	-0.017568622
69	0x3d34f1a4	0.04417576
70	0x3e0107e2	0.12600663
71	0x3e18a5f8	0.14907062
72	0xbd69788a	-0.05699972
73	0x3cb42a33	0.021992778
74	0x3e123293	0.14277105
75	0xbacd0de5	-0.00156444
76	0x3e01228c	0.12610835
77	0x3de3dd5d	0.11126206
78	0xbd9cdb63	-0.07659032
79	0x3d5493fc	0.05189894
80	0x3db6664b	0.089062296
81	0xbdd159a7	-0.10222178
82	0xbd1148cc	-0.035469815
83	0x3dd41e38	0.10357326
84	0xbd7940f7	-0.06085297
85	0xbd4b65cf	-0.04965764
86	0xbdd7b862	-0.10533215
87	0x3daafac4	0.08348611
88	0x3e01b1a1	0.12665416
89	0x3c8fe103	0.017563349
90	0x3d60082e	0.0546953
91	0x3d54288d	0.051796485
92	0x3d6a531e	0.057208173
93	0xbd868f93	-0.06570353
94	0xbdb8d8b9	-0.090257116
95	0x3c4b1586	0.012395268
96	0xbdd6f5c7	-0.10496097
97	0xbdc3eef9	-0.09567065
98	0x3dcad978	0.0990476
99	0x3ded71e4	0.115939885
100	0xbd14abc6	-0.03629663
101	0xbe117a0d	-0.14206715
102	0x3d4d13c2	0.05006767
103	0xbd985631	-0.07438315
104	0x3d9aa9bd	0.07551906
105	0x3d37d407	0.04487994
106	0x3d19a66b	0.037512224
107	0xbdcae370	-0.099066615
108	0x3d138981	0.036019806
109	0x3dc9795f	0.09837603
110	0x3d25fbff	0.040523525
111	0x3dcf3dd5	0.101192154
112	0xbd9562ca	-0.07294233
113	0xbd888667	-0.0666626
114	0xbd36d0c0	-0.044632673
115	0xbe126d0b	-0.14299409
116	0x3d84ba1b	0.06480809
117	0xbd39cb7e	-0.04536008
118	0xbe132292	-0.14368656
119	0x3d99120e	0.07474147
120	0xbe13dd61	-0.14439918
121	0xbe101287	-0.14069568
122	0x3cbdc761	0.02316636
123	0xbdbe2908	-0.0928517
124	0x3dd60cf7	0.104516916
125	0xbdc5c225	-0.09656171
126	0xbd830672	-0.06397714
127	0xbdbdf482	-0.09275152
128	0xbdd63c73	-0.104607485
129	0x3dd7fe84	0.10546592
130	0xbd8e7245	-0.06955389
131	0xbe08b7d5	-0.13351376
132	0x3d9c54cb	0.076333605
133	0xbdb978fa	-0.090562776
134	0xbdd90e99	-0.105984874
135	0xbd0e8f1e	-0.034804456
136	0x3d0576e2	0.03258408
137	0x3dd80f67	0.10549813
138	0x3cab17a0	0.020885289
139	0x3d91e092	0.071229115
140	0xbdcd3271	-0.100193866
141	0x3d1075e5	0.035268683
142	0x3d92784f	0.07151853
143	0x3d8f4984	0.06996444
144	0xbce24bf7	-0.027624113
145	0x3d9b589d	0.07585261
146	0x3cd7fdc3	0.02636612
147	0xbd1c014d	-0.038087178
148	0xbdaa298f	-0.08308708
149	0x3bb4924d	0.0055106045
150	0x3dfd1cd4	0.12359014
151	0xbd4e716f	-0.050401147
152	0xbdffb2fc	-0.124853104
153	0x3cef4db3	0.029211855
154	0xbe21d5e0	-0.15804243
155	0x3c83002c	0.015991293
156	0xbdf7a24e	-0.12091504
157	0xbc2adeb2	-0.010429071
158	0xbdfa6457	-0.122261696
159	0x3e07a32d	0.1324584
160	0xbda7d858	-0.08195561
161	0xbcefd7b9	-0.02927767
162	0x3e165f7a	0.14684859
163	0xbce789af	-0.028263895
164	0xbdc8428d	-0.097783186
165	0xbe1da398	-0.15394437
166	0xbcf5c40b	-0.030000707
167	0x3cbe688b	0.02324321
168	0x3d486438	0.0489237
169	0x3d3b489d	0.045723546
170	0xbcb17f06	-0.021667015
171	0x3cb0a875	0.021564702
172	0x3d9a5c74	0.07537165
173	0x3cf750a5	0.030189821
174	0x3d39299c	0.045205697
175	0x3dac44b4	0.084115416
176	0xbdb97fd1	-0.09057582
177	0xbcde8b33	-0.027165985
178	0x3d4cb207	0.049974468
179	0xbe0d9edd	-0.13830133
180	0x3db0e948	0.08638245
181	0xbdfcfbcf	-0.12352716
182	0x3d4739fb	0.04863928
183	0xbde3f4e7	-0.11130696
184	0x3de12540	0.10993433
185	0x3d6521c8	0.05594042
186	0xbe235f37	-0.1595429
187	0xbe039c50	-0.12852597
188	0xbe0c76a2	-0.1371713
189	0x3ce2c1fc	0.02768039
190	0xbb116363	-0.0022184483
191	0x3ced6de3	0.028983062
192	0xbdb53e3d	-0.08849762
193	0xbd4b7b51	-0.04967815
194	0xbdb7f4f7	-0.0898227
195	0x3da8fdc0	0.08251524
196	0xbe0ec7f6	-0.13943467
197	0x3df5bf58	0.119993865
198	0x3c4e4bee	0.012591345
199	0xbe07a420	-0.13246202
200	0xbdd37374	-0.10324755
201	0xbdbd829a	-0.09253426
202	0x3b97e478	0.00463539
203	0x3d1e1536	0.038594447
204	0xbe23ff6a	-0.16015401
205	0x3da0aab3	0.07845058
206	0x3da84f89	0.08218295
207	0xb9dc44c5	-0.00042012907
208	0x3e00bd91	0.12572314
209	0xbcfe9f24	-0.031081744
210	0xbdf748ac	-0.12074408
211	0x3e0646ad	0.13112898
212	0xbd889dd4	-0.06670728
213	0x3daccaf2	0.08437146
214	0x3c377173	0.011196482
215	0xbd75a232	-0.059969135
216	0x3d7d5d73	0.0618567
217	0xbddc6313	-0.107610844
218	0xbcd67728	-0.026179865
219	0xbba4abdc	-0.00502537
220	0xbd92c602	-0.07166673
221	0x3ba8ad13	0.005147585
222	0x3d74fb11	0.059809748
223	0xbe1b0f5f	-0.15142582
224	0xbd93c3c0	-0.07215071
225	0x3df64217	0.120243244
226	0x3d266a43	0.040628683
227	0xbdbe84bc	-0.09302661
228	0xbda5afb5	-0.08090154
229	0x3d981edc	0.07427761
230	0xbd92b22c	-0.0716289
231	0x3d6a3266	0.05717697
232	0x3c8ec1ec	0.017426454
233	0xbdcf4333	-0.10120239
234	0x3dd48f73	0.10378923
235	0x3e1d8b6a	0.15385213
236	0xbddfad05	-0.10921673
237	0xbcc0b5e1	-0.023524227
238	0xbdd08b32	-0.101827994
239	0xbd21fa23	-0.03954519
240	0x3dc22812	0.09480299
241	0xbdb7cfe8	-0.08975202
242	0xbb2ad9ad	-0.0026069686
243	0xbe233afe	-0.15940472
244	0xbddc0bb1	-0.107444175
245	0xbd23b077	-0.039963212
246	0xbe002bab	-0.12516658
247	0x3e15a7fe	0.14614865
248	0x3d96def6	0.07366745
249	0x3d840bab	0.06447538
250	0x3c86b849	0.016445296
251	0xbdbb1039	-0.091339536
252	0xbe17fba3	-0.14842086
253	0xbdc9e397	-0.098578624
254	0x3ce7c6af	0.028292982
255	0x3c940b94	0.018071927

lin.weight f4 [2, 128]
0	0xbd8a92a6	-0.06766252
1	0xbd3c71e6	-0.04600706
2	0x3d81a019	0.06329364
3	0x3cd12ca3	0.02553398
4	0xbdaab841	-0.08335925
5	0x3d9f2fcb	0.07772788
6	0x3b442a44	0.002993242
7	0x3cd0f1da	0.025505949
8	0x3da216e5	0.07914523
9	0x3d948ebf	0.07253789
10	0xbd8c9801	-0.0686493
11	0x3db70afb	0.08937641
12	0x3c2b1758	0.010442577
13	0x3da0c916	0.07850854
14	0x3cfba846	0.030719887
15	0x3d18c8aa	0.037300743
16	0xbd359a83	-0.044336807
17	0xbdb5ca02	-0.088764206
18	0xbd510880	-0.051033497
19	0xbdb7d79e	-0.089766726
20	0xbd9969cd	-0.07490883
21	0xbc020101	-0.00793481
22	0xbc5cf452	-0.013485985
23	0x3d8c7ba3	0.06859519
24	0xbd95b25f	-0.07309412
25	0xbda3189d	-0.07963679
26	0xbd9a0449	-0.075203486
27	0x3d4cdc09	0.05001453
28	0x3d2e8810	0.042610228
29	0xbcc6c3ea	-0.024263341
30	0xbc8a197a	-0.016857851
31	0x3d399383	0.045306694
32	0x3d681a1c	0.056665525
33	0x3d4c75f4	0.049917176
34	0xbd15c340	-0.036563158
35	0x3d4e3f96	0.05035361
36	0xbd2a14af	-0.04152363
37	0xbc361329	-0.011112967
38	0xbd976fc6	-0.07394366
39	0x3d8f59b0	0.069995284
40	0xbd0155c8	-0.031575948
41	0xbda4fb7a	-0.08055778
42	0x3adb137c	0.0016714181
43	0xbd6e2568	-0.058141142
44	0xbda13ccc	-0.07872924
45	0x3cc9e70a	0.0246463
46	0x3c9cd852	0.019146118
47	0xbcb84575	-0.022494057
48	0x3c8fd7b0	0.017558903
49	0xbc211878	-0.009832494
50	0x3d8c034f	0.068365686
51	0x3c98e375	0.018663147
52	0x3da19c73	0.078911684
53	0x3d96d853	0.07365479
54	0xbd214d65	-0.03938045
55	0x3c8863e3	0.016649192
56	0x3c056f4f	0.008144214
57	0x3bd647f2	0.0065393383
58	0x3d11fabb	0.035639506
59	0xbda774eb	-0.08176597
60	0xbc4a5f64	-0.012351844
61	0x3d37ab3d	0.04484104
62	0xbd8d9ea5	-0.06915025
63	0xbd1c2d2d	-0.03812902
64	0xbdb297eb	-0.08720382
65	0x3d368562	0.044560798
66	0xbc7ba4b0	-0.015359089
67	0x3daa57c1	0.08317519
68	0xbdbbd4e1	-0.09171463
69	0xbd9930ba	-0.07479997
70	0xbabd035a	-0.0014420555
71	0xbd8193c2	-0.06327011
72	0xbda37c03	-0.07982638
73	0x3c91b767	0.017787648
74	0xba8ef089	-0.0010905425
75	0xbd86627d	-0.06561754
76	0x3da665fa	0.08124919
77	0xbd91d5df	-0.07120871
78	0x3d8481e7	0.064700894
79	0xbcc6efe2	-0.024284307
80	0xbc1685d7	-0.009187183
81	0x3d1cf55a	0.038319923
82	0xbd803583	-0.062602066
83	0x3ccdc1a5	0.025116751
84	0x3c3926d8	0.011300765
85	0xbd5b44da	-0.05353246
86	0x3c5cd979	0.013479584
87	0x3baf5334	0.0053504948
88	0xbd8bfcb5	-0.068353094
89	0xbd846de3	-0.06466272
90	0x3cbb2415	0.022844354
91	0xbbef7061	-0.007307098
92	0xbda0227b	-0.07819077
93	0xbda1ef64	-0.07906988
94	0xbba7ce46	-0.0051210253
95	0x3c8f0e5d	0.017462904
96	0x3c239038	0.009983115
97	0x3db56589	0.08857257
98	0xbd9c2a34	-0.07625237
99	0xbdaca298	-0.0842945
100	0x3c538724	0.012910638
101	0x3d9e3a91	0.077260144
102	0xb92f15fe	-0.00016697493
103	0x3d4681ec	0.048463747
104	0x3cf46e86	0.029837858
105	0xbbf70e03	-0.007539512
106	0xbcfbc40e	-0.030733135
107	0xbcddb31a	-0.027062941
108	0x3cbda2a3	0.02314884
109	0xbd1d775d	-0.03844391
110	0x3d84bbed	0.064811565
111	0x3d956491	0.07294572
112	0xbd76401e	-0.06011974
113	0xbd01fd50	-0.03173572
114	0x3d1f7b50	0.03893596
115	0xbd967ca9	-0.07347996
116	0x3cfdfe40	0.031005025
117	0xb830f7e7	-4.2192547e-05
118	0xbd6d2633	-0.057897758
119	0xbd9b42a0	-0.07581067
120	0xbd8ee1b2	-0.06976642
121	0xbd017f8a	-0.03161577
122	0xbd378ac8	-0.044810086
123	0xbcd9f649	-0.026606696
124	0xbd633b5b	-0.055476528
125	0xbd14fb5e	-0.036372535
126	0x3d896af3	0.06709852
127	0x3d87e366	0.0663517
128	0x3d9ca21e	0.07648109
129	0xbd9be6e9	-0.07612402
130	0xbc0278ee	-0.007963402
131	0xbda4a948	-0.080401
132	0x3d6d0356	0.05786451
133	0xbd00179c	-0.031272516
134	0x3d28b6bd	0.041189898
135	0xbc2aeab5	-0.010431935
136	0xbcd5ba5b	-0.026089838
137	0x3c8c57bd	0.01713168
138	0x3c1687a7	0.0091876155
139	0x3d40a914	0.047036245
140	0xbda3d86b	-0.08000263
141	0x3d92f344	0.071753055
142	0x3d628aa1	0.055307988
143	0xbd68f799	-0.056876753
144	0x3c6a0936	0.014284423
145	0x3d3e7c18	0.046505064
146	0xbd859851	-0.06523193
147	0x3dbc518b	0.091952406
148	0x3d42cb0e	0.04755693
149	0x3d778661	0.060430888
150	0xbc3aa7e7	-0.01139257
151	0x3dc46e50	0.09591353
152	0xbc47db05	-0.012198214
153	0x3d85982b	0.06523164
154	0x3dbad6b2	0.09122981
155	0xbcd067ef	-0.025440184
156	0xbd8300f4	-0.06396666
157	0xbd0f09b1	-0.03492135
158	0xbd307bba	-0.043086745
159	0xbd7aac64	-0.06119956
160	0x3d5197ae	0.051170044
161	0xbd831fef	-0.06402575
162	0x3d8a2523	0.067453645
163	0xbd263599	-0.04057846
164	0x3d659420	0.056049466
165	0x3d875eac	0.06609854
166	0x3da05d79	0.078303285
167	0xbc589b20	-0.013220578
168	0xbd97a640	-0.074047565
169	0x3d4a89c8	0.049447805
170	0x3d2590c9	0.04042128
171	0xbd34667a	-0.04404304
172	0xbd327eef	-0.043578085
173	0x3cd467be	0.025928374
174	0xbda86c83	-0.08223822
175	0xbc4ad01d	-0.01237872
176	0xb8b1e3e7	-8.482468e-05
177	0x3c9b3973	0.018948292
178	0x3cc5d9d7	0.024151726
179	0x3d308000	0.04309082
180	0xbcfbf40b	-0.030756017
181	0x3d0dc5be	0.03461241
182	0x3bade542	0.0053068707
183	0xbd03d50d	-0.032185603
184	0xbd7139b6	-0.058892928
185	0x3d9cf4ed	0.076639034
186	0xbc806483	-0.015672928
187	0xb9eb8e9d	-0.00044928948
188	0x3ba830e5	0.005132782
189	0xbbd988e9	-0.0066386354
190	0x3bfb30f8	0.0076657496
191	0xbc548067	-0.012970067
192	0xbd98608e	-0.07440291
193	0x3d5ef98e	0.054437213
194	0x3c8988c9	0.016788857
195	0xbc25f5f7	-0.010129443
196	0x3dc4e448	0.09613854
197	0x3d4e5141	0.05037046
198	0x3dbbe4ea	0.09174521
199	0xbd7ff272	-0.062487073
200	0x3cdd5bc0	0.027021289
201	0xbd884640	-0.06654024
202	0x3d47f2bc	0.048815474
203	0x3dc125b8	0.094310224
204	0xbb0248af	-0.0019879749
205	0xbd67de17	-0.056608286
206	0xbc57859c	-0.013154414
207	0x3d94e143	0.07269528
208	0xbc5a4242	-0.013321461
209	0xbda931f4	-0.08261481
210	0x3c06d966	0.008230543
211	0x3d496c3a	0.04917548
212	0x3d59315c	0.05302559
213	0x3d36cfbf	0.044631716
214	0xbdb0e2f4	-0.08637038
215	0xbbd05d2f	-0.0063587646
216	0xbd3bfd72	-0.045896
217	0xbda1757a	-0.07883735
218	0x3b4514b8	0.0030072164
219	0x3d1f75c9	0.038930688
220	0x3dab9ce4	0.08379534
221	0x3bb3fd7e	0.005492865
222	0x3d8fed5a	0.07027693
223	0xbd183423	-0.037159096
224	0xbd96b757	-0.07359188
225	0x3c85cd42	0.016333226
226	0x3d1e331e	0.038622968
227	0xbd0e1372	-0.034686513
228	0x3c05a6cc	0.008157443
229	0x3c07d98d	0.008291614
230	0x3d6f7c8d	0.05846839
231	0x3d6fd6f3	0.0585546
232	0xbc096d1b	-0.008387829
233	0xbd20f2b0	-0.039293945
234	0x3d8968ca	0.0670944
235	0x3c9fdd77	0.019514782
236	0xbb95cf5d	-0.004571839
237	0xbbe30de9	-0.0069291485
238	0x3b448238	0.0029984843
239	0x3cccd0ed	0.025001967
240	0x3d873b59	0.066031165
241	0xbd7eff22	-0.062255032
242	0xba8207f3	-0.0009920582
243	0x3da830d5	0.08212439
244	0x3c191262	0.009342762
245	0x3d0ce1d8	0.03439507
246	0xbd7cff32	-0.06176681
247	0x3ca31dbd	0.019911641
248	0xbd32c658	-0.043646187
249	0x3c84a9f0	0.016194314
250	0xbd91c3ac	-0.071173996
251	0x3aa27a1a	0.0012396008
252	0x3d895d3e	0.06707238
253	0xbd6d4559	-0.057927463
254	0xbd8495d5	-0.06473891
255	0x3c6aacb7	0.014323405

lin.bias f4 [2]
0	0xbd27499c	-0.040841684
1	0x3d7747c4	0.060371175
