Test_Result/GNN/gnn_model_template.pt (torch, 271189 bytes, 6 tensors)

convs.0.bias f4 [128]
00000000: dde5 01bc bb1c 99bb db77 db3b 8eeb 223c
00000010: 2218 153c 2042 253c 8734 cfbb abd6 1b3c
00000020: c5a5 243c 6cae 253c a94b 223c f25f 243c
00000030: 4401 243c 9d7c e7bb 226d 65bb 39c2 e33b
00000040: 5c31 253c e3f8 16bc ed65 bd3b e201 253c
00000050: 350d c5bb ec08 203c e557 08bc 842c e9bb
00000060: 0b0b b23a 9aa7 203c 2add 233c c670 cdbb
00000070: e22f 263c c620 203c fc86 3abb 74b8 e8ba
00000080: d259 253c 4e94 6bba 5f42 b3bb 1b23 083c
00000090: bd1d 223c 2501 263c 124c f2ba a11d c33b
000000a0: 1080 10bc cda7 de3b 00d1 1a3c e33d 233c
000000b0: 21d9 1f3c 42ea e1bb b447 aebb 2dcb 9ebb
000000c0: d5f1 ccbb fc9e 013b 983c e73b 9a4e 253c
000000d0: 2d21 9fbb 4c28 213c 2237 243c 75bf 213c
000000e0: 300d fabb b733 243c 6b82 1b3c 719a 03bc
000000f0: 37d4 8bbb 52f9 04bc 5213 c23b 7a38 243c
00000100: 0e07 4b3b aacb 233c 172d 253c 9530 2d3b
00000110: 4a8f 253c b8b1 063b 4af1 233c 7c70 043c
00000120: 6491 c6bb 0d39 223c fa86 64bb dc6f 253c
00000130: 395e 12bc 07f6 f7bb b221 a5bb 761f 223c
00000140: 2700 223c 648d 213c 67d1 e0bb f7fa 233c
00000150: fd9f 683b 88ea 253c d952 ef3b 3fe9 e43b
00000160: b65a 1d3c fb9b 243c 2d28 263b 3105 e53b
00000170: d504 1f3c 44e9 febb 7fac 253c eeef 243c
00000180: 4836 0fbc 927e 213c 0ab4 1b3c e3b1 71bb
00000190: 7297 f73b f3a1 1d3c 2e7f cfbb ca40 223c
000001a0: 98ce 233c 70ca 21bc 6274 89bb dd0b 88ba
000001b0: 5c37 00bc 9185 133c e6a3 893b 1ca5 233c
000001c0: 7e2f bcba 1fdd 223c 5c65 dd3a 6ea0 203c
000001d0: 216a 06bc 0ac7 03bc cb3d 07bc 8b7a 253c
000001e0: 15f9 223c 3825 1c3c 5d4a 243c 7476 6c3b
000001f0: 2dab cbbb 4c01 a7bb 3a08 253c 812e 253c
-0.007928339 -0.0046726144 0.0066976375 0.009943856 0.009099992 0.010086566 -0.0063234004 0.00951163
0.010049288 0.010112386 0.009905734 0.010032641 0.010010067 -0.0070644156 -0.0035007675 0.0069506434
0.010082569 -0.009214613 0.0057799728 0.01007125 -0.0060135373 0.009767752 -0.008321737 -0.0071159024
0.0013583613 0.009805584 0.01000146 -0.006269547 0.010143252 0.009773439 -0.0028461805 -0.0017755167
0.010092216 -0.00089866377 -0.0054705585 0.008309151 0.0098947855 0.010132109 -0.0018485805 0.00595446
-0.008819595 0.0067949058 0.009449244 0.009963485 0.009756357 -0.006894381 -0.0053186063 -0.004845998
-0.0062544146 0.00197786 0.007056784 0.010089541 -0.00485625 0.009836268 0.01002291 0.009872307
-0.0076309666 0.010022095 0.009491543 -0.008032427 -0.0042672413 -0.008116083 0.0059227133 0.010023231
0.0030979547 0.009997288 0.010081551 0.0026426662 0.010104964 0.0020552706 0.010006258 0.008083459
-0.0060598124 0.009901297 -0.0034870491 0.01009747 -0.008933597 -0.0075671705 -0.005039417 0.009895196
0.009887732 0.00986037 -0.0068609 0.010008565 0.003549575 0.010126717 0.0073035774 0.006985813
0.009604147 0.010046954 0.0025353536 0.0069891443 0.009705742 -0.0077792723 0.010111927 0.010066969
-0.008740969 0.009856837 0.009503374 -0.003687971 0.0075558955 0.009621131 -0.0063322997 0.009903142
0.009997986 -0.009874925 -0.004194782 -0.0010379512 -0.007825699 0.009004013 0.0042004464 0.009988096
-0.0014357415 0.009940415 0.0016891169 0.009803874 -0.008204014 -0.00804306 -0.008254479 0.010100017
0.009947081 0.009530358 0.010027495 0.0036081346 -0.006215474 -0.00509659 0.010072762 0.010081888

convs.0.lin.weight f4 [128, 384]
00000000: 16e9 2ebb 248d 813c 5c56 8a3d 1be7 bd3d
00000010: 2604 a13d 17fa e5bc f2d4 a6bd fff4 de3c
00000020: 6a0f d0bc 554d 48bd 28d7 61bc 4dd9 b33d
00000030: ede7 31bd 9408 313d a436 103b 0e96 983d
00000040: e273 f93c 936d d93c d20e 753d 224a 3e3d
00000050: cafa 20bd 0ce6 b4bd dc48 77bd 232a a93d
00000060: 1981 703d aafd abba 08dc 513d deaf e5bd
00000070: 8452 553a 7914 3fbd 40ae 8bbb 8f62 81bd
00000080: 200c dabd a3ac 21bd c04b 823d 69a2 77bd
00000090: d572 c83d cb0d b13d 5190 d03c 32d3 e83d
000000a0: a6d5 0b3a e0ce c63d c418 cb3d 177c e3bc
000000b0: d197 003a 5d9d 2b3c 9e5b b6bd 8c1f 553d
000000c0: 4d96 993c d57e 8d3c b2f1 cebd 0e62 6bbd
000000d0: 9d7c a33c 0168 73bd a0ba e6bd 219f ea3c
000000e0: 28a0 b9bd 4b6b 223d acaa 15bd 806a 033d
000000f0: c9ae 263b 1d3d e5bc 0937 ab3d 6992 ca3c
00000100: 44ae 9dbd 6de0 933c fdf0 e7bc 1130 703d
00000110: 7b86 903d fee0 5abd 8073 b13d 4f29 ccbd
00000120: 7cbf bdbd a759 6ebd 5b81 cabd 53a9 16bc
00000130: e873 b1bd e184 b8bc e417 53bd e07c af3d
00000140: 6220 bcbc ead7 a1bd d522 d4bd 3311 b2bd
00000150: 0735 e03c c06a efbd babb 4bbd 08dc 14bd
00000160: 6b6d 1ebd 8853 c23d 6220 8dbc 60c5 f3bc
00000170: cfa5 473d 2adc af3c 6939 713d a50c e63a
00000180: 3658 393d a462 833d 9b2b 873d f576 a0bd
00000190: a556 8c3d a5f8 cdbc 50f8 88bd e0c0 56bd
000001a0: e652 afbd 7253 26bd 9a19 adbd 3cf7 40bd
000001b0: 386c d2bc cf01 8dbd d682 b03d 55c1 e3bd
000001c0: 626c d33d ed64 653d feb1 b63d 84ba a3bc
000001d0: 6cfc 213d 6793 a7bd c8df 98bd e768 003c
000001e0: 9499 02bd 0c76 8b3d ba1b 7e3d 8528 b7bb
000001f0: 8525 a53d 7acc 85bd bf6c c3bd 9454 ad3d
00000200: c4d2 39bb db1b da3c 4942 ca3d 3fb3 91bd
00000210: 14da 2ebc 590e 6cbd 9cb5 7c3d 8640 0e3a
00000220: f5a1 cabb 84ad 6e3d 35bf c83d fff3 8d3d
00000230: 5c9d 503c 77e3 363d c624 9bbd e8b7 0ebd
00000240: ece4 a8bd 49ca a73c 9e3a 8fbd f655 d13d
00000250: 5ade d8bb 6dee 7abd 8ce4 b13c 1cca a83d
00000260: 3c94 e9bd 35ae cc3c 58c9 54bd 9caf cf3d
00000270: dbe3 d2bd 0297 9d3c ae03 b5bd 35cb 3fbd
00000280: d51b 8b3c 5375 c9bd 2c4f b4bd 7189 89bb
00000290: 47b3 4d3c bee3 1cbd 2911 b9bd 528d 513d
000002a0: 75c1 353d 836b f4bb f900 a0bd 84c3 54bd
000002b0: ceba c13d 0e48 243d d379 cdbc 7f30 633d
000002c0: d47f bdbd bc4b b33c 42a1 b53c f380 923d
000002d0: 71fa da3c b2f5 d13d b3d6 b1bd 8521 513a
000002e0: 6f1f 5cbd 1dd4 e03c 9ac6 663d 7d75 99bd
000002f0: 93de 403d 1db0 5bbd bd94 203d 6036 b63c
00000300: 45e5 c43d 995e 5bbd 1b00 c33d 2f00 04bd
00000310: a41b 023d 959e 943d 0be8 b4bd 8409 fa3c
00000320: e834 be3a cb17 be3d ccbf 17bd 7c94 003d
00000330: b53c bf3d cd0e 33bd d94f 173c a985 aabd
00000340: 82a2 eabd a57f 853d 8f56 543d 0cb0 893d
00000350: 8bc4 9dbd 5fc3 c23d 56ae da3c 0a0d 293c
00000360: cb88 ce3b d2cf 5dbd 4ded 80bd 2dc0 7c3d
00000370: 2d5e ebbd b79c 503d 8323 fabc 82dc 273c
00000380: 1692 8dbb df82 ac3b d6b1 adbd b53a b9bd
00000390: ed4c 15bd 9121 bb3d e5ca a13c b4fe 033d
000003a0: ced6 e43c 6647 963d fde4 d63d ede8 c53d
000003b0: aa11 babd c063 793d 693f 48ba 3f38 9c3d
000003c0: f36d 65bd 2cd9 bc3c c07f 7e3d 7d53 2fbd
000003d0: 47c8 60bd 6f30 6bbd 9fcb 2d3d 2b15 ef3b
000003e0: f48b cfbd e66e 7ebd 89e6 bc3d e31a bbbd
000003f0: ae31 ce3d 8d10 1abc 81fb 3bbc 3e84 ee3d
-0.0026689223 0.015814371 0.06754753 0.092725955 0.078621194 -0.028073354 -0.08146085 0.027216433
-0.025397975 -0.048901875 -0.013784207 0.08781681 -0.043434072 0.04322107 0.0022005225 0.07450496
0.030450765 0.026541507 0.059828587 0.046457417 -0.03930167 -0.088329405 -0.06037222 0.0825999
0.058716867 -0.0013121862 0.05123523 -0.11215185 0.0008137601 -0.046650384 -0.0042627156 -0.06317627
-0.10646844 -0.03947128 0.063621044 -0.06045762 0.097875275 0.08645209 0.02545944 0.11368407
0.00053342653 0.09707427 0.09916833 -0.027769132 0.0004905435 0.01047453 -0.08904193 0.05203204
0.018748427 0.017272392 -0.101046935 -0.05746656 0.019956881 -0.059425358 -0.11266065 0.028640332
-0.090637505 0.039653104 -0.03653972 0.03208399 0.002543377 -0.027983243 0.083601065 0.024728017
-0.07699254 0.01805135 -0.028313154 0.05863959 0.070569 -0.053437226 0.08664608 -0.099688165
-0.09265038 -0.058190968 -0.09887954 -0.0091956435 -0.086646855 -0.0225243 -0.051536456 0.0856874
-0.02296466 -0.079025105 -0.10358206 -0.08694687 0.027369035 -0.11690283 -0.049739577 -0.03634265
-0.038678568 0.094885886 -0.017227355 -0.029757202 0.04874211 0.021467287 0.05889264 0.0017551376
0.04525014 0.064152986 0.06600114 -0.07835189 0.06852464 -0.025142977 -0.06687987 -0.052430034
-0.085607335 -0.040606923 -0.08452149 -0.04711078 -0.025686368 -0.068851106 0.08618705 -0.111208595
0.10323407 0.056004453 0.08920668 -0.019986399 0.03954737 -0.08182412 -0.07464558 0.007837511
-0.031884745 0.06809625 0.06203816 -0.005589547 0.08063797 -0.065331414 -0.09542226 0.084633976
-0.0028354386 0.02662461 0.09875924 -0.071142666 -0.010672111 -0.05763087 0.061696634 0.0005426485
-0.0061838576 0.058270946 0.09802095 0.06931304 0.01273283 0.04465052 -0.07575373 -0.034843355
-0.082467884 0.0204822 -0.06993602 0.10221474 -0.0066183032 -0.061262537 0.021715425 0.08241674
-0.114052266 0.024985412 -0.05194983 0.10140917 -0.10297366 0.019237045 -0.088385925 -0.046824653
0.016981045 -0.09836831 -0.08804163 -0.0041972925 0.01255495 -0.03830313 -0.09036476 0.051160164
0.044373948 -0.0074591055 -0.078126855 -0.05194427 0.09459458 0.04010778 -0.025082504 0.05546617
-0.09252897 0.021886699 0.02217162 0.07153501 0.026730748 0.10251941 -0.08683529 0.0007977712
-0.053740915 0.027444893 0.056341745 -0.07493112 0.047087263 -0.05363475 0.039204348 0.022242725
0.09614042 -0.053557012 0.095215045 -0.032226738 0.03176464 0.072568096 -0.08833321 0.030522116
0.0014511617 0.09281882 -0.037048146 0.031391606 0.09337751 -0.043715287 0.009235346 -0.08326275
-0.11456777 0.06518487 0.05184036 0.067230314 -0.07703503 0.0950992 0.026694458 0.01031805
0.006302928 -0.05415327 -0.062952615 0.06170671 -0.11492572 0.050930705 -0.030534511 0.010245444
-0.0043203933 0.0052646245 -0.08481185 -0.090444006 -0.036450315 0.09137262 0.019750068 0.032225326
0.027934458 0.07337837 0.10492895 0.09663568 -0.090854004 0.060886145 -0.00076388434 0.076279156
-0.05601306 0.023052774 0.06213355 -0.04280423 -0.0548785 -0.057419237 0.042430516 0.0072962246
-0.10134116 -0.06211748 0.092236586 -0.091359876 0.100680694 -0.00940336 -0.011473537 0.11646317

convs.1.bias f4 [128]
00000000: f954 bc3b 98be 243c 000c 253c 4aa7 203c
00000010: b6ce 243c 9bb9 243c d836 253c f873 2d3b
00000020: 3536 19bc 0b06 fabb 7cfa 253c 8a47 f0ba
00000030: ea7d 243c fd8b 1ebc 3a6a 233c 5cf6 f7bb
00000040: 3949 d4bb 9262 223c 31c7 253c 2b9b 233c
00000050: 46a1 1c3c c68b 04bc 22a5 1bbc 7f76 0fbc
00000060: 7dcc 243c 12b4 fdbb e55a 2d3b 3804 c73b
00000070: 0707 213c 12fd 1c3c d1e5 243c 265f 203c
00000080: 5fdd 233c b86e eb3b 04c6 243c ea89 203c
00000090: 1e87 bbbb c08d 253c 0fee 213c 1ad7 203c
000000a0: d534 02bc 66be 10bc c0b2 1e3c 7591 1539
000000b0: b85f 9bbb d47d 213c 8850 243c 8a52 94bb
000000c0: 66f8 65bb 001b 05bc eccb d5bb 6b24 f4bb
000000d0: 29fe 253c 4cc0 1f3c 6a42 213c fc34 1abc
000000e0: bc9f 233c afa6 243c 7f60 06bc 5044 fc3b
000000f0: 316b 0dba b8fb 253c be68 213c 5fd8 91bb
00000100: fd7a 233c d79e 9d3b b138 6bbb ee11 b6bb
00000110: cd67 253c 4056 ad3b 4352 233c 5d48 c83b
00000120: 5ac9 06bc dcc8 00bc ab2c 223c 4e35 203c
00000130: 3652 233c d925 13bc a7aa cfbb 5343 0e3c
00000140: 2b0d e1bb a625 29bb dc1b 233c 86bc 1dbc
00000150: 2ba9 edbb 7a7d 1d3c 21e5 ffbb 03f5 02bc
00000160: 11e6 1e3c 074b 0fbc 2e3f 50bb 4d49 203c
00000170: 4e17 243c c14a 803b a53d 253c a150 823a
00000180: b715 243c b091 253c b42d 1c3c 7f58 c33b
00000190: 58ba 0dbc add0 10bb 76b9 f9bb 9f11 05bc
000001a0: 44c2 253c 4eb4 583b b804 a7b8 06d6 203c
000001b0: 7944 0dbc ad4b 243c b965 213c a2bb 1d3c
000001c0: 41d1 143b cbd3 8ebb ce3a 253c b178 233c
000001d0: f3e6 68bb 8858 b5bb 5153 263c a0a4 253c
000001e0: 8148 243c be9e 03bc 2171 253c 86dc 9ebb
000001f0: c51a 243c c6de 243c ad3c 1dbc 838b e8bb
0.005747434 0.010055207 0.010073662 0.00980551 0.010059049 0.010054017 0.010083877 0.0026466828
-0.009351303 -0.007630115 0.010130521 -0.0018331867 0.010039786 -0.0096769305 0.009974057 -0.00756721
-0.0064784554 0.009911196 0.010118292 0.009985725 0.009559935 -0.008089965 -0.00949982 -0.008756279
0.010058519 -0.0077424133 0.0026451882 0.006073501 0.009828336 0.009581821 0.010064558 0.00978831
0.010001509 0.0071848296 0.010056976 0.009798506 -0.0057228943 0.010104597 0.009883418 0.009816909
-0.007947166 -0.008834457 0.009686172 0.00014263934 -0.004741635 0.00985666 0.010028966 -0.004526441
-0.0035090684 -0.008124113 -0.0065245535 -0.0074506304 0.010131397 0.009750437 0.0098424945 -0.0094120465
0.009986814 0.010049506 -0.008201717 0.007698573 -0.0005394696 0.010130815 0.009851633 -0.0044508423
0.009978053 0.004810195 -0.0035891945 -0.0055563366 0.010095549 0.005289823 0.009968343 0.006112142
-0.008226717 -0.007860389 0.009898345 0.009778334 0.009968331 -0.008981192 -0.006337482 0.0086830435
-0.006868025 -0.0025809794 0.009955373 -0.009627467 -0.0072528324 0.0096124355 -0.0078092967 -0.007992986
0.009698407 -0.008745915 -0.003177594 0.009783101 0.010015322 0.0039151614 0.010085498 0.0009942242
0.010014943 0.010105535 0.009532381 0.0059614773 -0.008650385 -0.0022097037 -0.0076209856 -0.008121877
0.010117117 0.0033066454 -7.9640595e-05 0.009816652 -0.008622282 0.010027808 0.009850913 0.009627255
0.0022707733 -0.004358744 0.010084821 0.009977506 -0.0035538047 -0.0055342354 0.0101517 0.01011005
0.010027052 -0.008033453 0.010097773 -0.004848066 0.010016148 0.010062879 -0.009596986 -0.007096709

convs.1.lin.weight f4 [128, 128]
00000000: 2c1e 98bd 4a99 e9bd 14fd 273d b10d 263d
00000010: 1735 a73d 0e7e d13d f6e7 0b3e 68ca fc3b
00000020: df2d f6bc e462 ecbc bc37 7cbc 4081 0fbe
00000030: 535d 3a3d cbc6 5bbd ec5b 173e 1b01 f4bd
00000040: 2a8c d7bd 665a 07be ef52 9abd 9f09 1e3e
00000050: fad7 01be 8ebf cbbd 2faf 123e 9f9b 923d
00000060: ecfb 8d3d 8bdd 8b3d 5172 ce3d d31f cb3d
00000070: 3a53 0abc 15e6 cebc eebb 1e3c a3e7 123e
00000080: 90de b3bd d9af 66bd 0ad4 ec3d a5fc 3b3d
00000090: 1541 af3d 8951 75bd 9746 cebd 0d08 cebd
000000a0: a2e9 dbbd c0b7 65bd 0f7f 973d db04 c93c
000000b0: e720 943d 0f30 17be a6cb 133e 3a1b ff3d
000000c0: 2a1e d8bd ff8b 00be ca87 e53d 3c5c 1bbe
000000d0: 4621 e03d e7a6 803d d08c f33d c96f 0bbe
000000e0: 9b0f c93d ad9a a83d 6f4f 12be 14a4 3bbd
000000f0: fac5 0bbd 5371 ffbb 8950 c23c d098 02be
00000100: 0ccb 7d3d 1d2c 9dbd ef78 d33c 833d 8abd
00000110: cd59 02be bae6 f0bd 21b7 0c3e 4147 2dbb
00000120: 345a 023e 6149 003e 9413 0abd d570 9ebd
00000130: 96f2 ce3d b796 f33d 76cb 3d3d e4b5 013e
00000140: 6510 63bc badf 8c3c bd76 b83d 07fe dcbd
00000150: 6ec0 8abc 1a3f 13be 606a fa3d cb28 43bb
00000160: 090d 02be 03bb 1abe 899e d7bd bd82 b8bd
00000170: 637b 5abb c29b 14bd 9fda be3d e010 f2bd
00000180: 18cd fcbd e9a6 08bd 626d ea3b fb83 3d3d
00000190: a732 c03c 87e6 e8bc 154f c83d 531f 423c
000001a0: 7b03 1b3d cedf 37bd ca3d 023e 62cf ad3d
000001b0: ed30 b4bd e2fd 1a3d 79f4 0bbe f1a9 d5bd
000001c0: bab0 0a3e 5bb7 3bba 7971 383d 1be5 ef3b
000001d0: 1130 73bc 930f 043e b2ad 40bd 9946 253e
000001e0: 60df 0cbe ebec 233e ccb1 9d3d 2dab d03d
000001f0: cb36 153e 92b0 913d 372d 013e 3171 033d
00000200: da53 953d 1d98 f3bd 1a38 09be 48d6 3f3a
00000210: e59d 2dbd f173 b23d 3be8 edbd 5d58 afbd
00000220: d374 733d fe10 913c ad64 203d e5d8 40bc
00000230: 9d9b 5abd 6471 07be c432 e63d e683 e9bd
00000240: c5a6 b8bc bb4d 0cbe fae8 7dbc e2cf 7fbd
00000250: 213b 573c c4a0 85bc 247b 9c3d 20e5 203e
00000260: 2a89 ee3d bda4 0c3d a6f2 083e 09eb a8ba
00000270: 901e 8d3d 8e0e a23c c302 243e 2e91 e3bd
00000280: ad1a 103e 2f95 0fbd 6917 31bd e8ff 4cbd
00000290: d960 d43d f229 c1bd 9396 84bc 52d5 9cbd
000002a0: c2ad 073d 8e87 7a3c dfeb 9e3d 6bb7 b8bc
000002b0: 7fd5 0f3e 7199 9dbd 0844 96bd 7379 e2bd
000002c0: 3888 69bb 891c e93d ca36 8fbd 9e60 c13d
000002d0: c0d0 843d 26fd b03c 81f7 803c 6f77 ed3d
000002e0: 5900 00be e27f dfbd 8c89 ed3d d468 123e
000002f0: fca1 d1bd 70c3 2db8 fa7f 7f3d 47a1 903d
00000300: 820b de3d 4d20 f8bd f03d 0a3e 5d08 a0bd
00000310: e789 ff3d 94e3 9c3d e8ca 4cba b887 8fbd
00000320: e7ff 0abe b0e8 553c e4dd a53d 2861 233c
00000330: b326 0e3e c009 8ebc aea2 c9bd eae8 a23d
00000340: 8e66 43bd c85d b23c 993d 14be 60cc e6bd
00000350: b799 14be 2819 d03d a55f 0ebe dd2a 3abc
00000360: 44f6 19be 2647 36bd f4ef ecbc 707f f83d
00000370: c23d 1ebd 5e27 023d 90de 7a3d 9cb2 df3c
00000380: ca10 523d 4630 f9bd 1123 d73d b118 143e
00000390: 080d dd3c a640 913d 9bb5 3e3d 2fe7 163d
000003a0: cce8 ca3d db0f de3d d5b8 b3bd 5270 e4bd
000003b0: e6eb d73d 61b3 60bd 8f3a 3a3d 857e 243e
000003c0: db91 e1bc f088 833c 5ef3 52bd 492d c53d
000003d0: 1dad cb3d d2e7 07bd d34f cbbd 214c f23d
000003e0: 36d6 663d 6135 afbd 83bc cc3c 9dd9 2cbc
000003f0: 412b 7dbb 9dd7 e8bc 1f80 103e d1e8 803d
-0.0742763 -0.11406191 0.04101284 0.0405404 0.08164423 0.10229121 0.13662705 0.0077145584
-0.03005117 -0.028855748 -0.0153941475 -0.14014149 0.045499157 -0.05365638 0.14781159 -0.11914273
-0.10524781 -0.13218078 -0.075353496 0.15433358 -0.12680045 -0.099486455 0.1432464 0.071585886
0.06932816 0.06829365 0.10080398 0.09918179 -0.008442694 -0.025256196 0.009688361 0.14346175
-0.08782685 -0.056320045 0.11563881 0.045895237 0.08557335 -0.05989221 -0.10072058 -0.10060129
-0.10737921 -0.05608344 0.073972814 0.024538448 0.07232838 -0.14764427 0.14433154 0.12456365
-0.10552628 -0.12553404 0.1120754 -0.15171903 0.109438464 0.06281834 0.11892092 -0.13616861
0.0981743 0.08232627 -0.14288114 -0.045810774 -0.034124352 -0.0077954917 0.023720043 -0.12753606
0.06196122 -0.076744296 0.025814502 -0.06750014 -0.12729569 -0.117627576 0.13741733 -0.0026440176
0.12729722 0.12527992 -0.033710077 -0.07736365 0.10104863 0.11893981 0.046336614 0.12667042
-0.013858889 0.017196525 0.090070225 -0.10790639 -0.01693746 -0.1437954 0.12227321 -0.0029778953
-0.12700285 -0.15110402 -0.10528285 -0.09009311 -0.0033337704 -0.036281355 0.093190424 -0.11819625
-0.12343806 -0.033362303 0.0071541527 0.046268445 0.023461653 -0.028430237 0.09780709 0.011848289
0.037845116 -0.04489117 0.12718883 0.08486821 -0.08798394 0.037839778 -0.13667478 -0.104328044
0.13543978 -0.0007160806 0.04503009 0.0073210127 -0.014843003 0.12896566 -0.04704065 0.16140212
-0.13757086 0.16008346 0.07699928 0.10188899 0.14571683 0.07113756 0.12614904 0.03209037
0.07291384 -0.11894248 -0.13400307 0.0007318002 -0.042386908 0.0871352 -0.1161656 -0.08561776
0.059437584 0.017708298 0.039158512 -0.011770462 -0.05337106 -0.13226849 0.112401515 -0.11402111
-0.02254046 -0.13701527 -0.0154974405 -0.062454112 0.013136656 -0.01631201 0.07640675 0.15712404
0.11647256 0.034336794 0.13373813 -0.0012887429 0.06890595 0.01978233 0.16016679 -0.11111675
0.14072676 -0.035054382 -0.043235216 -0.05004874 0.10370035 -0.094318286 -0.01618508 -0.07657875
0.033124693 0.015291108 0.077598326 -0.022548398 0.14046286 -0.07695282 -0.07337195 -0.11058321
-0.0035634171 0.11382396 -0.06992872 0.094422564 0.064851284 0.021605086 0.015743019 0.11595046
-0.12500133 -0.109130636 0.115985006 0.14297801 -0.10235974 -4.142843e-05 0.062377907 0.07062011
0.10842039 -0.12115536 0.1350019 -0.07814095 0.12477475 0.076605946 -0.0007812218 -0.07008308
-0.13574181 0.013055965 0.08098963 0.009971894 0.1388195 -0.017338634 -0.09845482 0.07954581
-0.047705226 0.021773234 -0.14476623 -0.1126945 -0.14511763 0.10161048 -0.13903673 -0.011362758
-0.15035349 -0.044501446 -0.028923012 0.12133682 -0.038633116 0.031775825 0.06124741 0.027306847
0.051285543 -0.121674106 0.10504735 0.14462544 0.026983753 0.07092409 0.04655991 0.036841568
0.09907684 0.10842868 -0.08775488 -0.11154236 0.10543041 -0.05485857 0.045466002 0.16063888
-0.02753537 0.016056508 -0.051501624 0.09627778 0.09945128 -0.033180065 -0.09927335 0.11830927
0.05635663 -0.08555103 0.024992233 -0.01054993 -0.0038630518 -0.028423125 0.14111374 0.06294406

lin.weight f4 [10, 128]
00000000: 94ab 4bbc e2d7 663d 5630 ca3c 8d56 1a3d
00000010: e57f b83c 3120 c33d e331 a9bd 9ea7 793c
00000020: 5049 8bbd 44ed a5bd 173e f73c 60f5 8c3d
00000030: 7a71 c63d e225 5dbc b2db be3c adbf 7abd
00000040: 6522 923d 41eb 86bc 80f4 563d 17d7 cdbc
00000050: dea8 9c3c 6545 163d 9083 10bd ccdc 84bd
00000060: 3d1e 92bb 3da2 ffba cac6 afbc 2d97 ee3a
00000070: 4f6c 3e3d 3d34 0f3c b976 97bc 36bd 853d
00000080: 4e9b 6bbd e952 943d 704a 813d 5d97 01bd
00000090: 0d61 85bd e47d 7e3d 4ac6 873d 3735 ac3c
000000a0: ce44 42bd eb0e b2bd 8f77 a8bc 5be9 3fbd
000000b0: 85f7 adbd e14f bbbd 4bc1 07bc 5657 b3bd
000000c0: 8685 a83c 9a1d 853d 48d4 8fbd 6d9c a1bd
000000d0: 2d49 c03d 6fdf b9bd 2701 c3bd dbf4 8dbd
000000e0: 57ec c73d b4f1 ab3d 6fea 95bd 15af a4bc
000000f0: 183c 7c3d 0e03 6e3d 128d aebc 88f0 523c
00000100: 9862 c73c 88d1 193c 19b8 cd3b 1d86 b3bd
00000110: 7401 1f3d 399d 5d3d 50cc 45bd 5b48 4cbc
00000120: 48de bbbc f1b3 b33d 75e1 3e38 230e 96bd
00000130: 524a a6bb a729 f0bc e3e1 c83d ccbb 9b3d
00000140: 439c 88bd d847 333d 236a 5dbd d5cb b8bc
00000150: bf7c 94bd ea14 313d 72c7 82bd 8821 9abc
00000160: 86d7 bf3d adc1 3abc a4ba c1bd 5f52 b53d
00000170: 1d83 a43d be11 b8bd 9237 eb3b 61a2 293d
00000180: 94c4 ac3d 56a5 a5bd 2660 acbc f584 833d
00000190: e7cb 86bd f7a1 57bd cab5 2cbc 063c cf3c
000001a0: c2a6 50bd 7a8d f7bc 0331 8c3d 1e78 35bd
000001b0: b92f 3fbb 5791 4c3d 43fd 69bc 21ba 6c3c
000001c0: 839d 57bd adaa e53c c0f2 6c3d 7907 b73d
000001d0: 480f ea3c d430 00bd 3e8d 9f3d a431 cbbc
000001e0: 1578 c83d 94f6 303c 72c9 9bbd a72e a0bc
000001f0: 5550 513d d19b d03b 7352 8bbd 2f48 9ab8
00000200: 3049 83bd 3684 913c f2ca a03d b532 a8bd
00000210: 3274 05bc 52c3 ee3c 2eb1 3dbd 0a3b 993d
00000220: 6fcb 5c3d 1a62 953d 7c51 82bd adc7 4b3d
00000230: f621 89bd 471f 153d f140 093c 36d6 813d
00000240: 5ff3 9abc 5d01 993d 372a 993d 057c 443d
00000250: ff8d a33d 4be4 043d 63cc 993d a05a c2bd
00000260: 1e0f 92bd cfab 5e3d 4041 f93c 8f22 813d
00000270: 59a0 a53b 1eab 713d f064 c93c 86a5 81bc
00000280: 5f1d 833d 66fd 87bd c63d 93bd 5434 b6bd
00000290: 3c10 1d3d e422 c03c f8db 963d 86cd b83d
000002a0: ccda 8ebd 8d8f 4e3d f51b 9ebd 81ef 6f3c
000002b0: ec25 68bd d7d1 1d3d f8ed 933c f46e a23d
000002c0: cfe5 933d 820a 113d 9f77 8dbd e187 94bd
000002d0: a801 5cbd a0fd 813d ade0 73bd c3b0 623a
000002e0: ad92 cebc 33fc c3bd c8c3 44bc 1ba5 8b3d
000002f0: f02b a7bd 07aa 9d3d 852f 95bd 4339 d2bc
00000300: 9ea6 373d 4011 74bd f5ee 8b3d 6cbf 983d
00000310: 0c6d ccbb 55b0 0cbd 9482 64bc 384a 9b3d
00000320: cf01 3c3d 6cfd 103d cde4 05bd 7389 a5ba
00000330: f8cd 1cbd 42ab 92bd e320 64bd 7906 a0bd
00000340: b2b9 c13d 16b0 b3bc a1a8 223d 7b27 583d
00000350: 3334 b8bc ee7f 873d ecbc 793d 4fb4 debc
00000360: 12de 773c f39f 98bd 1cf8 b7bc 6aaf 9f3d
00000370: 711a 83bd 4a87 153d 3e86 0abd a51d 78bd
00000380: d11c bbbc 3d91 113d 14e5 69bd c00c 94bd
00000390: da16 53bd 003a 2b3d 8e67 85bd fc98 44bd
000003a0: 88b2 e33c dd2f 483c ceb7 8cbd bc32 1e3d
000003b0: 9603 56bd 65f2 c53d 2156 9dbd 9e03 de3c
000003c0: 0c9e c4bc 71fb 183d 5712 ad3d 6ee9 253d
000003d0: 0349 303c 8df3 233b cd28 fa3c 458e c1bc
000003e0: 7acc a83b b1ad 913c 4c57 4b3d 2a00 7c3d
000003f0: e860 7bbc 363a 4f3d bf07 4c3d 0d60 ab3b
-0.012431044 0.056358226 0.024681251 0.037680198 0.022521922 0.095276244 -0.08261468 0.015237717
-0.068010926 -0.081018955 0.030180974 0.06882739 0.09689613 -0.0134978015 0.023298118 -0.061217953
0.071354665 -0.0164696 0.052479267 -0.025126977 0.01912349 0.036687274 -0.035281718 -0.06487426
-0.004459171 -0.0019503307 -0.021457095 0.0018203013 0.04649001 0.008740482 -0.018489229 0.0653023
-0.057521157 0.07242376 0.06313026 -0.031638492 -0.065126516 0.062131777 0.066296175 0.021021469
-0.0474289 -0.086942516 -0.020564822 -0.046853404 -0.08494476 -0.09146095 -0.008285831 -0.087568924
0.020571481 0.06499787 -0.07022911 -0.07891164 0.09388957 -0.0907582 -0.09521704 -0.06931468
0.09761875 0.083957106 -0.07320105 -0.020103017 0.061580747 0.058108382 -0.021307502 0.01287473
0.024339005 0.009388335 0.0062780497 -0.087658145 0.038819745 0.054105017 -0.04829055 -0.012468423
-0.02293314 0.087745555 4.5509503e-05 -0.07326915 -0.0050747776 -0.029316736 0.098087095 0.07604179
-0.066704296 0.043769687 -0.054056298 -0.022558132 -0.07250356 0.043232836 -0.063856974 -0.018814817
0.0936728 -0.011398715 -0.09459427 0.08853602 0.080328204 -0.08987759 0.0071782554 0.041414622
0.08435932 -0.08088176 -0.02104194 0.06421844 -0.0658186 -0.052644696 -0.010541389 0.025297176
-0.050940283 -0.030218828 0.06845286 -0.044304006 -0.0029172732 0.049943294 -0.014281574 0.014448673
-0.05264045 0.028035486 0.057848692 0.08936972 0.02857174 -0.031296566 0.07790612 -0.024803944
0.09788529 0.010800976 -0.07606782 -0.019553496 0.051102 0.006366231 -0.06802835 -7.3567375e-05
-0.06410444 0.017763238 0.07851209 -0.082127966 -0.008145379 0.02914587 -0.04631155 0.07481964
0.053904947 0.07294102 -0.06363198 0.049750973 -0.06695931 0.03640678 0.0083773 0.063396856
-0.018914877 0.07470963 0.07478755 0.047969837 0.07986068 0.03244428 0.07509687 -0.094899416
-0.071317896 0.05436307 0.030426621 0.0630542 0.0050545153 0.05900108 0.024584264 -0.015825998
0.064020865 -0.06640129 -0.07189517 -0.088966995 0.03834556 0.023454137 0.073661745 0.090235755
-0.06975326 0.05042987 -0.07720176 0.0146445045 -0.05667679 0.038530197 0.018057808 0.07931319
0.07221567 0.03541041 -0.069075815 -0.07252479 -0.053712517 0.06347203 -0.05954044 0.00086475554
-0.025216425 -0.095695876 -0.0120095685 0.06818601 -0.08162677 0.07698446 -0.07284454 -0.02566207
0.044836633 -0.059586763 0.06832687 0.07458386 -0.0062385853 -0.03434785 -0.013947148 0.075825155
0.045900162 0.035397932 -0.032688905 -0.0012629464 -0.038282365 -0.07161571 -0.055695426 -0.078137346
0.09459247 -0.02193455 0.0397116 0.052772027 -0.022485828 0.066161975 0.060971186 -0.027185587
0.015128629 -0.07452383 -0.022457175 0.077971295 -0.06401528 0.036505975 -0.03381943 -0.060575146
-0.02284089 0.0355389 -0.05710323 -0.07228994 -0.051535465 0.04180336 -0.06513892 -0.04799746
0.027795091 0.012218443 -0.068709955 0.038622603 -0.052249514 0.09665374 -0.076824434 0.027101334
-0.024001144 0.03734917 0.08450764 0.04050582 0.010759595 0.0025016994 0.030537033 -0.02362741
0.0051513286 0.017783018 0.0496438 0.061523594 -0.0153429285 0.050592624 0.049812075 0.005229956

lin.bias f4 [10]
00000000: b4ec 1cbd 0c56 833c 0dba 673d f2da cf3c
00000010: 6231 f63b b8f0 af3d 621f 26bd 373d 0ebd
00000020: f392 ddbc 5c6e 5cbd
-0.038311675 0.016032241 0.056573916 0.025372956 0.007513211 0.08590835 -0.040557273 -0.034726348
-0.02704761 -0.053816184
