Test_Result/GNN/gnn_model_paraphrase_binary.pt (torch, 267093 bytes, 6 tensors)

convs.0.bias f4 [128]
00000000: fa5a 823b 69ee 173c 0361 133c 398d d43b
00000010: 9f20 ef3b 7ba8 b43b b4df 123c 98fc 1d3c
00000020: 946d 83ba 0e51 b03b 863e 1bbc d7e0 ba39
00000030: a209 ed3b 0253 213c 71f3 53bb 37b8 92ba
00000040: 6af6 afb8 8aa2 c6bb 493b 1c3c b147 1d3c
00000050: f776 f4ba f276 033c ccba 093c 83e7 3d3b
00000060: ade4 3ebb 00ab acbb 2be3 853b aaba 133c
00000070: 0159 b6bb 68ae 323b 2e44 aa3a 6e8c 143c
00000080: ac97 023c 9e6a 203c 2827 133c c696 8ebb
00000090: c5cd 14bb 0ee3 453b e98a 0e3c 2b8e 19bc
000000a0: 5a69 023c f00d 0f3c d1ba 0ebc 266b 053c
000000b0: bb97 f2bb 7fb2 9dbb 4e93 aeba 7efc 0a3c
000000c0: acd5 febb 7f4e c5bb 0189 053c 091b 76bb
000000d0: 2e8e c53b 0c9e e83b a615 0f3c d4eb 19bc
000000e0: 35e7 bebb 0d4a 0f3c 99df c23b ec64 0a3c
000000f0: 7976 073b 1e63 973b a84d f3ba 258f 2a3b
00000100: 5ece 153c 9c9f 1fbc 712f 8b3a 87be 20ba
00000110: bf7c 11bb 2c09 913b 0954 3ebb 3b08 c6bb
00000120: c995 c7ba 16fa 44bb abb4 82bb 4143 b63b
00000130: 8477 f6bb 8f3a cebb 59df dab9 0994 a8bb
00000140: c2ec 0dbc bcc9 d4bb d200 063c f8b7 9b3b
00000150: 12d3 1a3c 0fa9 043c eb64 37b9 2e04 803b
00000160: a476 56bb e8c2 8b3b 5220 45bb 8130 1fb8
00000170: 7d31 183c d6f3 49bb 0d9d f439 9532 023c
00000180: 58ca 0c3c 25b9 0fbc a060 a0ba 0cf5 e2bb
00000190: 5c7e aa3a 2ff6 1f3c e993 5bba 7cf9 1d3c
000001a0: 1f57 b63a 26d0 0e3c f7af 0e3c aaeb 1b3c
000001b0: ec12 cdbb e157 b4bb ab6a 283b e945 483b
000001c0: f715 7e3b d0c1 e93a c38d 0b3c 9597 1a3c
000001d0: 1c7b ab3b 982b 043c 330d d2bb 1d7c 4b3b
000001e0: 36e3 bb3a d389 febb 31de 1eba 419f 443b
000001f0: 4dce da3b 4d5e 143c 339a f93b d4bc 273b
0.0039781304 0.00927315 0.008995297 0.0064865616 0.00729759 0.0055132485 0.008964468 0.009642743
-0.0010027164 0.005380756 -0.009475356 0.00035644203 0.0072338143 0.009846451 -0.0032341147 -0.0011193816
-8.3905485e-05 -0.0060618566 0.009535619 0.009599612 -0.0018651177 0.008023964 0.008406352 0.0028977103
-0.0029128 -0.005269408 0.0040859184 0.009016672 -0.0055648093 0.0027264599 0.001299029 0.009066684
0.007970732 0.0097910445 0.008981504 -0.0043514697 -0.0022705656 0.003019515 0.008700111 -0.009372274
0.007959688 0.00873135 -0.008711533 0.008143222 -0.0074033416 -0.004812538 -0.0013319047 0.00848305
-0.0077769365 -0.0060213204 0.00815034 -0.0037552735 0.006028912 0.007098919 0.008733189 -0.009394605
-0.005825902 0.008745682 0.005947065 0.008446913 0.002066998 0.00461997 -0.0018562572 0.0026025262
0.00914344 -0.009742644 0.0010618997 -0.00061319064 -0.0022199599 0.004426142 -0.0029041788 -0.0060434616
-0.0015227135 -0.003005629 -0.0039888225 0.0055622165 -0.0075215716 -0.006293602 -0.00041746607 -0.0051446003
-0.0086624045 -0.006493775 0.0081789065 0.0047521554 0.009449737 0.008096947 -0.00017489835 0.0039067483
-0.0032724524 0.004265178 -0.003007908 -3.7953727e-05 0.009289143 -0.0030815504 0.0004665632 0.00794663
0.008593164 -0.008772169 -0.0012235828 -0.0069261845 0.0013007629 0.009763285 -0.00083762273 0.009642001
0.0013911462 0.008716619 0.0087089455 0.009516636 -0.006258359 -0.00550364 0.0025698345 0.0030559248
0.0038770416 0.001783425 0.008517685 0.009435554 0.0052331816 0.008067034 -0.006410265 0.003104932
0.0014334682 -0.007767895 -0.0006060331 0.003000215 0.006677425 0.009055686 0.007617259 0.0025594728

convs.0.lin.weight f4 [128, 384]
00000000: 4a0e cebd 53ef 09bd 0e85 c9bd 5b28 493d
00000010: 3230 c2bb 5252 6fbd 7127 993d 73ed c7bd
00000020: 015d b73d 8bfd 5d3c ccfa b13d 49fb 943d
00000030: b649 78bd 5b23 9e3d d373 a8bd 3f33 b13d
00000040: 89f6 e33d 5950 9e3d a9e0 bbbd 52ef 4f3b
00000050: d8d6 c33d 3505 0d3d 11c4 a33d 2248 a6bd
00000060: f622 4fbc f563 153d 9dcb c6bc 6fcf 5abb
00000070: 0ff6 0d3d 477a a63d c1b3 c33d 980e c73c
00000080: 2648 b63d e030 b9bd 011a 333b a491 f7bb
00000090: 9205 d53d 334e 43bd 9f5c a4bd 4c0c 6c3d
000000a0: 4dcf 99bc 2bc0 b7bd c61f 953b 4ce9 863d
000000b0: 45ff eb3c 4c6e 01bd c3fe 9d3d ab46 6dbd
000000c0: 213d 99bd 3253 5bbc ae0b 96bd e470 3ebd
000000d0: 1d37 853d 3bac 88bd 011a 8c3d 1115 c7bd
000000e0: 7cff d73d e9d7 5a3d de08 5fbd 01e1 2bbd
000000f0: 7950 e0bd 15c1 abbd 7ac7 d63d f6ed 883d
00000100: 2e3d 3fbd 4842 193d 3d44 f93c 0cff bebd
00000110: 16a5 d53d c25b c6bd e59f a6bb 512e af3b
00000120: d300 a4bd dfb1 bc3a f188 073c c3e4 c0bd
00000130: 563d dd3c 68f8 d9bd 6321 72bd b26e 1f3d
00000140: 86c4 33bc babd b73c e2d2 86bd f96c be3d
00000150: 0159 8c3d be4d 66bd fbee 00bd 5402 b9bd
00000160: ea5b 0f3c 18d9 003d dc2e 22bd c0c5 de3b
00000170: 488b 5abd ccba 94bd 1591 f23c a346 9ebd
00000180: 68c6 8bbb 73df d33c ef4c 863d 9e1d 47bc
00000190: 8caf b6bc f122 00bc c2b7 89ba c614 07bc
000001a0: 476b a9bd a174 bb3b 188a cdbd 0ecf e83c
000001b0: 68e9 d8bc 6829 903d 7200 21bd 351a 2f3d
000001c0: c9ba 013d 4bcd 2c3c b7cd 853c 68a9 4fbd
000001d0: 6e99 85bd c094 46bc f5ed 8d3d 4d04 db3c
000001e0: f62e 96bc fa52 f2bc 98d5 c6bd a1da 8d3b
000001f0: 9dea c33c e6c7 a93d be9c c1bd 1327 b2bd
00000200: 41fd 4d3c afc7 45bd a8e9 cc3b 4267 313c
00000210: d6c5 be3c c968 65bd 1ab1 d5bb 75d2 e2bd
00000220: 3de4 8b3c 9886 aebd 2c14 513d 19c2 e63d
00000230: e04d 613c 3e3d df3d e082 b33d b7be 6f3b
00000240: 3914 edbd b30a 46bd 4f5f d2bd a154 413d
00000250: b789 fc3b 05dd d93c bd0d c5bc 5a45 c5bd
00000260: 7bff e33c f711 e13c f64b b03d 8585 9c3d
00000270: b5e7 89bd 2808 9f3d 7cd9 acbd e481 c13d
00000280: 67ec 08bd 10e6 cdbd 70e5 d9bd 6022 a3bd
00000290: f5d5 aebd 2916 213c bf32 8f3d 9f14 113d
000002a0: 3948 c43c 9682 923d 7e9e afbd 2346 dc3d
000002b0: 8f1d 87bc 6721 c53a 7cd0 573d 1594 1dbc
000002c0: 1edc 9c3d 42d6 5abb f19f 78bd a921 50bc
000002d0: 47bd a23d e080 9f3d 528c 3dbd 61fc 3bbd
000002e0: 41e1 2cbd a409 ca3d 3afb 5ebc c5aa b9bd
000002f0: faba 983d ec49 623d 9fbe 43bc 6c1e a7bd
00000300: e046 a1bd ace9 c53d 0330 d93d 5b35 2a3d
00000310: 7edf 05bd ece7 5a3d b516 1e3d e61f d63d
00000320: 2d34 263d a82c af3c 8216 5a3d 807e bdbd
00000330: ff1f b33d ce12 03bd 5fb9 7ebd 8519 913d
00000340: 8c80 f4bc 49b2 a23d a191 83bc c0d3 833c
00000350: 7a08 593d cc86 643d 57b9 de3d 1f63 d7bd
00000360: 0cf5 c23d a3e2 ab3d 46e1 d23d b3e8 d0bd
00000370: a312 413d 42e2 bf3b cd8c eabd 7a12 81bd
00000380: 1881 ec3a 18d2 bdbc 70fa be3d c6c4 8d3d
00000390: a045 293c 50b7 d4bc 98ea 2dbc 859e 90bd
000003a0: 0d43 aa3d 87e8 53bd 2db3 6ebd 84a6 abbc
000003b0: 767c e13b 99eb 5ebd ec9f 92bc 22c6 0f3d
000003c0: 131d c6bc 82f1 b03d 10a4 843d 1d5d 803d
000003d0: d18a 5b3d cf5a a6ba 29cd d0bd 02b9 a1bd
000003e0: b017 0abc 48f4 853c 795f 22bd 3096 eabd
000003f0: 5a31 24bd 16dd ca3c bd14 a73c b0d4 94bd
-0.10061319 -0.033675503 -0.09839831 0.04911075 -0.0059261555 -0.058428116 0.07478226 -0.09762087
0.08953286 0.013549219 0.08690414 0.07274491 -0.06061717 0.07721587 -0.08225217 0.086523525
0.11131007 0.07730169 -0.0917371 0.003172834 0.095624626 0.034428794 0.07996381 -0.08119227
-0.012642613 0.03647228 -0.024267012 -0.00333878 0.034658488 0.08128791 0.0955577 0.024298951
0.0890048 -0.09042525 0.0027328732 -0.0075552035 0.10401453 -0.047682 -0.080254786 0.057628915
-0.018775607 -0.089722 0.004550907 0.065874666 0.028808245 -0.031599328 0.077146076 -0.057928722
-0.074823625 -0.0133865345 -0.073264465 -0.04649438 0.06504653 -0.06673475 0.06840897 -0.09720815
0.10546777 0.053428564 -0.054451816 -0.041962627 -0.10952849 -0.08386437 0.10487266 0.066860124
-0.046689205 0.037416726 0.030428046 -0.0932599 0.10431878 -0.0968547 -0.005084979 0.0053460975
-0.0800797 0.0014396271 0.0082723955 -0.09418633 0.027006786 -0.10643083 -0.05911387 0.038923927
-0.010972148 0.022429336 -0.065831915 0.09298129 0.06852914 -0.056226484 -0.03147791 -0.09033647
0.008749941 0.031457037 -0.03959547 0.006798476 -0.053355485 -0.07262191 0.029610196 -0.07728317
-0.004265595 0.025863385 0.06557643 -0.012153057 -0.022300504 -0.007820831 -0.0010507035 -0.008244699
-0.08272415 0.0057206904 -0.10036105 0.028419044 -0.026478484 0.070391476 -0.039307065 0.042749602
0.031672273 0.0105469925 0.016333444 -0.050698668 -0.06523405 -0.012120426 0.06930152 0.02673545
-0.01833294 -0.029580582 -0.097087085 0.004329041 0.023915583 0.08290081 -0.09453724 -0.08698859
0.0125725875 -0.048286136 0.00625344 0.010827841 0.023287695 -0.056008134 -0.0065213563 -0.11075298
0.017076606 -0.085217655 0.051044628 0.1126749 0.013751477 0.10900353 0.08765197 0.003658218
-0.11576123 -0.048350047 -0.10272085 0.04719985 0.0077068466 0.026594648 -0.024054402 -0.096323684
0.027831784 0.027474387 0.086082384 0.07642654 -0.06733648 0.077652276 -0.08439919 0.09448603
-0.033428576 -0.100536466 -0.10639465 -0.07965541 -0.08536903 0.009831944 0.06992101 0.035420056
0.02396022 0.071538135 -0.08575152 0.10755565 -0.016493587 0.0015039862 0.05268906 -0.009617825
0.076591715 -0.0033391868 -0.060699407 -0.012703338 0.07946258 0.07788253 -0.046276398 -0.045894984
-0.042207006 0.0986512 -0.013609702 -0.09065775 0.07457538 0.05524628 -0.011947303 -0.081600994
-0.078748465 0.0966371 0.10604861 0.04155479 -0.032683842 0.053443834 0.038595874 0.10455303
0.040577102 0.021383598 0.05324412 -0.092526436 0.08746337 -0.032000355 -0.062188502 0.070849456
-0.029846452 0.079441614 -0.016060652 0.016092181 0.0529866 0.055792615 0.108751945 -0.10516953
0.09519395 0.08392837 0.10296874 -0.10200634 0.047136914 0.0058558295 -0.11452637 -0.06302352
0.0018043844 -0.02317147 0.09325111 0.06922297 0.010331541 -0.025966316 -0.010615014 -0.07061485
0.0831357 -0.051735427 -0.058276344 -0.020953424 0.006881292 -0.054423902 -0.017898522 0.035101064
-0.024183786 0.08639814 0.06476605 0.0626776 0.053599183 -0.0012691858 -0.10195381 -0.078966156
-0.008428499 0.016351834 -0.03964183 -0.11454427 -0.040086128 0.024763625 0.020395631 -0.072671294

convs.1.bias f4 [128]
00000000: 9eb3 f4bb 6cf4 0e3c 34ab ea3b 5be7 f13a
00000010: ef4d de3b a7d1 6ebb 8cdf 9ebb 1a8d 4d3b
00000020: f4ea d73b 318f 16bb 92c1 b63b d714 95bb
00000030: ef9c 00bc 8b87 e23b c04c 1e3c 7db2 d4bb
00000040: 4dfc 583b 923f 073c 13f5 90b9 8242 4d3b
00000050: 93be f0bb 2e37 153b 7be3 993a f7dd d43b
00000060: f287 ae3b bf8d bdbb 27cd a73b 2351 233c
00000070: ea41 0abc 87e8 8ebb 9c81 c9bb 7e25 193c
00000080: bb18 d83b a6b3 533a 1ddb 6a3b f3b5 e03a
00000090: fe2d 483b 4d3b ecbb dd95 b23b 0935 e53b
000000a0: b726 153c 055d 06bb 9158 d53b a3d8 ee3b
000000b0: 6714 053c 75be 863b 7091 163c e820 d43b
000000c0: fb04 aebb dd25 1a3c bee3 5b3b 4d7b 08bc
000000d0: 0798 f4bb 472b 6bbb 429d 873b f7ed 31b9
000000e0: 575e bfbb df03 033c f4ab 183c 6d26 03bc
000000f0: 617c 153c 94ed dcbb 77bc dcbb 0a0c 073c
00000100: f878 cb3b d933 5439 4b57 4ebb b0d3 6b3b
00000110: f7d1 ea3b c4d2 e43b 3c73 7d3b 3f6b 093c
00000120: 3844 003c 8918 8a3b 21ca 183c b00e 4cbb
00000130: 87c6 933b 7f1b ff3b 83a5 32bb 3ee5 04bc
00000140: 1340 223c 2a93 093c d793 a03b 6d42 a0bb
00000150: 93dd e7bb 3908 78bb f3af d6bb 107e 3cbb
00000160: 9598 123c 5803 d73b 0970 9a3a 54ce ecbb
00000170: 2396 d43b dda0 233c 9073 ab3b fcea 003b
00000180: 8680 613b 4f27 063c 54cc be3b 22d9 b5ba
00000190: 0978 013c 33f0 633a 07e5 18bc bc6e f4bb
000001a0: 22fc 7a3b c70d be3b 9cdf a73b 2224 18ba
000001b0: 74bc d03a 3f2f dabb d150 b83b 865a aa3b
000001c0: 4736 91bb 28bf e43b 50ef c5b9 3c39 b6bb
000001d0: 6004 e83b 1790 b0bb aa6c ddbb 2a97 a0bb
000001e0: fd8a e33b b8fa fa3b cb55 4d3b 004e c13b
000001f0: f717 ee3b c264 cf3b 0462 d1bb ddfe 60bb
-0.007467701 0.008725267 0.0071615223 0.001845579 0.0067841928 -0.003644088 -0.004848426 0.003136462
0.006589288 -0.0022973532 0.0055772746 -0.0045496034 -0.007849916 0.0069131306 0.009661853 -0.006491004
0.0033109367 0.008254902 -0.00027648415 0.003132016 -0.007346937 0.0022768485 0.0011740768 0.006496187
0.0053262645 -0.0057847197 0.0051208916 0.009968075 -0.008438567 -0.0043612155 -0.006149484 0.009347318
0.006594745 0.0008075781 0.0035836168 0.0017144069 0.0030544992 -0.0072092176 0.005449994 0.0069948477
0.009103469 -0.0020502221 0.006510802 0.0072890087 0.00812254 0.0041120597 0.009189948 0.0064736493
-0.0053106523 0.009408441 0.0033552493 -0.008330178 -0.007464412 -0.003588395 0.0041386196 -0.00016968684
-0.0058401036 0.007996528 0.009318341 -0.008004767 0.0091238925 -0.0067421887 -0.006736334 0.008242616
0.006209489 0.0002023721 -0.0031485136 0.003598433 0.007166143 0.006983133 0.0038673421 0.008387386
0.007828765 0.0042143506 0.009325535 -0.0031136684 0.0045097503 0.00778526 -0.0027259297 -0.008111296
0.009902972 0.008396903 0.0049004364 -0.004890731 -0.0070759743 -0.0037846698 -0.0065517365 -0.0028761663
0.008947511 0.006561678 0.0011782657 -0.0072267447 0.0064876243 0.009987083 0.005232282 0.0019671312
0.0034408881 0.008188083 0.0058226977 -0.0013873915 0.007902154 0.0008695155 -0.009331948 -0.0074594896
0.0038297256 0.005799982 0.005123092 -0.0005803724 0.0015925304 -0.006658464 0.0056248684 0.0051987795
-0.004431519 0.0069807954 -0.0003775307 -0.005561022 0.0070805997 -0.0053882706 -0.0067573385 -0.0049008327
0.006944059 0.0076592825 0.0031331654 0.005899191 0.0072660404 0.00632915 -0.006389858 -0.0034331598

convs.1.lin.weight f4 [128, 128]
00000000: 6f97 f8bd c893 0fbe 0dab e23d 3d94 0dbd
00000010: 1a4d fe3c 0669 93bb 1844 4cba 9260 f73d
00000020: 9964 0f3e 62d6 06be d5f4 f1bd 5572 10be
00000030: 98fe eb3d 7783 07be a611 16bc 5ce1 f93c
00000040: 8cd1 f33d b826 0fbd 8bb4 e1bc 8e16 02be
00000050: f8a3 f2bc 155d 17be 6723 a8bd 45ab 95bd
00000060: 47b5 ecbd e27d 0dbd 34ab adbd c271 183d
00000070: 568d 123e 1041 4abd 36a1 953d 9277 8d3d
00000080: dbf1 433d 440e af3c 4644 023d 7e22 1db9
00000090: 3069 15be 6cac febd a71c d93d 15af c13d
000000a0: 2c1b 923c b912 2c3d 5d75 bb3b 0b8d 14be
000000b0: 6226 74bc 5f4c e1ba 339d 1cbe ab74 c23d
000000c0: 6c5f 77bd bb93 a0bb 3597 3fbd 9bca 05bd
000000d0: b521 0f3c b08d a6bd 75bf 013e 29b4 3f3c
000000e0: 65d3 753d 359b b7bd ec64 6bbd 39c4 b13c
000000f0: 7b11 cabd 3a49 00be a37a 89bd 9d5f ebbb
00000100: 070d 68bd 0275 1c3b 9afa 89bc bb7a b2ba
00000110: 4d35 a3bd 6389 163d 3044 95bc c9fe 2f3d
00000120: abdb c6bd 1e03 08be cae3 bb3d 07f9 843b
00000130: 6a2c d33d c6d0 15be b3ad 783d 7f4d e2bd
00000140: 670f 84bd 7a3f a73d 91ea 023e 0713 e3bd
00000150: d192 ecbd 65ae 8ebd eb00 eebc 7800 64bc
00000160: 301a 0d3c 287e 953d ac90 063d 3971 1ebd
00000170: c37b 613d 4dbe d6bb 3668 20be 8dd7 c43d
00000180: 0246 82bc b1b2 d0bd cb3e a6bd bace 933d
00000190: 2b0a 59bd 3c75 74bd 0c12 df3d d807 38bc
000001a0: 29c8 973b 6835 bd3d 1717 063d aa68 61bd
000001b0: b102 4bbd e690 8d3d 7a30 0b3e 6a5b 60bd
000001c0: 776d f1bd 59d9 0f3e ec5f 423d 1a65 acbd
000001d0: 6f2e 16be 0904 913c 03b9 b0bd 505f 963d
000001e0: c60b 17be f9cf f2bb e0c5 133e d566 07be
000001f0: c62c 67bd 0149 1bbd bcd6 a53d 5bb2 75bd
00000200: ebdc 0b3e a31b a93d a440 76bc 4e1f 0b3e
00000210: dcdc 26bb 2d84 56bd b8cd dabd a0cc ecbd
00000220: fb3d 8a3d dbf7 143d be65 3fbd 5b38 16be
00000230: 49aa c63d 2927 63bd c97e ee3d 163e 4dbc
00000240: 35eb 083e 84dc df3c 32bd 14bc 2851 12be
00000250: 2e65 923d 65ce 6f3d c67a e43d fac2 0dbe
00000260: 523e 66bd 240b 5a3c 05c5 bd3d c490 ef3d
00000270: 624c 973c 8ab0 31bd 1e94 8f3d 2548 e6bd
00000280: 4fec 71bb 549a ecbd 5693 21be 4e43 aabc
00000290: ee3c 6dbd 3361 f9bc 952f a13d 5e6d 4c3c
000002a0: ad31 98bc 4401 72b9 5cbd 4dbb 7c75 f7bb
000002b0: 2855 493d 8deb 89bb 1584 21bd 97e9 263e
000002c0: 5209 c53b 4c0f 07be d257 d03c 1158 febc
000002d0: 2d47 edbd c0ae 9fbd 0a72 173e 105d 3abd
000002e0: e375 fabd 3ec8 0bbe 7851 5abd a863 8cbd
000002f0: cc8b 803d a307 66bd ebfd 2cbd 3053 f0bc
00000300: d99d f53d 251e 3cbc 424c 11be 37ab 38bd
00000310: 3203 793d 3c03 473d a09f 22bd b427 973d
00000320: d574 e73d 8f20 2b3c 7047 27bc 995c 0abe
00000330: 2ac1 c1bd 5c20 f83d 61bf ee3d 9ab3 74bd
00000340: ef4b ee3d 9233 d03c 064f 92bd 5035 7c3d
00000350: 1a28 c53d f0a9 0d3e 3b58 b63d cd05 123e
00000360: d9ea 60bd fa16 d93d 9f89 d83d cddb 0c3e
00000370: 79e1 c5bd c8d2 cf3d 4bb0 1e3e 9ad4 27bc
00000380: cc6e febd 94ab 0cbe 09cb 18be 5b89 9b3b
00000390: 1149 a33c 4d7d 0b3e 8d07 f1bd 9db4 07be
000003a0: 9adc f2bd 1190 983c 7bc2 59bd 9127 9dbd
000003b0: 8319 fabd 219e 833d 2990 20bd b09c 0cbd
000003c0: a0aa f9bd aa0e 123e d901 763d fa56 afbd
000003d0: 879b c8bd d568 7c3d c02b 8a3d 5573 d3bd
000003e0: 384b bc3d 7e96 e63c 55a1 00be 5ae8 953d
000003f0: 20ba 8dbd a400 bfba fc13 b53d c8f9 62bd
-0.12138259 -0.14021218 0.110677816 -0.0345652 0.031042624 -0.0044986038 -0.0007792129 0.12078966
0.14003219 -0.13167718 -0.11814276 -0.14106114 0.11523169 -0.13233744 -0.009159481 0.030502968
0.11905202 -0.034949034 -0.02755191 -0.12703916 -0.029619202 -0.14781602 -0.082098775 -0.07308058
-0.115580134 -0.03454388 -0.0847992 0.037217863 0.14311728 -0.049378455 0.07306139 0.06907572
0.047838073 0.021369107 0.031803392 -0.00014985536 -0.14590907 -0.124352306 0.10601168 0.09457222
0.017835222 0.042010043 0.005720778 -0.14506929 -0.014901729 -0.0017188898 -0.15294342 0.09494909
-0.060393736 -0.0049004233 -0.04677506 -0.032663923 0.008736064 -0.081324935 0.12670691 0.011700668
0.060016055 -0.0896515 -0.057469293 0.021700012 -0.098666154 -0.12527934 -0.06712844 -0.007183029
-0.05665305 0.0023873453 -0.016843129 -0.0013616899 -0.07969151 0.036752116 -0.01822099 0.04296759
-0.09709867 -0.13282439 0.09174307 0.0040580067 0.10311206 -0.14630422 0.060712527 -0.110499375
-0.0644825 0.08166404 0.12784792 -0.110876136 -0.115514405 -0.06966857 -0.029053172 -0.013916127
0.008612201 0.07299453 0.032852814 -0.038682196 0.05504967 -0.0065534473 -0.15664753 0.096114255
-0.015902523 -0.10190333 -0.081174456 0.07217164 -0.052988213 -0.059682116 0.10892114 -0.011232339
0.0046320152 0.09238702 0.032736864 -0.055031456 -0.049563114 0.06912403 0.13592711 -0.05477468
-0.11788457 0.14047755 0.04745476 -0.08417721 -0.1466615 0.01770212 -0.08629038 0.07342398
-0.14750585 -0.007410046 0.14430952 -0.13222821 -0.056439184 -0.03791142 0.08097598 -0.059984546
0.13658492 0.082572244 -0.01503006 0.1358616 -0.0025461232 -0.052372146 -0.10683769 -0.115624666
0.06750103 0.036369186 -0.04672789 -0.14669935 0.09700448 -0.055457268 0.11645276 -0.0125270095
0.13370974 0.02732683 -0.009078311 -0.14288771 0.07148205 0.058546443 0.1115623 -0.13843909
-0.056211777 0.01330832 0.09266094 0.11697534 0.01846904 -0.04338125 0.07010673 -0.11244229
-0.0036914533 -0.11552873 -0.1577886 -0.020784047 -0.057919435 -0.030441856 0.07870404 0.012477247
-0.018578375 -0.0002307939 -0.0031393385 -0.007551847 0.049153477 -0.004208988 -0.039432604 0.16300045
0.006013074 -0.13189429 0.025432501 -0.031047853 -0.11585841 -0.07797003 0.14789596 -0.045498908
-0.12229516 -0.13650605 -0.05330035 -0.068549454 0.06276664 -0.056159627 -0.042234343 -0.029336542
0.11992998 -0.011481796 -0.14189246 -0.04508516 0.060794063 0.04858707 -0.03970301 0.0738062
0.11301581 0.010444774 -0.010209903 -0.13511886 -0.09460671 0.12115547 0.116575964 -0.059741594
0.11635577 0.025415216 -0.07143979 0.06157428 0.096267894 0.13834357 0.089035474 0.14260025
-0.05491147 0.106000856 0.10573124 0.13755722 -0.09662146 0.10147625 0.15496938 -0.010243559
-0.124234766 -0.13737327 -0.14921202 0.0047465987 0.019932302 0.13622017 -0.11769018 -0.13252492
-0.11858483 0.018623384 -0.053163987 -0.07673562 -0.12211897 0.06426645 -0.03919998 -0.034329116
-0.12190747 0.14263406 0.060060356 -0.08561511 -0.097952895 0.061623413 0.06746626 -0.10324732
0.09194034 0.028147932 -0.12561543 0.07319708 -0.06920266 -0.0014572334 0.08841702 -0.05541399

lin.weight f4 [2, 128]
00000000: 22a4 a13d da62 723c 599f 64bd af4f 7bbc
00000010: b265 9dbd 0b28 9cbd 3a8c 813c efd3 1dbd
00000020: d284 91bd 7b50 aa3d aff9 7cbd cb8a 803d
00000030: ff43 5cbd c73f 86bd f8f5 8f3d bcc2 9d3d
00000040: c70c 923d 27ed 90bd 6749 863d ab17 7a3d
00000050: 6a20 043d 8dc1 f73c 56c7 b23d 589b 34bd
00000060: d127 413c 6fb1 013c 0f67 94bd d1cb 733c
00000070: 40f6 88bd 5619 113d 3acf 12bd 816b 8dbc
00000080: 675a aebd 6c82 7fbd 4fe3 91bd 2179 053d
00000090: e1ae 633d 4e37 643d 8f3b 073c 6804 42bd
000000a0: 1f68 0abd 3629 ab3d 28aa 28ba 4215 ccbc
000000b0: fc52 bdbd d02d 8b3d c413 b6bd 8f9a c4bd
000000c0: f115 983c dd9a acbd b9c2 133c 7a89 363d
000000d0: 8917 0c3d 052e 273c bad1 943d 1560 633d
000000e0: 5d2c 853c 62bd f2bc e386 463c 101a c7bc
000000f0: 8d20 b63b 67ed 0ebc 29f6 653d 74a0 feba
00000100: 19e3 41bc 8691 243c 62bd a33d 9ac1 533d
00000110: e52c 53bb 8e46 6a3c dedc 4abd 470e a6bd
00000120: 67ee 4cbc 8db9 e9bc 939d aebd fb00 f1bc
00000130: 77f6 a0bd fd93 2f3c 46aa 8c3d 7163 6d3d
00000140: 9a27 993d f348 0bbc 66c5 c3bd b53c f53c
00000150: dbdd 863d b736 36bd 5aa9 47bd 0c0b b2bc
00000160: 0af4 a9bd dd93 b4bd 99a9 893d ef58 813d
00000170: bfb6 a9bd 7cc2 b23d f202 013d 5c96 88bd
00000180: 2939 8e3d ebfa d0bc 925b 11bd 8fdc af3c
00000190: 5742 29bd e7bc d63c 7004 29bd 36fe 8bbd
000001a0: bdd3 a33c ccb2 93bd 57b8 233d 3346 3a3c
000001b0: 8a1d 343d 7e15 983d e210 b3bd afd3 35bd
000001c0: 35d1 563d 3a0b 40bd 9ce9 53bc 1c82 1c3d
000001d0: 18e8 693d 0657 bbbc 97e6 5a3d 25e7 3c3d
000001e0: 7546 bfba 5b81 a9bd f6b7 3cbd 8767 21bc
000001f0: 60d6 aebd 0c54 78bc 28e4 853d 5048 603d
00000200: c8db 423c 8425 863d 8b0d 8a3d 4472 df3b
00000210: 81b2 5bbd 6296 a23d efc9 94bd 2ab5 f0bb
00000220: efeb 393d 7d9a 41bd 950d 7d3d ef75 7c3d
00000230: 29cc 52bd 7e08 833d 47f9 2bbb 8920 403d
00000240: bc91 633d 969c e83c ff83 1a3c ef13 a4bd
00000250: ad17 373b 2644 a0bd 92e9 98bd a1fe bf3d
00000260: a372 1a3d cd35 0ebd 1d27 833d ab56 a83d
00000270: 995c 9ebd d2a3 5cba f72b 81bd 4bb2 943d
00000280: f623 a5bc 6b76 fc3c 806c 68bd c7b4 17bd
00000290: a62d 403d 5f92 963d 49a2 813d e7b9 7ebc
000002a0: 3938 c03d fcbb 03bd 01f6 423d 5184 b3bd
000002b0: c03b 9a3d 1f24 bcbb b9ae 8d3d ed71 cc3b
000002c0: 486b 69bd 3f7e f03c cd18 fc3c dc71 44bc
000002d0: a91d fbbc 9970 abbd 3137 953c a64e e63c
000002e0: c5b0 8bbd df3e b63d f0c8 803d 8841 413d
000002f0: 806c 14bd 9705 12bc 335a 2f3d aff2 983d
00000300: 9722 473d e1b1 153d 6ee4 00bd 9c9d 993d
00000310: 796d c63d d8dc 7e3d 4383 65bc 8f5c 3f3d
00000320: 280b 5d3d 73b8 413d 62b5 2ebd cd3a 8fbc
00000330: 7280 6dbd 7567 323d f07a 683c 06d7 433d
00000340: 7b33 b4bd c809 583d 41cf 50bd 5026 38bd
00000350: 8cdf 6d3c fd2d 6fbd 57bf 5ebd 53a6 4ebd
00000360: a0c2 933d 01ec 913c 3907 e4bc e183 0b3d
00000370: ced8 abbc 7781 583d 06fb 413d 557f b6bd
00000380: 20f2 ac3d 90f3 6e3d 3c98 a53d debd 4cbc
00000390: 4e82 5b3d 6d6b cdbc a534 e23b 7018 1fbd
000003a0: 6051 793d 1b8f 6c3c a2da a7bd be1a 05bd
000003b0: 4c62 cf3c 3ad3 5d3d d42c b03d 3acb eabc
000003c0: eaac a6ba ecbc c6bb f6c3 68bd 2bdb a8bd
000003d0: 9a36 b03d 5d0a 2ebd f14a 5e3d c631 113d
000003e0: db9f 3f3d 4cf6 7d3d c21e 1dbd 16eb 763d
000003f0: 75ba fb3c f6c4 9e3c dcf1 543d ab85 bebb
0.07892634 0.014794076 -0.05581603 -0.015338822 -0.076854125 -0.07624825 0.015813936 -0.038532194
-0.071054116 0.08316132 -0.061761554 0.06276473 -0.053775784 -0.06555133 0.07029337 0.07703158
0.07131343 -0.07076483 0.06556969 0.061057728 0.032257475 0.03024366 0.087294266 -0.04409346
0.011789278 0.007915839 -0.07246219 0.014880137 -0.066875935 0.035424553 -0.035842158 -0.017263176
-0.08513337 -0.06238024 -0.07123434 0.03258622 0.0555867 0.055716805 0.008253946 -0.047367483
-0.033790704 0.0835747 -0.00064340467 -0.02491248 -0.09244344 0.067958474 -0.08890489 -0.09599792
0.01856515 -0.08427975 0.0090185935 0.0445647 0.034202132 0.010203843 0.07266565 0.055511553
0.016256506 -0.02963132 0.01211712 -0.02430442 0.0055580796 -0.008723593 0.05614296 -0.0019426481
-0.011833929 0.010044461 0.07995106 0.051698305 -0.0032222804 0.014299048 -0.04952704 -0.08108192
-0.012508011 -0.02853086 -0.08526149 -0.029419413 -0.078595094 0.0107164355 0.068684146 0.057956163
0.074782565 -0.008501279 -0.09559135 0.029936174 0.06585284 -0.044485774 -0.04874549 -0.021733783
-0.082985 -0.08817265 0.06721801 0.06315791 -0.08286809 0.08728501 0.03149695 -0.06669304
0.06944496 -0.025510272 -0.03548772 0.021467475 -0.041323032 0.026213123 -0.041263998 -0.06835596
0.019998426 -0.07211837 0.039970722 0.011369276 0.043973483 0.07425974 -0.087434545 -0.04439133
0.05244561 -0.046885706 -0.012934115 0.03821002 0.057106107 -0.022868644 0.053442564 0.046118874
-0.0014593141 -0.08276626 -0.046073876 -0.009851343 -0.085369825 -0.015156757 0.06537658 0.054756463
0.01189322 0.06550124 0.06740864 0.0068190414 -0.05363703 0.079388395 -0.07265078 -0.007345815
0.04539102 -0.047266472 0.06178053 0.061635908 -0.051464234 0.06398104 -0.002624111 0.046906028
0.055558905 0.028394978 0.009430884 -0.080116145 0.0027937696 -0.07825498 -0.07466425 0.093747385
0.037706982 -0.034719277 0.06403945 0.082196556 -0.07732505 -0.0008416745 -0.06307214 0.07260569
-0.02015875 0.030818185 -0.0567441 -0.037037637 0.046918534 0.07352137 0.063297816 -0.015547252
0.093857236 -0.032161698 0.04759789 -0.08765472 0.07530928 -0.0057416107 0.06918091 0.006239167
-0.056987077 0.029357074 0.030773545 -0.011990037 -0.030653792 -0.08371086 0.018214794 0.028113674
-0.068208255 0.088987105 0.06288326 0.047181636 -0.036236286 -0.008912466 0.04281063 0.07468163
0.04861697 0.03654659 -0.031467848 0.07500765 0.09688849 0.06222233 -0.014008346 0.04671913
0.053965718 0.047295045 -0.04265345 -0.017484093 -0.057983823 0.043555696 0.014189467 0.047812484
-0.087988816 0.052743703 -0.050978903 -0.044958413 0.01451863 -0.058393467 -0.054381695 -0.050451588
0.07214856 0.01781273 -0.027835475 0.034061316 -0.020977404 0.052857842 0.047358535 -0.089110054
0.08444619 0.058337748 0.08085677 -0.01249644 0.053591065 -0.025075639 0.0069032484 -0.038841665
0.06086862 0.014438416 -0.08195998 -0.032496206 0.025315426 0.05415652 0.086023 -0.02866136
-0.0012716327 -0.0060650017 -0.056827508 -0.08244928 0.086041644 -0.042490352 0.05427069 0.03544786
0.04678331 0.062002465 -0.03835941 0.06028279 0.030728558 0.019381028 0.051988468 -0.0058142743

lin.bias f4 [2]
00000000: a531 7dbd 4f09 b63c
-0.061814923 0.022221236
