Test_Result/GNN/gnn_model.pt (torch, 267093 bytes, 6 tensors)

convs.0.bias f4 [128]
000000 b0 43 cb bb 9b 7e 87 bb 35 d1 dc bb 5f 52 02 3c
       -0.0062031373 -0.0041349656 -0.0067388066 0.007954209
000010 27 4e cc bb 4e 55 dc bb 37 ff 1f 3c 4c d8 a9 3b
       -0.0062349024 -0.0067240363 0.009765438 0.0051832553
000020 05 33 b0 3a ab de be bb bd 51 e6 bb 5f 3d 04 3c
       0.0013442939 -0.005824884 -0.007028787 0.008071273
000030 d4 18 bd 3b e2 23 18 3c eb 37 05 bc b0 2a b7 3b
       0.005770782 0.009285899 -0.008131008 0.0055898055
000040 df ec 4d 3b 87 f3 03 3b a9 94 b9 bb 7e 18 21 3c
       0.0031421704 0.0020134167 -0.0056634736 0.0098325
000050 df 93 3d bb 48 13 0d 3c 35 54 ba bb 0a 4f 42 3b
       -0.002892725 0.008610554 -0.005686308 0.0029649162
000060 08 89 1a 3c 3b 88 aa bb 73 97 22 3c a8 b8 20 3c
       0.009432085 -0.005204228 0.009923804 0.0098096505
000070 67 43 8c bb b7 80 fc 3b 00 db c4 bb 2f 88 c9 3b
       -0.004280496 0.0077057737 -0.006007552 0.0061502676
000080 62 e8 f9 bb f0 9a 98 38 90 f2 ce bb 1a a7 ea 3b
       -0.007626579 7.276784e-05 -0.006315537 0.0071610333
000090 92 c6 8b bb 71 09 b0 bb f2 d7 d3 3b 45 4c a1 3b
       -0.004265615 -0.0053722193 0.0064649517 0.004922422
0000a0 fb 72 f8 3a c5 37 b3 bb b4 a0 83 ba 40 52 e7 3b
       0.0018955165 -0.0054692947 -0.00100424 0.0070593655
0000b0 22 18 db bb 75 03 42 3b 9e 14 78 3b b5 fc 11 3c
       -0.0066862265 0.0029604111 0.0037854086 0.008910348
0000c0 44 a9 ab bb 02 c5 d7 bb e0 16 ec bb 1f 4d e6 3b
       -0.005238684 -0.0065847645 -0.0072048753 0.0070282365
0000d0 09 d7 e3 3b da 5e 23 3c 6c 90 0c 3b a2 ff cc 39
       0.0069531244 0.009971345 0.0021448387 0.00039100373
0000e0 09 9b e9 bb 26 de 1a 3c 13 f4 f5 bb 84 dd 12 3c
       -0.0071290773 0.009452378 -0.0075059026 0.008963946
0000f0 64 c8 cc bb aa 99 be bb bd 11 96 3b 23 b5 85 3b
       -0.0062494744 -0.005816658 0.0045797513 0.004080431
000100 ea 95 86 3b 03 0c a4 3b 0a d8 83 3b 0e 64 7c 3b
       0.0041072266 0.0050063147 0.0040235566 0.0038511786
000110 c1 ee 59 3b d3 0d dc bb 9f bd fb ba 6b 4f 94 bb
       0.003325388 -0.006715515 -0.0019206292 -0.004526069
000120 cf 4c c8 3b b8 c6 f8 3b c0 1e c3 bb 42 a7 16 3c
       0.006112672 0.0075920485 -0.0059545934 0.009195151
000130 e1 3d 1e 3c 99 84 e0 3b f6 2f ea bb da 7f de b9
       0.009658308 0.0068517444 -0.0071468307 -0.00042438396
000140 f6 17 12 3c 3d 37 ad bb 6d 15 01 3c 20 ad 91 bb
       0.008916846 -0.005286126 0.007878643 -0.004445687
000150 f9 30 97 3b f3 4d 18 3c 38 8b 23 3c 72 eb 16 3c
       0.0046139923 0.009295928 0.009981923 0.009211408
000160 12 51 97 3b eb c9 87 ba 73 64 ae bb 2b e3 e6 3b
       0.0046178186 -0.0010359859 -0.005322033 0.0070461235
000170 a7 d8 89 bb 67 d4 4d 3a ce a0 1d 3c 7b 96 06 bc
       -0.004206735 0.000785178 0.009620858 -0.008214588
000180 24 9b 61 bb 31 31 e8 ba e1 d1 f9 bb a6 c2 e7 3a
       -0.0034424746 -0.0017714855 -0.0076238965 0.0017681911
000190 fe 40 34 bb 09 19 df 3b bf ee b3 3b 62 84 94 3b
       -0.0027504559 0.0068084043 0.0054911072 0.004532383
0001a0 3c a7 49 bb f5 9c 19 3c ba c1 8d bb 4b 9a c3 bb
       -0.0030769845 0.0093758 -0.0043260725 -0.005969321
0001b0 06 b3 e0 bb f2 df 18 3c 08 71 a3 b9 62 ea ea 3b
       -0.0068572788 0.0093307365 -0.00031173998 0.007169054
0001c0 a3 66 0f bb 9c 7f 78 ba 26 d2 98 bb 0a 96 08 3c
       -0.0021881245 -0.00094794645 -0.0046637235 0.008336553
0001d0 6b 87 1d 3c 27 ed b6 bb 4e cb 1f 3c 1b 8b c0 3b
       0.009614806 -0.00558247 0.009753061 0.0058759577
0001e0 b7 46 20 3c 7d 0e 4f bb 7d 84 78 3b a5 b6 cd ba
       0.009782485 -0.003159433 0.0037920766 -0.0015694691
0001f0 0f e6 b7 3b 00 00 00 00 2e 2e d8 3b 2a c4 e1 bb
       0.005612142 0.0 0.006597302 -0.0068898397

convs.0.lin.weight f4 [128, 384]
000000 ba 25 a1 3c e3 69 81 3d 71 79 e6 bc 3d c5 3b bd
       0.01967131 0.063190244 -0.02813408 -0.045842398
000010 1c ce 18 bd e0 d4 e6 3d 66 74 61 3c 5c ef 6c bb
       -0.037305936 0.112710714 0.013760662 -0.0036153411
000020 a3 17 71 bd d8 de 73 3d ff df 17 bd ba 9f cf bb
       -0.058860432 0.059538692 -0.037078854 -0.0063361796
000030 b6 9c ef bc ad d7 44 bd 6d d3 ac 3c 7f f3 a5 3c
       -0.02924953 -0.048057247 0.02109691 0.02025771
000040 23 fc f3 3c 1a dd 22 3d a0 28 72 3c b7 6e a6 bd
       0.029783314 0.03976164 0.014780194 -0.08126586
000050 e7 eb 15 3d 22 8c 2c 3c a7 e1 05 3d 63 f4 75 bd
       0.036601927 0.010531457 0.032685902 -0.06004752
000060 92 72 10 3d 88 03 b5 bd 07 19 a9 bd af 2d 6c 3d
       0.035265513 -0.08838564 -0.08256727 0.057660755
000070 99 14 61 3d a0 a9 ca 3c fa 82 9c 3d 7f 77 64 bd
       0.054951284 0.024739087 0.07642169 -0.055778023
000080 8f 54 41 3c 5b ee aa bd 0d aa 89 bc 97 98 83 bd
       0.0117999455 -0.08346244 -0.01680472 -0.064255886
000090 bb cf aa 3d 0c 07 d8 3b 77 26 2a 3d e0 3c 5f 3d
       0.08340403 0.006592637 0.04154059 0.054501414
0000a0 9a 6c 95 3d 37 10 d7 3d 71 49 91 3d 54 dc c2 bd
       0.07296105 0.105011396 0.07094086 -0.095146805
0000b0 81 56 ab 3d d9 76 2c 3c 6f cd 9a bd b7 b7 f0 3c
       0.08366109 0.010526382 -0.075587146 0.029384477
0000c0 bb 5e ea bd 89 bd 27 3d 77 5d a8 3d cb 39 b5 bc
       -0.1144385 0.04095224 0.08220952 -0.022122284
0000d0 6f b3 38 3d 7a 14 3c 3d c6 96 1e bd 44 7e 99 bd
       0.045092996 0.045917965 -0.038718008 -0.074947864
0000e0 0f ae 97 3d af 34 ce 3c 77 dc 08 3d 1a 66 1d 3d
       0.07406246 0.025171606 0.033413377 0.03842745
0000f0 26 8f 0e 3d b9 6a 37 bd 61 d8 7a bd 46 47 35 bd
       0.034804486 -0.044779513 -0.06124151 -0.044257425
000100 28 dc be bb f4 85 b5 3d 72 75 d8 bc 7f 29 06 3b
       -0.0058245845 0.0886344 -0.02642319 0.002047151
000110 d1 de a0 bd 30 28 21 bd 9c 8c 83 3c 3a 5d 1c bc
       -0.07854999 -0.039344966 0.016058259 -0.009543711
000120 1f 0b 85 bb e9 a8 4f 3d 98 64 92 bc 18 f1 b6 3d
       -0.0040601636 0.050698195 -0.017870232 0.08932704
000130 b6 5e c0 3d 76 09 6a bd 8e bb 71 3d 6b 75 7e 3d
       0.09393065 -0.05713793 0.059016757 0.062123697
000140 30 26 40 3d dc 00 a3 3d d8 42 c9 bd b1 6e dc 3b
       0.04691142 0.07959148 -0.098272026 0.0067270626
000150 92 6b ff 3b 7a 62 af bd 00 54 9f bd bf 9f b7 3b
       0.007794806 -0.08563705 -0.077796936 0.00560376
000160 57 d7 2c 3d 38 04 95 3d f4 98 cb ba 19 67 ac 3d
       0.04219755 0.07276195 -0.0015533254 0.08418102
000170 d5 03 45 bc c4 ea e9 bc b9 ca ab bd 14 2f 6f 3d
       -0.012024839 -0.028554328 -0.08388276 0.058394507
000180 41 8c 2a bd 8e 07 c8 bd ff ea 60 3d 9e 33 c2 bd
       -0.041637663 -0.09767066 0.05491161 -0.094825014
000190 8d 76 ba bc e7 fa 3d bd 85 8a 10 3d 58 ef a8 3c
       -0.022761608 -0.046381857 0.035288353 0.02062194
0001a0 75 da 0c bd e2 4d 2a bb d5 cb 32 3d b4 f6 75 bd
       -0.034388024 -0.0025986363 0.04365142 -0.060049728
0001b0 9e 07 97 3c 91 51 b2 3c 7b bc 58 3d 19 4d fc 3a
       0.01843625 0.02176741 0.052914124 0.0019249051
0001c0 60 07 7b 3d 6d 2f b0 3c 1d 6a 7d bd 60 a3 91 bd
       0.06128633 0.02150699 -0.061868776 -0.071112394
0001d0 1b 9d 25 3d f2 19 42 ba aa 07 33 bd 5e a7 c1 3d
       0.04043303 -0.0007404379 -0.04370848 0.09455751
0001e0 b9 f0 ab bd f4 d9 50 3d d4 6b b9 3d d5 af c9 3c
       -0.083955236 0.050989106 0.0905377 0.024619976
0001f0 a5 2c 11 3c 24 49 bd 3d c6 46 8a bd 24 6c 04 3d
       0.008860742 0.09242466 -0.0675178 0.032329693
000200 4f 63 7d bd 68 d8 bb bd 71 8e ca 3d 7b 93 b0 bd
       -0.061862286 -0.091721356 0.0989045 -0.0862188
000210 f0 1f 71 bd 56 5d 89 3d 03 80 75 3d 95 1c ad bd
       -0.05886835 0.067072555 0.059936535 -0.08452717
000220 bf 0a 00 bc 5b 69 bd 3c 28 f0 5b 3d 6f d2 a5 bc
       -0.007815062 0.023121526 0.053695828 -0.020241944
000230 4f b2 d5 3d 8c 2b b7 3d 78 3d cc 3d 09 a6 56 3d
       0.104344 0.08943853 0.09972662 0.052404437
000240 9e 27 9e 3d f1 ca a4 3d e2 f3 bd bc 3e 92 90 3d
       0.077224 0.080465205 -0.023187581 0.070591435
000250 1f 0e 4c bd a2 5d 38 bd ba ac 95 bd 28 4a 1b 3d
       -0.049818154 -0.04501117 -0.073083356 0.037912518
000260 b9 ea 44 bd 4e f6 d2 bd 33 36 fa 3c 9e d0 c5 bc
       -0.04807541 -0.10300885 0.030543422 -0.024147328
000270 77 47 cf bd ec 70 99 3d 97 eb 44 3d 4f 93 86 bd
       -0.10121053 0.07492241 0.04807624 -0.06571066
000280 fd e3 aa bb 63 3b 95 3d 83 bb 7b 3d 7e 8a 24 bd
       -0.0052151666 0.07286718 0.061458122 -0.04017114
000290 b6 d0 55 3d 07 65 46 bd 90 df 9c 3c 53 45 a9 bd
       0.052200995 -0.04843619 0.019149572 -0.08265176
0002a0 9d 88 09 3d 78 61 8d bd 8e 8a 26 bd 29 31 29 3d
       0.03357755 -0.06903356 -0.04065948 0.04130665
0002b0 70 a9 ac 3c a2 e4 ad 3d 96 d0 4b 3a cc 22 9a 3c
       0.021076888 0.08490874 0.0007774917 0.01881542
0002c0 26 cb b5 3d a9 c2 97 bb d4 f1 ba 3c ed 66 f5 3c
       0.08876638 -0.0046313596 0.02282039 0.029956305
0002d0 5f 41 54 3c a1 c5 28 bd f4 69 86 3d 78 5e dd 3c
       0.012955039 -0.0412041 0.06563178 0.027022585
0002e0 d2 e4 bd bd dd e9 9a 3d 18 31 86 3d 60 ad ab 3d
       -0.0927216 0.07564137 0.06552333 0.08382678
0002f0 71 66 9c 3c fe ba 9d 3c 1e ed 28 bd ad e4 c5 3c
       0.019091817 0.019254204 -0.041241758 0.024156893
000300 55 fd 7b 3d 33 1f fa bc 00 08 4b bd 4b b0 e7 bd
       0.061520893 -0.030532455 -0.049568176 -0.11312922
000310 a9 74 a9 bd fa 56 c3 bb 43 c7 e0 3d 66 10 93 3d
       -0.08274204 -0.005961296 0.10975506 0.07180862
000320 61 79 aa bc a3 5f 9f bd 81 d0 8c bb 03 52 9a 3d
       -0.020809831 -0.07781913 -0.0042973165 0.07535174
000330 13 b6 9e bc f8 01 5a bd de c0 f1 bc b6 68 39 bd
       -0.01937393 -0.053224534 -0.029510912 -0.045265876
000340 67 ee 5e bd 58 4d 81 bc 98 cc 2b bd 03 d1 50 bc
       -0.054426577 -0.01578395 -0.041943163 -0.012745145
000350 83 4a ac 3d bb 17 c2 bc 41 b1 f2 3c c8 38 8b 3d
       0.084126495 -0.023692956 0.029625537 0.067979395
000360 31 9b bc 3d b5 7c 0b bc 11 9b c5 bd cd 24 23 3d
       0.09209288 -0.008513619 -0.09648717 0.039830018
000370 e6 03 7f 3c 3e a0 89 bd 48 25 a4 bc 39 ce 08 3d
       0.015564894 -0.06720017 -0.020037308 0.033399794
000380 a8 9e a2 bd 79 2f dd 3d 81 59 61 bd bc 8e 00 bc
       -0.079404175 0.1080007 -0.055017 -0.0078465305
000390 6d 5b 1d 3b f5 c4 17 3d a0 09 b0 bd 4f 61 b3 bd
       0.0024010793 0.037053067 -0.08595586 -0.087587945
0003a0 05 23 86 3d 1f 5c c0 3d 34 16 12 bd 45 4f fe bc
       0.06549648 0.09392571 -0.035665706 -0.031043658
0003b0 87 0e bc 3d 37 51 c7 bd 62 ea b0 3c 09 1e 3d bd
       0.09182458 -0.097322874 0.021596137 -0.046171222
0003c0 ba 67 96 bd 8a 58 8a 3d ab 44 90 bd 4c c6 c5 3d
       -0.07344003 0.06755169 -0.070443474 0.09656963
0003d0 d3 4c 38 3d 99 c5 c2 bb b9 75 a6 3c eb d7 a0 3d
       0.04499514 -0.0059439656 0.020319806 0.07853683
0003e0 3d 09 93 3d 17 3f 83 3b ec 58 c0 3d b6 30 b9 3d
       0.071794964 0.0040053236 0.093919605 0.09042494
0003f0 98 17 54 bd a5 db 4e 3d b6 f5 ca bd 0d f5 0f 3d
       -0.051780313 0.050502438 -0.09910147 0.035145808

convs.1.bias f4 [128]
000000 4a 67 15 3c ee 05 d8 b9 1d ff 51 ba 4d 4a ac bb
       0.009118864 -0.00041203148 -0.0008010732 -0.005257881
000010 26 14 d9 bb c0 ee 15 3c 80 45 20 3c bc 72 93 bb
       -0.0066247163 0.009151161 0.009782195 -0.0044997614
000020 11 61 ee bb c8 2d 24 3c 97 57 15 3c 0b 41 23 3c
       -0.007274755 0.010020681 0.009115121 0.009964238
000030 75 5c f3 bb ed eb 06 bc dc f9 d9 bb 39 0c b8 bb
       -0.007426793 -0.00823496 -0.0066521 -0.0056166914
000040 ac c8 4c 3b a2 5b e0 3b 6d 56 e8 3b a8 fc bf bb
       0.003124754 0.006846861 0.007090381 -0.0058589764
000050 ae 81 06 3c 3a 43 fa 3b 89 a0 10 bc 2f 91 eb 3b
       0.008209629 0.0076374086 -0.008827337 0.007188938
000060 7d 75 82 3a 02 96 c6 3b c9 3e d4 bb 42 4b 1c 3c
       0.0009953227 0.006060363 -0.006477211 0.009539427
000070 87 f3 66 bb e0 47 8e 3b 39 53 11 3c 57 77 ee 3b
       -0.0035240368 0.0043420643 0.0088699395 0.00727741
000080 61 2e 1b 3c 68 1e b7 ba ba c8 06 3b 01 eb e3 bb
       0.009471507 -0.0013970854 0.002056642 -0.006955505
000090 fa 50 ce bb 4d 65 1a bb f3 99 07 bc 7d 38 09 bc
       -0.0062962743 -0.0023558915 -0.00827645 -0.008375284
0000a0 a8 ed 22 3c dd 7f fc bb 4f 4f d9 3b d2 59 2e 3a
       0.009944357 -0.007705672 0.006631769 0.00066509575
0000b0 e8 98 0b 3c 27 35 ec 3b 76 49 e3 3b ce 72 0f 3c
       0.008520342 0.0072084847 0.0069362475 0.008755399
0000c0 54 a4 0c 3c 36 55 6b bb 27 46 0a 3c cc ba 1f 3c
       0.008584101 -0.0035908944 0.008439577 0.009749126
0000d0 37 ea 06 3c 82 d9 a3 bb 1f f0 ca bb 09 0b ad bb
       0.008234552 -0.005000294 -0.0061931754 -0.0052808565
0000e0 b6 ab 57 3b 4d 35 00 3c 33 18 1f 3c c6 c9 62 bb
       0.0032908744 0.007825208 0.009710359 -0.003460513
0000f0 d6 b7 e4 bb ec 3b ee bb ab 65 09 3c 66 55 24 3c
       -0.0069799228 -0.007270327 0.008386056 0.010030126
000100 d1 52 1f 3c 70 43 20 3c 2f 0f 07 bc 37 0a 13 3c
       0.009724335 0.009781703 -0.008243366 0.008974603
000110 d8 c2 3f 3b bc 04 20 3c 8a 68 fb bb f2 77 d6 bb
       0.0029260423 0.009766754 -0.007672374 -0.0065450603
000120 c7 f7 fd b9 e4 10 5d bb 75 1d 08 3c 6f 57 6d bb
       -0.0004844053 -0.0033731991 0.008307804 -0.0036215445
000130 61 4b b1 bb 17 56 ed 3b 11 7d f0 bb aa ee 5e ba
       -0.005410597 0.0072429287 -0.007339128 -0.00085041916
000140 d0 38 ca bb 34 56 ce ba 32 20 dd bb 90 36 8e b9
       -0.0061713234 -0.0015742243 -0.0067482227 -0.00027125003
000150 e5 b9 e6 bb 57 ec d2 bb da 2c fd bb 3d 0e 92 bb
       -0.0070412033 -0.0064368653 -0.007726294 -0.0044572637
000160 78 43 0d bc 37 42 fb bb 7b 10 94 bb 4e 47 d6 bb
       -0.008622043 -0.0076678055 -0.004518566 -0.006539262
000170 6e f8 98 bb 24 f0 af 38 3b 97 02 3c 53 a3 9f bb
       -0.004668287 8.38938e-05 0.0079706265 -0.0048717647
000180 3b e4 19 3c 64 66 07 3c 8f 6b bc 3a e5 a1 16 3c
       0.009392793 0.008264158 0.0014375317 0.009193872
000190 c3 f7 ed ba fe 06 11 bc dc f3 0e 3c f0 ea 23 3c
       -0.0018155504 -0.008851765 0.008725133 0.010004744
0001a0 00 00 00 00 01 44 59 bb 2b 6d d4 bb 5e 2d 18 3c
       0.0 -0.0033152106 -0.0064827404 0.00928816
0001b0 cb 91 fd bb 92 c1 1a 3c e6 95 b6 bb 9c 7a 1b 3c
       -0.007738327 0.009445565 -0.0055720685 0.009489682
0001c0 4c 8d 86 ba 90 41 cb 38 0f 12 9e bb 02 5d 06 bc
       -0.0010265498 9.692006e-05 -0.00482393 -0.008200886
0001d0 1b 6d cd bb 9d 54 cd bb 08 71 03 3c bc 28 3a bb
       -0.00626911 -0.00626619 0.008022554 -0.0028405627
0001e0 f5 75 8b bb 64 42 85 bb eb 84 12 bc 64 2c 19 3c
       -0.004256005 -0.0040667523 -0.008942823 0.009348962
0001f0 d3 c9 07 3c 8f 06 fd bb f0 3d 0b bc cd 3c 11 3c
       0.008287865 -0.007721729 -0.008498654 0.008864594

convs.1.lin.weight f4 [128, 128]
000000 65 c0 86 3c d6 b1 e4 3d ba 10 ec 3d ef d5 10 bc
       0.016449163 0.11166732 0.11526628 -0.008840068
000010 d1 ea dc bd a6 d7 ca 3d 20 40 c0 3d 46 7a c0 bd
       -0.10786975 0.09904413 0.09387231 -0.09398322
000020 4f 43 e6 3d ec f4 8c bd 95 be 19 bd 3f 98 a9 bd
       0.11243307 -0.06882653 -0.03753527 -0.08280992
000030 b9 cf 09 be 85 e7 fc bd 55 0d 00 be 8d 00 56 3d
       -0.13458146 -0.12348846 -0.12505086 0.05224662
000040 0b 2a 0b 3e 59 3d 11 3d 75 e2 1e 3d ad 4f 0e be
       0.13590257 0.035458896 0.038790185 -0.13897581
000050 ad 4c bc bd 13 2d 03 3e 8f 1f d9 bd 6f 95 7b 39
       -0.09194312 0.12810163 -0.106017224 0.00023992894
000060 e5 70 c5 3d 4f 55 e3 bd 9b 50 f3 3d f0 7a d7 3d
       0.096406735 -0.11100256 0.11880609 0.10521495
000070 6f 63 5c 3d b5 54 fe bd 9d 86 06 be 79 ee cc ba
       0.053805765 -0.124185 -0.13137288 -0.0015635035
000080 01 43 80 3c ab bd dd 3d 68 18 d4 bd bf 55 aa 3b
       0.01565695 0.10827192 -0.103562176 0.00519821
000090 03 4d 31 3d e3 35 89 3d 0f 29 02 be f5 41 13 3e
       0.043286335 0.06699731 -0.12710975 0.1438063
0000a0 6c 63 8f 3d 7b 38 a7 3d 93 a9 b3 3b a6 68 e4 3d
       0.07001385 0.0816507 0.0054828613 0.111527726
0000b0 aa 8a 1b 3d 98 27 23 3d 13 a0 e0 bd c7 d8 ec 3d
       0.037974037 0.03983268 -0.10968032 0.115647845
0000c0 c8 46 96 3d 52 34 c3 bd bd 28 49 3d d2 d5 ba bc
       0.07337719 -0.09531464 0.049111117 -0.022807036
0000d0 d8 6e 02 bb 50 7a 0c 3e c2 ac 27 bd cf 97 23 bd
       -0.0019902494 0.13718534 -0.04093624 -0.039939698
0000e0 bf 07 77 bd ab 22 19 bd c9 b6 00 be 53 e2 21 bc
       -0.06031012 -0.037386578 -0.12569727 -0.00988062
0000f0 ab d4 1c 3e 2e 3d 56 3d 01 67 ca bd 27 ef ee 3d
       0.15315501 0.05230444 -0.09882928 0.116667084
000100 18 08 19 3e b3 ba 20 3e e0 44 13 3e 8d 88 99 bc
       0.14944494 0.1569622 0.14381742 -0.01874187
000110 e0 9e 39 bc 8a c3 ac bb 34 a1 6c bd f6 21 39 bd
       -0.011329383 -0.0052723335 -0.057770923 -0.045198403
000120 82 2b 14 bd d7 85 c8 bd ec 80 ee 3c 5b 4a 91 3d
       -0.036174305 -0.09791153 0.02911421 0.0709426
000130 96 df 88 3d 4a 11 64 3d 5d 54 d6 3d 7f b0 e4 bd
       0.06683271 0.05568055 0.1046531 -0.111664765
000140 47 9f d5 bd 2f 87 f8 3b 33 10 57 bd 58 c4 5f 3d
       -0.1043077 0.0075844745 -0.052505683 0.054630607
000150 0d 70 e9 bc 98 dd a0 3c 3d 3a 05 3e 60 db 6b 3c
       -0.028495813 0.019636914 0.13010497 0.014395565
000160 4b a9 00 3e dd a3 b3 bd b8 29 92 bd 46 7b 65 bd
       0.1256458 -0.08771489 -0.071368635 -0.056025766
000170 5d 49 d5 bd 42 a5 82 bc b1 45 bd 3c 07 2b 96 3d
       -0.104143836 -0.015947942 0.02310452 0.073324256
000180 d2 b8 4b 3b fb ce e1 bd 7a 90 1d bd 03 a1 17 3e
       0.0031085503 -0.110258065 -0.03846786 0.14807515
000190 a4 e3 d1 3b c7 a4 e1 3c 0e 66 b1 bd 4e 36 fb bd
       0.0064053107 0.027544392 -0.086620435 -0.12266217
0001a0 18 2f 06 3e 4d 34 43 bd 85 0a 1f bc 18 07 81 3d
       0.13103902 -0.0476573 -0.009707098 0.06300181
0001b0 37 82 0a be f8 a9 f2 bd 80 59 07 bd cd 4d 06 3d
       -0.13526236 -0.11848825 -0.03304434 0.03278904
0001c0 b8 5d 0d bd 83 b0 13 3d d8 11 f0 bc a8 cf 69 bb
       -0.034513205 0.036057007 -0.029305384 -0.0035676751
0001d0 27 35 d7 bd 4c 49 03 be c8 ba 21 bd 96 8c c7 bd
       -0.10508185 -0.1282093 -0.03948477 -0.097436115
0001e0 aa 87 6d 3d 29 0a 00 3e e7 0f 1f 3d cf ca 48 3d
       0.057990707 0.12503876 0.038833525 0.04902154
0001f0 21 91 20 3e 9c 4d f8 3d ab 53 a8 bd 9f 72 e7 bd
       0.15680362 0.12124178 -0.082190834 -0.11301159
000200 47 c7 8b bd 1b 9b a0 3d d1 b1 c0 3d c5 54 20 3e
       -0.068251185 0.07842084 0.09408916 0.15657337
000210 68 6b b7 bc dc 00 0e 3e f2 d6 f0 bd c3 59 96 bd
       -0.022390082 0.13867515 -0.117597476 -0.073413394
000220 b2 0b d4 bd 63 53 05 3e ad 52 78 3d d2 5b 12 3e
       -0.10353793 0.13020091 0.06062572 0.14292839
000230 b6 2b 8d bd 70 a6 c5 3b 64 4c 13 3e c8 3a 0c be
       -0.06893103 0.006031804 0.1438461 -0.13694298
000240 bf de 92 bd 3e 01 0f 3e a3 b4 f5 bd 18 87 aa 3d
       -0.07171392 0.13965318 -0.11997344 0.08326548
000250 97 fb c7 bd 25 8b b6 bd f5 e2 0a be dc 92 64 bd
       -0.09764784 -0.089132585 -0.1356314 -0.05580412
000260 d8 41 c9 3d b6 b0 a2 bd 79 66 a3 bd a9 5e 0d 3d
       0.09827012 -0.07943861 -0.079785295 0.034514103
000270 6b 36 c1 bd fe 7d e0 3d 68 06 69 bd db 0a d4 3d
       -0.094342075 0.10961531 -0.056890875 0.10353633
000280 34 6f fa 3d f7 33 c7 3d 94 54 4d bc 97 f0 20 bc
       0.122282416 0.097267084 -0.012532372 -0.009822986
000290 ea 11 40 39 11 90 07 3d ca 3e 80 bd 06 5a e4 3c
       0.0001831722 0.033096377 -0.06261976 0.027874958
0002a0 4e b7 19 3e e5 be a5 bc dc f6 20 be ce 03 f6 3d
       0.15011331 -0.020232627 -0.1571917 0.120124444
0002b0 ae 53 cc bd b9 9d 58 bd 9d 03 25 3c 85 00 2f bd
       -0.09976898 -0.05288479 0.010071662 -0.042725105
0002c0 8a 0d 07 3e 33 d3 e5 bc 8a 24 8d bb 50 d4 bf 3d
       0.13188758 -0.02805481 -0.0043073343 0.09366667
0002d0 52 ea c5 3d 4e 31 29 3d c2 fb ea 3d 6b 01 3c bd
       0.09663834 0.041306786 0.114738 -0.04589979
0002e0 84 ce fd bc fc 42 e9 3d 3b 79 4c bc 61 10 09 be
       -0.030982263 0.113897294 -0.0124800755 -0.13385154
0002f0 b0 6a ac 3c 27 63 6d bc eb 5a e8 bd 41 15 69 bd
       0.021046966 -0.014488972 -0.11345466 -0.056905035
000300 9b 26 64 bd 2c 5e 4c bd 65 3a e8 3d 0f 64 0d 3e
       -0.05570088 -0.049894497 0.11339263 0.138077
000310 91 55 9e bd 59 a3 c1 bd 7e 16 ba bc 82 bf 91 3c
       -0.07731164 -0.09454984 -0.022715803 0.017791513
000320 02 dc 0f be f6 a2 52 bd af ee 9c 3c 5c a8 08 3e
       -0.1404877 -0.051424943 0.019156782 0.13345474
000330 59 a2 6b bd c5 4f 04 be 10 ed 0f be d8 92 4a bd
       -0.057527874 -0.12921055 -0.14055276 -0.049456447
000340 40 57 e5 bd 58 a7 e0 bc 27 89 c9 bd ab 8c 14 be
       -0.11198282 -0.027423546 -0.09840613 -0.14506786
000350 aa f5 02 3d db b9 73 3d 30 32 97 bd d2 61 d9 bc
       0.031972565 0.059503417 -0.073826194 -0.026535902
000360 60 df ee 3d 37 38 11 3e 79 45 38 3d fb 86 d7 3d
       0.11663699 0.141816 0.04498813 0.10523792
000370 22 0d 00 3e 32 fb 15 be e1 f4 b5 3c 0d 61 82 bd
       0.1250501 -0.14646605 0.022211494 -0.06366167
000380 ee 4f 07 3e f2 75 13 be de 93 15 3e 0e 99 6a 3d
       0.13214085 -0.14400461 0.14607188 0.05727487
000390 7e cf e2 3d 05 9a 4a 3d 5f 24 c3 3d 4a 02 83 3c
       0.11074732 0.04946329 0.095284216 0.015992302
0003a0 4d d7 d4 3c 39 c2 09 3e 1e 76 fb bd 31 1e 2e 3d
       0.02598157 0.13452996 -0.122783884 0.04250926
0003b0 01 f5 15 3e d2 c6 0f be 0b af 9d bc af c8 43 3d
       0.14644243 -0.14040688 -0.019248506 0.04779881
0003c0 bb 56 e9 3c 85 1e 36 3d 2d 8a 9e bc f7 e3 ab bd
       0.02848374 0.0444627 -0.019352997 -0.0839309
0003d0 49 59 01 be 09 87 ac 3c 2b f3 42 3d 45 6a a3 3c
       -0.12631716 0.021060484 0.047595184 0.019948134
0003e0 06 28 f9 3d 41 d4 a0 bd bd 85 64 3d 45 60 10 be
       0.12165837 -0.07852984 0.055791605 -0.14099224
0003f0 cc af b9 bc 16 a1 cd bd de 42 dc bd b6 f2 b7 3d
       -0.022666834 -0.1004049 -0.107549414 0.0898184

lin.weight f4 [2, 128]
000000 71 e6 52 bc da 41 10 3d a3 f9 3e bd f1 ab 7e bc
       -0.012872324 0.03521905 -0.04662479 -0.015543924
000010 ac 1d 14 bc bd 09 cd bb 69 ad 0c 3c 90 65 83 3d
       -0.009040277 -0.0062572644 0.008586266 0.06415856
000020 5f 7d a0 3c 4f 07 97 3d 85 a5 7f 3d 28 82 b2 bc
       0.019591032 0.07374441 0.06241371 -0.021790579
000030 4c 91 86 bd c4 df 8e bd 15 75 a2 3d 49 6a 38 bd
       -0.06570682 -0.06976274 0.07932488 -0.045023236
000040 a1 ce b4 3d 2c e0 fd 3c b2 0e 4b 3d 9b 0a 03 bd
       0.08828474 0.030990683 0.04957456 -0.031992536
000050 a1 bd a9 bc 66 50 bc 3d 4d f3 8c bc e5 bf a6 3d
       -0.020720305 0.09195022 -0.017205859 0.0814207
000060 c8 4e a0 bd f2 26 57 3d 40 cc 97 bd c0 49 b0 3d
       -0.07827526 0.052527376 -0.074120045 0.08607817
000070 8e 74 a4 bd 6e 51 a1 bc f2 7e c7 3d a1 0a 95 3d
       -0.080300435 -0.019692149 0.0974101 0.07277418
000080 fb f6 c1 3d f5 97 c7 3c 2d 83 a6 bd 94 94 0a 3c
       0.09470936 0.024364451 -0.081304885 0.008458275
000090 f9 2a 9e bd 49 3e 86 3d b2 de 1a bb ba cd 09 3c
       -0.0772304 0.06554849 -0.0023631272 0.008410865
0000a0 ee 93 30 3d 26 90 34 3d 6d 61 31 3d fa 71 ab 3d
       0.043109827 0.044082783 0.043305803 0.08371349
0000b0 b1 cd 4b 3d dc 7a b6 3b fc 8e 70 3d 33 24 87 3d
       0.04975671 0.005568845 0.05873011 0.06598701
0000c0 76 84 f2 3c 11 af 5c 3d 3b b3 8e 3d b7 d5 28 3d
       0.029604178 0.053877894 0.06967779 0.04121944
0000d0 cf 49 07 3c 8d 26 9d bd 48 ca eb ba 6b fd 33 3d
       0.008257343 -0.076733686 -0.0017989362 0.04394285
0000e0 a8 1b b7 3d 75 66 b9 3d 43 8f b6 3d 12 52 59 bd
       0.08940822 0.09052745 0.08914044 -0.053056784
0000f0 11 7e 88 3d a5 a8 71 bd 8f e6 36 3d 3e 7a 8a bd
       0.0666467 -0.058998723 0.04465347 -0.06761597
000100 3d e5 82 3c 23 70 9e 3d 22 de 8f bd e7 2d 9d 3d
       0.01597845 0.07736232 -0.0702479 0.07674771
000110 a6 b3 02 bd ac 54 9f 3d ec 22 0e bb 83 c6 e2 bc
       -0.031909607 0.07779822 -0.0021688296 -0.027682548
000120 0a e3 9d b9 8d b7 71 bd d9 78 06 3d 2e 56 3f 3b
       -0.0003011453 -0.05901294 0.032830093 0.0029195654
000130 41 66 9c bd 1f 7c a3 bd 2d 65 eb ba 40 b2 21 bd
       -0.07636691 -0.079826586 -0.001795923 -0.039476633
000140 18 a5 f6 bc 3a b5 7b bd a1 57 8f bc 53 f4 b6 bd
       -0.03010802 -0.061452128 -0.01749784 -0.0893332
000150 1e c8 74 bd 3d 1e 1b 3d 2b 4e 41 3d 09 fa 3f bd
       -0.05976116 0.037870634 0.047193687 -0.04686931
000160 f6 2a 27 bd aa 88 2e bd 31 f7 6b bd 32 a2 d0 bc
       -0.040812455 -0.0426108 -0.057608787 -0.025467966
000170 d2 c2 f1 3c 61 aa 0d bd b5 03 85 3d 8b 76 1b bd
       0.029511843 -0.034586314 0.06494848 -0.03795485
000180 19 62 68 bd b1 e3 61 3d 4a b2 86 bd a9 d8 1b 3b
       -0.05673418 0.055148784 -0.06576975 0.0023780263
000190 09 cb cd 3c b8 67 3b bd 5e bc e8 3c 91 25 03 3d
       0.025121229 -0.04575321 0.028410133 0.032018248
0001a0 67 0a 0a bd cd 54 9d 3d 1a 6d dc bb 60 d2 c3 bd
       -0.033701327 0.0768219 -0.006726873 -0.0956161
0001b0 70 26 00 bb b6 9a 46 bc 0b 69 68 bb 1a 12 85 bc
       -0.001955416 -0.012121847 -0.0035463 -0.016243983
0001c0 ea 77 af bd 81 ea 19 bd 19 29 4d 3d 4c c8 9f bd
       -0.08567794 -0.037577156 0.050088022 -0.078018755
0001d0 36 79 a9 3d 8b 8e 0f ba 73 b6 ae 3c b6 78 a7 bd
       0.08275072 -0.00054762576 0.021327233 -0.08177321
0001e0 ff 30 8d bd 43 0e 99 bc 93 92 68 bd 64 ec 5c bd
       -0.06894111 -0.018683558 -0.05678041 -0.053936377
0001f0 ed 21 b2 3d b5 40 6b bd f6 59 b6 ba d7 aa 58 bd
       0.08697877 -0.057434756 -0.0013912308 -0.0528973
000200 ac a7 92 3d 44 b9 9e bd 4e 47 bd bb 5c 2d a9 3d
       0.07160887 -0.0775018 -0.0057763224 0.08260605
000210 f2 a9 74 bc 05 70 39 bd 30 b4 58 bd b9 e4 7c 3d
       -0.014933096 -0.045272846 -0.052906215 0.061741564
000220 72 20 19 3d a5 79 8c 3c 58 31 23 bd fd 40 99 3d
       0.037384458 0.017147848 -0.03984198 0.07483099
000230 cf 0d bb ba 9b e8 d0 3c bf 12 98 3d 8c b8 a6 3d
       -0.0014271083 0.02550154 0.074254505 0.08140668
000240 b5 3f 91 3d 81 e2 e7 bb 0c f8 5b bb 72 a4 98 3d
       0.07092229 -0.007076562 -0.0033564596 0.074532405
000250 62 e1 4b bd 22 10 f0 3c d0 28 27 bc 39 9b 90 bd
       -0.04977549 0.029304568 -0.010202602 -0.07060856
000260 cd 81 cd bc c3 22 8d bb 5e 63 9e 3c 71 15 4c bc
       -0.025086308 -0.0043071224 0.019334491 -0.012456284
000270 f1 f6 e3 ba 00 f5 82 3d ba ab 8b 3d 22 f3 21 bb
       -0.001739232 0.06394386 0.068198636 -0.002471157
000280 dd b5 49 3d e7 10 9b 3d 26 d3 17 3d 55 8b a1 bd
       0.049245704 0.07571583 0.0370666 -0.078879036
000290 52 ed 33 3c 2f b9 39 3b ce f2 77 3d b6 fa db 3c
       0.010981875 0.0028339138 0.06053429 0.026852947
0002a0 47 92 84 bb cd 38 65 3d 2b fe b9 3c e1 20 6b 3d
       -0.004045758 0.055962373 0.022704205 0.057404403
0002b0 e9 2e 54 bd 22 e1 aa bd 38 1b 48 bd 10 ec 70 bd
       -0.05180255 -0.08343722 -0.048854083 -0.058818877
0002c0 b9 c7 00 bc 63 c8 9b 3d e4 8f c0 bd ae c9 75 3b
       -0.007860118 0.0760658 -0.09402445 0.0037504244
0002d0 c0 b1 3a bc 96 11 9a 3d 1d 40 49 3d 88 f1 a9 3d
       -0.011394918 0.075228855 0.04913341 0.082980216
0002e0 c6 3a c4 bb 89 85 23 3d 01 58 15 bd 30 ce 6a 3d
       -0.0059884517 0.03992227 -0.03646088 0.057325542
0002f0 ef f5 8c 3d b2 8b 4f bc aa 82 87 3c 79 2d eb 3c
       0.068828456 -0.012667583 0.016541798 0.028708206
000300 b1 53 35 bd 34 f0 5b 3d f2 d2 72 bc bb 0e 54 bd
       -0.044269267 0.053695872 -0.014820801 -0.05177186
000310 95 60 88 bc c5 f0 9f 3c 0c fa dd 3c f0 5c 2d 3d
       -0.016647616 0.019523988 0.02709677 0.04232496
000320 20 88 53 bd c9 63 7b bd 84 91 b4 bd 2c b7 6e 3d
       -0.05164349 -0.06137446 -0.088168174 0.058280155
000330 ab 61 a1 3d 2c 06 7e 3c 21 19 12 39 46 83 cf bc
       0.07879957 0.015504401 0.00013933006 -0.02533115
000340 68 fe 4c 3d 63 3f 27 3d c0 d4 aa bc 54 e3 64 3d
       0.05004731 0.040831935 -0.0208534 0.05588086
000350 ab 28 1f bc 5e dd 48 3d d5 6a 99 3c 01 8a e1 3c
       -0.009714286 0.049039237 0.0187277 0.027531626
000360 dd e2 1f bd ec de 7b 3d 75 4d 84 3d 9a 1d 33 3d
       -0.039034713 0.06149189 0.06460086 0.043729402
000370 3b 0c a0 3d d0 ad 42 3d e7 c0 88 bd 28 3c 46 3d
       0.07814833 0.04752904 -0.06677418 0.048397213
000380 2c 9e 12 bd 96 7f da bc 11 de 4f 3c ec 5c 2c bd
       -0.035795376 -0.026672166 0.012687222 -0.042080805
000390 e9 88 b4 bc 03 06 a0 bc 26 f5 ba bc 39 07 ab 3d
       -0.02203794 -0.019534117 -0.022821974 0.08350987
0003a0 7b 80 48 bd d5 9a 60 3c 2f bb 95 bd 03 48 12 bd
       -0.048950654 0.01370879 -0.07311093 -0.035713207
0003b0 56 70 6c 3d f6 e3 ae 3d 27 6c 74 3d 9a f6 66 bd
       0.05772432 0.08539574 0.059673455 -0.05638752
0003c0 9e 93 9a 3d e1 de 85 3d 17 2f 94 3d ec e5 87 3d
       0.07547687 0.065366514 0.07235544 0.06635651
0003d0 0c ed 9f 3d 04 c9 71 3d 2b de b1 bd 31 c7 98 3d
       0.07808885 0.059029594 -0.08684953 0.07459868
0003e0 34 62 a6 3d 83 e5 94 3d cb db 06 bd 99 b7 9a bd
       0.081241995 0.072703384 -0.032924455 -0.0755455
0003f0 27 a0 02 bd 99 24 83 3d 48 ee 44 3c d5 4f c2 bd
       -0.031891014 0.06403465 0.012019701 -0.09487883

lin.bias f4 [2]
000000 ec f8 17 bd 1f 49 dd 3c
       -0.037102625 0.027012406
