Test_Result/GNN/gnn_model_contextual_binary.pt (torch, 267093 bytes, 6 tensors)

convs.0.bias f4 [128]
00000000: 01ec c2bb a4a7 ee3b 560a 143c 109e 99bb
00000010: d7eb b53b 0347 19bc e185 b2bb a8b7 59bb
00000020: aebf 8f3b 213f f7bb 127a e4bb 051b 713b
00000030: e860 acbb 4730 d6bb dd82 573b 93e1 86bb
00000040: d2a3 febb dc5c 663a ae9d f1bb 7dab f1b7
00000050: 5052 d7b9 ec4c 0f3c dfd1 b839 2a04 63bb
00000060: bbb5 da3b c28a 7bbb 4eae fab9 fb0f 0b3c
00000070: 6b6a 10bc 652f cf3b 5e30 933b c43d 523b
00000080: 82e7 913b b47c 0c3c d9be c83a d537 383b
00000090: aadd aa3b e867 efbb f916 1c3c fa48 d03b
000000a0: 9315 94bb dc65 203c e93d 3c3b 87ab 113c
000000b0: ab62 eb3b 76d8 85bb c711 fc3b 4183 463b
000000c0: 55fd 6eba c229 6c3b b273 793b 6bd9 abbb
000000d0: 56ca e43b 623a b6bb 9eed 1dbc 78bd 1d3c
000000e0: 33d3 8dbb 2f3a 133c 44c6 00bc f45f 0e3c
000000f0: 5381 da3b ac9e 16bc 17f6 f13b 0ba9 1b3c
00000100: 1330 0c3c 4d1b 093c 96d8 1abc 92a3 7c3b
00000110: c86e e53b 55f7 233c 4cfd 293b 727d 143c
00000120: ba86 e539 7811 be3a 73ac e7bb a84b df3b
00000130: 07ee 063c 1262 a7b9 28f0 063c 485f da3b
00000140: 0d8d fa3b 7f39 f63b 3b0d 833b 3a6e 0abc
00000150: 07aa 81bb 6a68 babb 13bf 1e3c 61ed cd3b
00000160: 7e08 1abb 90df 7dbb 2eca f33a 5ad5 ee3a
00000170: 11e7 0a3c e3ed 083c 7105 b8b9 d6fa 7ebb
00000180: d11d a23b 1fc2 1b3b 43d9 44bb 3e75 133c
00000190: 9c46 de3b f0a2 6dba a263 673b 3fd0 0dbc
000001a0: 43d8 a13b 5c80 c73b ca47 393b 60eb 03bb
000001b0: 2342 57bb b79a 16bc ffe0 913b 6108 b33b
000001c0: 5494 b9bb 6b9d bbb9 0a8d c2b9 6741 9639
000001d0: 9e87 edba 11f3 e03b 78b9 163c c72b b3bb
000001e0: 6e92 f53b 56c2 0e3c 883e 89bb 2519 db3b
000001f0: bf90 22bb 6583 bdbb 3974 143c 4bb7 b9bb
-0.005948544 0.007283168 0.009035667 -0.004688032 0.005551796 -0.009355309 -0.0054480885 -0.003322104
0.0043868637 -0.0075453673 -0.0069725597 0.0036789787 -0.0052605756 -0.006536517 0.0032884397 -0.004116246
-0.0077709937 0.0008787641 -0.007373533 -2.8809294e-05 -0.00041069323 0.008746367 0.0003525158 -0.0034639933
0.006674496 -0.0038382267 -0.00047813583 0.008487697 -0.0088144345 0.0063227885 0.00449185 0.0032080272
0.0044526467 0.008574653 0.0015315666 0.002810945 0.0052144127 -0.0073060878 0.0095269615 0.0063563557
-0.0045191734 0.00978991 0.0028723425 0.008890993 0.007183393 -0.004084642 0.007692549 0.0030290636
-0.0009116729 0.0036035632 0.0038063345 -0.005244424 0.006982128 -0.005561159 -0.009639172 0.009627692
-0.0043281554 0.00898604 -0.00785977 0.008689869 0.0066682487 -0.009193104 0.0073840725 0.009500752
0.008556384 0.008368325 -0.009451052 0.0038549644 0.0070017315 0.010007699 0.002593833 0.009063112
0.00043778663 0.0014501056 -0.007070118 0.006814439 0.008235461 -0.0003192579 0.008235969 0.0066641904
0.007646209 0.0075141783 0.00399938 -0.008449132 -0.0039570364 -0.0056887167 0.00968911 0.0062844013
-0.0023503597 -0.003873799 0.0018599683 0.0018221543 0.008477942 0.008357498 -0.0003509927 -0.0038906834
0.004947402 0.0023766828 -0.0030036725 0.009000121 0.0067833196 -0.0009065112 0.0035307189 -0.008655607
0.0049391105 0.0060882997 0.002827155 -0.0020129308 -0.0032845817 -0.00919216 0.0044518705 0.0054636453
-0.005663434 -0.00035784705 -0.00037107646 0.00028658958 -0.0018122082 0.0068649133 0.009199493 -0.005467865
0.0074942624 0.0087133255 -0.0041883625 0.006686347 -0.0024805514 -0.0057834857 0.009060913 -0.005667602

convs.0.lin.weight f4 [128, 384]
00000000: 4d35 a5bd e73f aebd 82b7 c9bc 458b 473d
00000010: a073 d3bd e68c f83b de79 46bd bc9e 6c3d
00000020: 6a03 c53d c1b2 d23d 3821 923c 553d da3d
00000030: 6f48 e0bc 436d 1fbd 3e0a a6bd 2075 91bd
00000040: 501d d23d 61c1 16bd d338 073d 8b21 353d
00000050: ad5d 88bd 251b d73d 70d8 083d 8475 c5bd
00000060: 393e 61bd 0344 b6bc bbbf b33d 5194 95bd
00000070: 963b 043c ef50 6d3d 4b2f 143d 958e 4d3d
00000080: b5eb fdbc a951 a9bc 4162 893d 94eb 733d
00000090: 1b91 85bc 7ade 40bc a5e6 d5bd d094 e43d
000000a0: 28f6 b23d 6cd4 443c 1bc8 b5bc 2d56 a33d
000000b0: d2e1 383d b819 98bd 8e08 ce3d acdb d6bd
000000c0: 1ec9 0b3d 2bb1 8bbc f448 a63d 1f83 773d
000000d0: e8b6 b03c a670 94bc d43a 41bb 46ab ac3d
000000e0: 19c7 063d da08 2cbd 92c9 b43d dcf1 423d
000000f0: cc72 9fbd 99f5 31bd d83a 82bd 408e 98bd
00000100: f5dc c0bd 44ff 8c3c 7448 59bd 74d2 81bd
00000110: 08fa debc c499 81bd 0eb2 d73c 8cbe bfbd
00000120: ca20 96bd a72d 47bd fd42 b4bd 208a 203d
00000130: c0bd d3bd 10b9 96bd a219 ce3d 3100 9d3d
00000140: 2d2f a73d 6976 0b3d acc8 af3d 6c8e 5f3d
00000150: 52f1 c5bd 2956 2bbd 08f6 0dbd ebaf 53bd
00000160: 3f74 943d a04b 1b3d bb3e 113d 0111 5d3c
00000170: 4557 91bd e629 51bd 66bd 203c 939a 39bd
00000180: 7381 93bd d5d0 b03c 3890 883d 10a2 533d
00000190: 3ce6 56b9 4266 a13d a240 61bd c143 1b3d
000001a0: d2d5 cebd 5a18 713c 9034 773c e6e3 65bd
000001b0: 8647 5bbc aec7 c73d d548 bd3d b2f6 e63c
000001c0: 8b14 1abd 7f2f ccbd d802 993d e732 adbd
000001d0: 960e a83d 552c 61bd bd4c aa3d 26b3 d83d
000001e0: 6105 693d fc39 5c3d 0409 9b3c 9745 c43c
000001f0: dfa5 e8bb 16af 673c 1632 a0bd d4d6 e6bc
00000200: 39f1 b03d 8915 b2bd 58ad 8a3c f464 483d
00000210: bd13 e93d 3429 bf3d e6b5 403c 8f0e a13d
00000220: bafd 4cbd 9b82 173d 46c2 6cbd 6013 63bd
00000230: 14d2 2fbd 4611 293d 2e28 b3bd 89cb babd
00000240: 75a5 68bd dd6d e83d b128 89bd 4044 4ebd
00000250: 003e 183b 52ab b83b 9090 fdbc cefb 9abc
00000260: a44b 9abd 8ba1 b9bd 7970 3f3d fd6d 14bc
00000270: 572d 3dbd 20f1 bfbd 0621 03bd 3a2a 62bd
00000280: 70c5 573d 1d12 5c3c b690 a5bd 1df7 debd
00000290: 7c1d 483d 90b9 e4bd f2e1 8a3c bda0 af3d
000002a0: 64e0 013b da42 3e3d 373e 8d3d dbf3 c53d
000002b0: 3339 763b a633 fbbc 923c ab3d aa0d 993d
000002c0: 5a34 e4bc 07d7 3cbc 48d2 4d3d 8d41 583d
000002d0: a51b 04bc 3e9c 893d dc60 bebd 6ec4 073d
000002e0: ab39 ecbd 4476 993d b998 cc3d 95b5 9d3d
000002f0: 0ece 463d 8618 2abd 63d2 6c3d 41c1 bfbc
00000300: 0ebe 95bc d921 aa3d e91e bfbd 3e21 83bd
00000310: 9fdb 99bd d06e 2dbd 2867 673d 008f 003c
00000320: b35f c2bd 4c7c 8e3d dcca 14bb 9232 893d
00000330: e152 1bba 7def 11bd d6cd 963d a763 99bd
00000340: 4921 afbd 87c9 be3d 3839 9a3d 2409 f13c
00000350: daba b73d f0d0 313c 9440 c43d a195 e33c
00000360: 93d4 51bd ea71 77bc cbde 2e3c b80f 63bd
00000370: 8da9 f5bc 73c0 db3c fce6 97bd a719 bebc
00000380: 15b1 963d 9139 93bd 5bc6 6abc 7a37 79bc
00000390: 5512 d63c e0b3 743d 7af0 323b 96f5 c7bd
000003a0: 4a55 b73c af9f d6bd 31ce 8f3d d315 a2bd
000003b0: 1256 9cbc b3c7 b0bd 0a1c 993d cd41 233d
000003c0: 5f3b 2abd 6b99 bc3c 475c 0cbd 73e1 9abd
000003d0: 86bf afbd c998 873d d04f af3c 37b2 1abd
000003e0: 3474 383d ece0 b1bd 4e90 bbbd fd74 1f3c
000003f0: 89a0 d53c 5950 66bd cd78 603d 749f ed3c
-0.08066807 -0.08508282 -0.024623636 0.048716802 -0.10324788 0.007585156 -0.048456065 0.05776857
0.09619792 0.10288001 0.017838106 0.106562294 -0.027378289 -0.03892256 -0.08107422 -0.07102418
0.10259497 -0.036805514 0.033013176 0.044221442 -0.06658492 0.10503224 0.033409536 -0.09641555
-0.05499098 -0.022249227 0.08776804 -0.0730368 0.008070847 0.057938512 0.036177915 0.050184805
-0.030996183 -0.020668821 0.067081936 0.059550837 -0.016304543 -0.011771793 -0.104443826 0.11161196
0.08738357 0.012013536 -0.022190144 0.07975421 0.045137234 -0.074267805 0.100602254 -0.10491118
0.034127347 -0.017052254 0.081193835 0.06042778 0.021571591 -0.018120121 -0.0029484527 0.08431105
0.032904718 -0.04200063 0.08827509 0.047593936 -0.07785568 -0.04344711 -0.0635888 -0.07449007
-0.09417144 0.017211564 -0.053047612 -0.06338969 -0.027218834 -0.063281566 0.02633002 -0.09362516
-0.07330473 -0.04862752 -0.088018395 0.039194226 -0.10338926 -0.073595166 0.10063483 0.07666052
0.08163295 0.03404847 0.08583197 0.054579183 -0.09665169 -0.041830216 -0.03465846 -0.05168144
0.07248735 0.03791392 0.035460215 0.013492824 -0.070967235 -0.051065348 0.009810781 -0.04531343
-0.07202425 0.021583954 0.066681325 0.051668227 -0.000204944 0.07880832 -0.05499328 0.037906412
-0.10099377 0.0147152785 0.0150882155 -0.056125544 -0.013383752 0.09754883 0.09242407 0.028193805
-0.037617248 -0.09969997 0.074712455 -0.084569745 0.08205907 -0.05497392 0.08315418 0.10581045
0.056889895 0.053766236 0.018925197 0.023958964 -0.0070998515 0.014140865 -0.07822053 -0.02817861
0.086397596 -0.08695514 0.01692836 0.0489244 0.11380718 0.09334031 0.011762118 0.07864105
-0.05004666 0.03698979 -0.05780246 -0.0554384 -0.042924955 0.04127624 -0.08747898 -0.091208525
-0.056798417 0.1134908 -0.066972144 -0.050358057 0.0023230314 0.0056356573 -0.030952722 -0.018918898
-0.075339586 -0.09064015 0.04673812 -0.009059426 -0.046185818 -0.09372163 -0.032013915 -0.05521605
0.052678525 0.013432053 -0.08084242 -0.10886977 0.048856243 -0.11168206 0.016953442 0.0857558
0.0019817585 0.046450473 0.06896632 0.09665652 0.0037570714 -0.030664276 0.08361162 0.07473309
-0.027856994 -0.011525876 0.050249368 0.05279689 -0.008063232 0.06719254 -0.09295818 0.033146314
-0.11534437 0.074932605 0.09990067 0.0770065 0.048536353 -0.041527294 0.057817828 -0.02340758
-0.018279102 0.08307237 -0.093320675 -0.06402825 -0.075125925 -0.042342007 0.05649486 0.007846594
-0.094909094 0.069573015 -0.0022703921 0.06699099 -0.00059251307 -0.035628784 0.07363479 -0.0748971
-0.085512705 0.09315782 0.07530445 0.029423304 0.08971186 0.010853037 0.0958263 0.02778131
-0.051228117 -0.015102843 0.010673235 -0.055434912 -0.029988075 0.026825165 -0.07417104 -0.023205591
0.073579945 -0.07188714 -0.014329518 -0.015210981 0.026131788 0.059741855 0.002730398 -0.09763639
0.022379536 -0.10479676 0.0702175 -0.07914319 -0.01908401 -0.086318396 0.07476051 0.039857674
-0.041560527 0.023022374 -0.03426769 -0.07562532 -0.08581452 0.06620938 0.021400362 -0.037767615
0.045032695 -0.086854786 -0.09158383 0.009732482 0.026077526 -0.05622897 0.054802705 0.029006697

convs.1.bias f4 [128]
00000000: 9a25 89ba 71e7 02bc a3a2 ca3b 0fb9 c53b
00000010: 9788 f43b 6330 9c3b bb40 143c 9fca 843b
00000020: e551 db3b 85c4 153c c582 2fb9 b50b abbb
00000030: 5989 eb3b 7c2f 0ebc 5945 b7bb 720d a8bb
00000040: eee9 8abb b88c 223b 613e 08bc e2ea f5bb
00000050: d07b 683b 826f d33b dfb5 da3b 3a38 e5bb
00000060: 160e 013c e8d2 eabb 54c2 12bc 2041 be3b
00000070: 4edb f6bb 722d e83b abf7 97bb dd36 f33a
00000080: 7fdb 56ba a152 00bc 5d93 153c 3767 e9bb
00000090: 6974 a9bb 321f 13bb 291d b5bb 5854 d6bb
000000a0: 0960 e0bb d150 f13b dc10 d23b 9fc4 ff3b
000000b0: 051c c73b 61a2 7b3b 2ed2 623b 9564 133c
000000c0: ae88 ff3a 7d8e 36bb f595 1cbc 3149 0cbb
000000d0: 3ff6 f9bb 54fa de3b b67d e2bb 72e6 be3b
000000e0: 683b b5bb 6443 91bb 3c24 4bbb 103b 03bc
000000f0: 7f49 45b9 4e3f e93a 0859 da3b 6b68 f13b
00000100: c822 19bb 6d78 7b3b d1eb 3ebb b63e 083c
00000110: 4c9e 063c 50d0 74ba 539c ddbb 878b 113c
00000120: edf3 edbb 1b62 b93b 4655 dc3b fcc6 d63b
00000130: 12ac 063c d774 033c c218 98bb b520 dc3b
00000140: 6dac f4bb c537 edbb 327b 62bb 417f e43a
00000150: 155f b53b 48bd 203c 2bd8 033c da98 193c
00000160: 942e e73b 9508 f63b f35f e9bb 85c6 deba
00000170: fa6d 483b 40b9 e43b 63ff b9bb bcf3 f0bb
00000180: 949a f33b fd62 9d3b 3d69 f5ba 4d1a 83b9
00000190: 9f71 243c 1989 983b bec0 bb3b 93be af3b
000001a0: c76e 1cbb 6106 88bb 187a ea3b 8090 c1bb
000001b0: 76e1 b7bb 29e8 f7bb a2b4 de3b 291a b33b
000001c0: 29c9 203c 6b99 dcbb c2ea 343b e739 0e3b
000001d0: 5b11 f5bb f246 71ba 0ea8 153c f9de bcbb
000001e0: 33df d1bb 147a f23b 85f9 093a 3f2b 73bb
000001f0: c46c cbbb fa57 c13a 9c06 1f3a 7b81 0ebb
-0.0010463477 -0.00798975 0.0061839386 0.0060340236 0.007462572 0.0047665103 0.009048636 0.0040524746
0.006693112 0.009141092 -0.00016738016 -0.0052199014 0.007188004 -0.008678313 -0.0055929837 -0.005128556
-0.0042393124 0.0024803113 -0.008315654 -0.007504807 0.0035474189 0.0064525018 0.0066745128 -0.006995228
0.0078768935 -0.0071662553 -0.008957464 0.0058061033 -0.0075334674 0.0070854956 -0.0046376786 0.0018555779
-0.00081961596 -0.0078322 0.009129372 -0.0071229 -0.005171348 -0.0022449014 -0.005527158 -0.0065408163
-0.006847386 0.0073643704 0.006410701 0.0078054215 0.0060763382 0.0038396346 0.003461014 0.008996149
0.001949569 -0.0027855926 -0.009557237 -0.002140593 -0.007628232 0.006804744 -0.0069119586 0.005825811
-0.0055307634 -0.0044330824 -0.003099694 -0.008009687 -0.00018814763 0.0017795356 0.0066634454 0.007367184
-0.0023366679 0.003837134 -0.0029132257 0.008315733 0.008216452 -0.00093389023 -0.00676302 0.008883364
-0.0072617442 0.005657447 0.0067240326 0.0065544825 0.008219736 0.008023462 -0.0046416232 0.006717766
-0.007466844 -0.0072393143 -0.0034558293 0.0017432944 0.0055350163 0.009810753 0.008047144 0.009374822
0.007055113 0.0075083473 -0.0071220337 -0.0016996419 0.003058313 0.0069800913 -0.0056761964 -0.007353274
0.0074341986 0.00480306 -0.001872338 -0.00025005863 0.010036855 0.004655015 0.005729764 0.0053632944
-0.002386974 -0.004151151 0.007155668 -0.0059071183 -0.005611594 -0.0075655174 0.0067964355 0.005465765
0.009813585 -0.006732156 0.0027605747 0.0021701993 -0.0074788756 -0.0009203992 0.009134306 -0.005763885
-0.0064047812 0.0073998068 0.00052633166 -0.0037104634 -0.006208034 0.001475095 0.00060663535 -0.0021744657

convs.1.lin.weight f4 [128, 128]
00000000: a9e2 b1bd b1f9 1d3e d9f8 ca3b 5a6f 9b3d
00000010: 3c19 8f3d f0c7 ad3d a8f6 023d 184e e2bc
00000020: 221e eabd 51ff 873c 4c98 ca3d 3c65 e43d
00000030: 3d10 f3bd 565d 47bb 634e c3bd 1f3f a1bd
00000040: 0f39 343d 35b6 003c 3131 a63d 64b6 943d
00000050: fb1a 17be b80c fc3d 2a4c dcbd 1e46 00bd
00000060: c0dd 123e 322a 25bd 92ee ca3c f371 063e
00000070: d46e 393d 0619 cebd 38c9 013d 07b7 f83c
00000080: 45ef 4f3d f4d0 84bd f554 41bd 4c85 dbbd
00000090: 1ea4 113d 34ab d2bd 945e 40bd d7b6 fabd
000000a0: 676e 28bc e4bf a23d a464 bc3d f88c 24bd
000000b0: 1be3 c4bd b598 3f3b c393 f13d 2b57 123e
000000c0: 5bdb 78bd 072f 0f3e da09 773d c7a7 933b
000000d0: c5bc ed3d 3fb1 f53d 598f 07bd 0ec8 0fbe
000000e0: 72f7 9b3d 1c18 e6bd 969f fa3c 9999 fdbd
000000f0: 24f6 1f3d 98fc 7abc 9841 9dbd e20b a4bd
00000100: 58b0 f13c 451f 0abe 31a0 1b3d c2b8 9bbc
00000110: 1e02 27bd c0f7 003e c8e9 f1bd 6d20 04be
00000120: d0ab f8bc 1d46 5b3d 38e8 b8bd 3c9e 463d
00000130: 65a1 a2bd bca7 1dbe 57b2 20be 321c 883d
00000140: 5862 a43d 2c5f 2f3a d4e4 cebd 946d a23b
00000150: 9512 7b3c d0c2 1dbd 8e1c 8e3d 52d9 e6bd
00000160: aa9c eb3c ff2b 9bbd aaf6 5c3d da08 103e
00000170: 8b68 063e e142 7a3d 60ac 853c 983a f5ba
00000180: 2df7 c2bd a736 a2bd e230 963c a612 72bd
00000190: b743 883d 297b 073e 3b20 de3d 89d4 0dbe
000001a0: 1b2b 803d 5f98 943c 3869 37bd 9c30 db3d
000001b0: 57fd 4cbd b412 0ebd 0f6d 02be 4462 e1bc
000001c0: fb5a 36bc 235b 8ebd 6b43 883d f5ef 113e
000001d0: ac23 bf3d 545b 07bd 68d5 283d 67e5 02be
000001e0: 3113 d53d 7c48 d0bc 4efc e0bc c230 173e
000001f0: a320 f43d 735c 1dbe 0833 f2bd d22a d23c
00000200: 60ab e8bd 8ab2 413c 4551 113e 9ccb 1ebd
00000210: cb54 01be c293 fa3d 21de 70bd ae5f 76bd
00000220: 5d67 2b3d 718f aa3d 975f 77bd aa96 3c3d
00000230: dd17 1dbe e241 f6bd 25d4 ab3a 1266 d63d
00000240: d07c 24bd 1102 03bd 8753 ef3d 476f 0c3e
00000250: 47d2 073e ebca 923b ae79 b93d 8cf7 fa3d
00000260: e4b9 5c3d ec5a 41bd bac1 5abc 790e 03be
00000270: 7318 38bd 5093 21be 3ee3 c13d dbe6 a03d
00000280: 8dc6 063e a1c9 843d 0faf d23d 54ac 5a3d
00000290: c33d 8b3d 059e 1fbc e6d4 0fbd 809a 9d3d
000002a0: 0bbe 973d c4b9 fcbd 7af0 883d 26f2 e43d
000002b0: dd5a 8f3c f0d2 ea3d a3e5 abbd b578 003d
000002c0: cbd7 f2bd 77e6 1abe 6869 40bd ba3f 15be
000002d0: ace9 cdbc eaaa 0d3e 10c9 e63b b9ae bc3d
000002e0: e626 af3d 22c0 8ebc a85f 103e e073 0fbe
000002f0: 0d0a eebd 4316 913d b1b4 55bd c52d 3e3d
00000300: c8be 223c 8734 8c3b f6ff c2bd a49f 8c3d
00000310: bdb6 a53d 390c febd 1d35 29bc 0e20 18be
00000320: ee5d 9a3d 4cdc d2bc ce6d 943d dad9 143d
00000330: 7c0d 3abc d231 a1bd d40a 47bd 5bd5 06bd
00000340: 03f8 f43d 5c12 273c 73eb a73d 1479 a5bd
00000350: 68ed 19be 09ef 8ebd 35df b23d 24a6 afbd
00000360: 7778 62bd edaf a6bd 4e72 823d 90c2 233d
00000370: 550a a43d 7c3a fa3d 12e2 adbd f5ff 563c
00000380: c66b d7bd 8675 e0bd f3ec fd3d db05 78bd
00000390: 62c3 0f3e 3ed6 a4bc 0b8b d4bc 263f 5f3b
000003a0: ae0d cfbc 4ba1 a7bd 7033 02be a129 f83d
000003b0: c837 78bd d146 943d d7e8 903b b5e8 91bc
000003c0: e3b8 03be ae19 083e 60eb abbc cc8c 3cbb
000003d0: bcf0 86bd 5227 b63d 51da e7bd 8a81 1ebe
000003e0: 2854 043e acae 4abc c438 abbd b78e f4bd
000003f0: 993a 74bd acd3 3e3d bae1 d6bd ba83 683d
-0.0868581 0.15427281 0.0061942157 0.07589598 0.06987235 0.08485401 0.03197351 -0.027625129
-0.11431529 0.016601237 0.098923296 0.111521214 -0.118683316 -0.0030420623 -0.095364355 -0.078733675
0.043999728 0.007855942 0.08114851 0.07261351 -0.14756386 0.123071134 -0.10756715 -0.03131687
0.14342403 -0.040323444 0.024771962 0.13129406 0.04527171 -0.100633666 0.031686038 0.030360712
0.050765295 -0.06485167 -0.047200162 -0.10718784 0.035556905 -0.10286561 -0.046965197 -0.12241905
-0.010280228 0.079467565 0.09198883 -0.0401735 -0.096136294 0.0029235308 0.117957614 0.14291064
-0.06075607 0.13982783 0.06031213 0.0045060846 0.116082706 0.11996698 -0.03309569 -0.14041159
0.07615556 -0.11235067 0.030593675 -0.12382812 0.039053097 -0.015319012 -0.07678527 -0.08010079
0.029503033 -0.13488491 0.037994567 -0.019008998 -0.040773503 0.12594509 -0.11812168 -0.12902994
-0.030355364 0.053533662 -0.09028667 0.048490748 -0.0794094 -0.15396017 -0.15693031 0.06646003
0.0802657 0.0006689902 -0.10102239 0.0049569104 0.0153242545 -0.038515866 0.0693904 -0.11271919
0.028761227 -0.07576751 0.053946175 0.14065877 0.13125817 0.061098937 0.016317546 -0.0018709479
-0.09519801 -0.0792058 0.018333856 -0.059099816 0.066535406 0.13230576 0.10845991 -0.13850607
0.06258222 0.018139062 -0.04477808 0.10702631 -0.05004629 -0.034685805 -0.12736915 -0.027512677
-0.01113009 -0.06950977 0.06653484 0.14251693 0.09332976 -0.03304608 0.041219145 -0.12782823
0.10404051 -0.025425188 -0.027464058 0.14764693 0.119202875 -0.15367298 -0.1182614 0.025655184
-0.11360812 0.011822352 0.14191158 -0.038768396 -0.12630002 0.12235214 -0.05880559 -0.06014984
0.04184662 0.083281405 -0.060393896 0.046042122 -0.15341134 -0.12024285 0.0013109489 0.10468687
-0.040158093 -0.031984393 0.116858535 0.13714324 0.13263808 0.004479756 0.09056412 0.12254247
0.053888217 -0.04720585 -0.013351852 -0.1279849 -0.04494519 -0.15778852 0.09467171 0.07856532
0.13161679 0.0648377 0.10287296 0.053387 0.067988895 -0.009742265 -0.035115145 0.07695484
0.07409295 -0.123401195 0.06686492 0.11178999 0.017499382 0.114660144 -0.08393409 0.031365115
-0.118575655 -0.15126978 -0.046975523 -0.14575091 -0.025135837 0.1383473 0.0070430115 0.09213013
0.08552341 -0.0174256 0.1409899 -0.14009047 -0.11623011 0.07084324 -0.052174274 0.046430368
0.009933181 0.0042787227 -0.09521477 0.068663865 0.08091495 -0.12404675 -0.010327605 -0.14855978
0.07537447 -0.025739811 0.07247506 0.036340572 -0.011355754 -0.078708306 -0.04859431 -0.032918315
0.11961367 0.010197248 0.08199205 -0.080797344 -0.1503197 -0.06979186 0.087339796 -0.08576611
-0.055290665 -0.08139024 0.06369458 0.03998047 0.08009783 0.12218186 -0.08490385 0.013122548
-0.10518603 -0.10959916 0.1239871 -0.06055246 0.14039376 -0.02012169 -0.025945207 0.003406474
-0.025275078 -0.08185061 -0.12714934 0.12117315 -0.060600072 0.0724007 0.004422288 -0.017811159
-0.12863497 0.13291046 -0.020986259 -0.0028770445 -0.06588885 0.088942185 -0.113209374 -0.15479103
0.12922728 -0.012370747 -0.083604366 -0.11941283 -0.059626196 0.046588585 -0.10492273 0.05676625

lin.weight f4 [2, 128]
00000000: bc36 1c3d a118 a1bb c1ff 103d 5fb8 bfbd
00000010: 0d59 29bc d06c a9bb 642f 9e3c 9cea 86bd
00000020: 5cef 93bd 0bb0 83bd 243d 043d 9f50 b93c
00000030: 809c bbbc 1e1f 85bd bbd9 8c3d 635f 82bd
00000040: 5e6f 72bd 5f55 8b3d f6a8 cdbb 97c6 38bd
00000050: 0bab 343d e627 833d 695d 2cbd 0db6 5b3d
00000060: 3713 cebc c374 783d 634c b2bc 01db 883d
00000070: e78d 913d 254f 8e3d fdd8 9b3d 0cae ab3d
00000080: 2a46 2f3d 5a36 883d 05d8 b83d 8520 1ebd
00000090: 948c a83d 0272 8dbd e3eb 333a f116 943d
000000a0: 1f71 3d3d 2e2e a33d dd7d a3bd bac9 9cbd
000000b0: 5442 21bd 546e a1bd 1d79 803d 60e5 e2bb
000000c0: be65 903b 7fe5 253d 2f32 98bd 0877 393d
000000d0: 7b55 cbbc a279 413c 1a44 81bc 17be 26bb
000000e0: d416 413c 1eab 53bc 9e30 e5bc 82ab 37bc
000000f0: 5871 a5bd 1ee7 8a3c 8a22 c8bd 4255 dabc
00000100: ef44 fbbc 2645 a3bc cda6 a83d 78ec 6bbd
00000110: 28af c2bb 0cd0 8abd d5c8 0f3b 75a4 82bc
00000120: 84b7 1e3c 77dd c8bc f3ff a7bc b18a 3dbd
00000130: 6091 b3bd e688 3f3d 6ca3 9b3d 55fc 04bd
00000140: a175 483c 9fe9 8f3d 5763 b6bc 4518 2d3d
00000150: b34f a7bd fbed f5bc 657a 91bd 9ab1 8ebd
00000160: 392a 34bd b038 7abd 740c 803c ee35 93bd
00000170: 99d0 41bd 185c aebd ca2b 8a3d 2ab9 65bd
00000180: 967f 91bd 106e 9ebd 0316 b4bb 671f 863d
00000190: b1d0 863d 5c29 b9bc dad1 b2bd dc33 b9bb
000001a0: 348c f5bc 4a68 2a3d 9875 d53c 0b9b 003d
000001b0: 4f9d 9f3d 5d31 6fbd 3560 0abd 025c 97bd
000001c0: 3e62 b6bd 2c55 ed3c 3052 4ebd ee61 a53d
000001d0: 9f4c 883d 6dfd 5b3d a20b f23c 619d e7bc
000001e0: d363 8c3d 62cd 563c ab02 1b3d d4aa 823d
000001f0: b33b 6d3d c717 acbd 0474 6e3c 81e2 163d
00000200: b84b f53a 20e5 55bd 1b68 8d3d 8b6b c2bc
00000210: 10c1 1c3d 89e8 8e3d 8635 9f3d 8cc5 e9bc
00000220: acda 54bd 8611 163d 6393 1d3c d084 15bb
00000230: 503e 313d d03e a33d f18e 74bd de85 86bd
00000240: 9b45 79bd 85e2 ad3d 6a59 69bd 597b 97bd
00000250: 138a 50bd 8f9a a63d 98b1 613d 4ec2 523d
00000260: dba2 653d 0077 cd3b e113 893d 581d b83d
00000270: 2880 74bc b826 be3d 6ebc 81bd 26e5 9bbd
00000280: 1575 c2bc 13ca 39bd 3ef8 92bd 3384 0ebd
00000290: 2663 0cbd 9db5 ebbc 9974 1bbd afae 293d
000002a0: 3d8c df3c a7cf 283d 1624 2f3c 20d2 bf3d
000002b0: dc3e a2bc 72ad 943c ca37 9c3d a856 b63d
000002c0: 0fb3 b0bd a529 4dbd 0f2d 79bd 04c6 83bc
000002d0: d6e0 c1bc 7226 133d 57c2 96bc f7ab 753d
000002e0: 5a26 02bd edbf 8fbd 5aef 3ebc 2743 3bbd
000002f0: 82b9 83bd a8ed 4c3d ca21 473d 9eb3 c63d
00000300: e4b1 1dbd 8c73 713a 8632 36bb e670 b03d
00000310: a98a f03c 7a8d c2bc edd2 4dbc 461a 623d
00000320: d171 37bd 1856 46bb 268a 8e3d 1942 c93d
00000330: 91ca fa3c 9013 973d e9d4 1d3c c9ce b23d
00000340: 0fcf 83bd 9731 83bc 5290 42bd 61bb 8ebd
00000350: 022d aebc 3394 5e3d 9cfb c33d 0387 8e3b
00000360: ccaa 9fbc 3549 503b 107d 71bd d03f 113b
00000370: 6900 ef3c b2cc 823d 61f1 6e3d 7ed4 9abd
00000380: 1248 683d ffe5 583d f6c5 77bd 6394 adbc
00000390: e154 04bb d55a 803c 4836 ed3c da32 c13d
000003a0: 1107 a9bd 2870 82bd 68ff 3d3d c703 aa3c
000003b0: ae01 75bd 5e3e 71bd 5d1a c6bb d899 933d
000003c0: 88c5 6a3d ce83 3bbd 5dbf 0abd a629 b1bd
000003d0: fc2e 853d 96df a9bd b0c7 b8bd c556 96bd
000003e0: 008a 863c 6324 30bb 6424 80bd cfe3 183d
000003f0: b889 813c 395f 8dbd cc81 d1bc 6fb1 b2bd
0.038138136 -0.004916266 0.035400156 -0.09361338 -0.010336173 -0.005170442 0.019309707 -0.06587717
-0.072233886 -0.06430062 0.03228487 0.022621451 -0.022901773 -0.06500076 0.06877466 -0.0636585
-0.05918824 0.068033926 -0.006276245 -0.045111265 0.04410843 0.064040944 -0.04208127 0.053640414
-0.025155647 0.060658228 -0.02176494 0.06682397 0.07107144 0.06948689 0.076097466 0.08382806
0.042791523 0.06650992 0.090255775 -0.03860523 0.08229938 -0.06906511 0.0006863458 0.07230938
0.04625046 0.079677925 -0.07982991 -0.07655664 -0.039369896 -0.078823715 0.062731005 -0.0069243163
0.00440666 0.040502068 -0.07431447 0.045279533 -0.024821034 0.011808785 -0.015779544 -0.0025442892
0.011785228 -0.0129192155 -0.027977284 -0.011210324 -0.08078259 0.016955908 -0.09772213 -0.026651982
-0.030672519 -0.019930433 0.0823494 -0.05759856 -0.0059412904 -0.06777963 0.0021939774 -0.01594756
0.009687308 -0.024519665 -0.020507788 -0.046274845 -0.087679625 0.046761416 0.075995296 -0.032467205
0.012235076 0.070269816 -0.022264166 0.042259473 -0.08169498 -0.030020704 -0.07103423 -0.069674686
-0.04398558 -0.061089218 0.015630938 -0.07188021 -0.047318075 -0.08513659 0.06746633 -0.05608479
-0.07104413 -0.077358365 -0.005495788 0.06548958 0.065827735 -0.02260273 -0.08731432 -0.005651934
-0.02997408 0.041603364 0.02605705 0.03139786 0.07793676 -0.058396686 -0.033783156 -0.07390596
-0.08905457 0.028971277 -0.05037135 0.08075319 0.06655239 0.053708483 0.029546563 -0.028273286
0.068549775 0.0131104905 0.03784434 0.06380239 0.05791826 -0.08402973 0.0145540275 0.036837105
0.0018714583 -0.052220464 0.06904622 -0.023732921 0.038270056 0.06977946 0.07773881 -0.02853658
-0.051966354 0.036637805 0.009617659 -0.0022814758 0.043272316 0.07970965 -0.059706632 -0.06568502
-0.060857397 0.08490471 -0.056970038 -0.073965736 -0.050912928 0.081349485 0.055101007 0.051454835
0.056063514 0.0062702894 0.06693245 0.08989972 -0.014923133 0.09284729 -0.06334768 -0.07612066
-0.02373747 -0.04535873 -0.07176255 -0.034794044 -0.034274243 -0.028773123 -0.037952993 0.041426357
0.02728855 0.041213658 0.010689756 0.0936625 -0.019805364 0.018149111 0.076278284 0.08903247
-0.08627903 -0.050088543 -0.060833987 -0.016085632 -0.02366678 0.035925336 -0.018403215 0.05997845
-0.031774856 -0.07019029 -0.011653746 -0.04571834 -0.06431867 0.050031334 0.048616208 0.09702228
-0.038499728 0.0009210638 -0.002780111 0.08615284 0.029362993 -0.023749102 -0.012562496 0.055200838
-0.04478628 -0.0030263718 0.069599435 0.0982706 0.03061417 0.07376778 0.009633281 0.087308474
-0.06435978 -0.016014857 -0.047500916 -0.069693334 -0.021261696 0.054340553 0.09569475 0.0043495907
-0.019490622 0.0031781916 -0.05895716 0.002216328 0.029175 0.06386699 0.058335666 -0.07560061
0.056709357 0.052953716 -0.060491525 -0.02118892 -0.0020192193 0.015668312 0.028956547 0.09433527
-0.08253301 -0.06369048 0.046386153 0.020753754 -0.059816055 -0.05889737 -0.006045623 0.07207078
0.057317287 -0.045779996 -0.033873904 -0.08650522 0.06503102 -0.08294599 -0.09022462 -0.07340769
0.016423225 -0.0026877157 -0.06256941 0.03732663 0.01581274 -0.06902928 -0.025574587 -0.08725249

lin.bias f4 [2]
00000000: 4d1b 65bd 22e0 123d
-0.05593424 0.03585828
