Test_Result/GNN/gnn_model_paraphrase.pt (torch, 271189 bytes, 6 tensors)

convs.0.bias f4 [128]
0	0x3c223603	0.009900573
1	0x3baf0f94	0.005342433
2	0x3c263063	0.010143372
3	0x3bebaca3	0.0071922108
4	0xbc01e45d	-0.007927981
5	0x3c181885	0.00928319
6	0x3c06db63	0.008231017
7	0x3c253d64	0.010085437
8	0x3b30d276	0.0026980913
9	0x3c259944	0.010107342
10	0xbbc14a34	-0.0058987383
11	0xbc024df1	-0.007953153
12	0x3b1006dd	0.0021976747
13	0x3c23e6ca	0.010003755
14	0x3c1fc3ca	0.00975127
15	0xbbb8a660	-0.005635068
16	0x38833f1d	6.2583225e-05
17	0x3c23113e	0.009952841
18	0x3ab188cf	0.00135448
19	0x3ba9a9f5	0.005177731
20	0x3c24555e	0.010030119
21	0xbc09a01f	-0.008399992
22	0x3bdef8ad	0.006804547
23	0xbbf433ad	-0.0074524493
24	0x3c1d0c8a	0.009585509
25	0x3c1f7a9d	0.009733823
26	0x3c2306a1	0.009950311
27	0x3c25b81f	0.010114699
28	0x3bb77b8d	0.005599445
29	0x3c1f8b41	0.009737791
30	0xbba659f7	-0.0050766426
31	0x3c22e6e2	0.009942742
32	0x3c1ddf37	0.009635738
33	0x3b35ecae	0.002775948
34	0x3c25486c	0.0100880675
35	0x3c1f7c33	0.009734201
36	0x3bd1c1f9	0.006401297
37	0xbb93a922	-0.004506246
38	0xbc0c65ad	-0.008569163
39	0x3c0bc581	0.008530975
40	0xbc0babb6	-0.008524826
41	0xbbe4ba5b	-0.006980223
42	0xbbfd2526	-0.0077253757
43	0x3c23858f	0.009980573
44	0x3c255e57	0.010093293
45	0xbb804cef	-0.003915421
46	0x3c20b78d	0.009809387
47	0x3b25d644	0.0025304714
48	0xbc0a7b4b	-0.008452247
49	0xbbc46d0c	-0.0059944447
50	0x3c25f0dc	0.010128226
51	0x3c2471b1	0.010036872
52	0x3bd39fbe	0.0064582517
53	0x3c248808	0.010042198
54	0x3c20b382	0.009808423
55	0xbac849e7	-0.0015280814
56	0xbc02edce	-0.007991267
57	0x3b1c1aac	0.0023819609
58	0x3b4fd460	0.0031712279
59	0x3a583cde	0.0008248816
60	0xbc06ec1b	-0.008235003
61	0x3c23fa45	0.010008399
62	0x3c0df862	0.008665176
63	0x3c211f1d	0.009834078
64	0x3c1bc9be	0.009508548
65	0x3b6b7ef0	0.0035933815
66	0x3c13e1d8	0.009026013
67	0xb8df8dbc	-0.00010659869
68	0x3c24d767	0.010061122
69	0x3c24e6e0	0.0100648105
70	0x3c25606c	0.01009379
71	0x3c23d9db	0.010000671
72	0x3be1c948	0.0068904497
73	0x3c244928	0.010027207
74	0x3c21a389	0.00986565
75	0x3ae04cb1	0.00171127
76	0x3c25a3fc	0.010109898
77	0x3c249d20	0.010047227
78	0x3c22e8d6	0.009943208
79	0xbbf70482	-0.007538379
80	0x3c248d4a	0.010043452
81	0x3b95d247	0.004572186
82	0x3c1eb775	0.009687294
83	0x3c1bd719	0.0095117325
84	0xbbfa29f5	-0.007634396
85	0x3b565a91	0.003270779
86	0xbc12cc63	-0.008959862
87	0x3c23bdb9	0.009993964
88	0xbbf69265	-0.007524776
89	0xbba5adb6	-0.0050561083
90	0x3c24086b	0.010011773
91	0x39c68345	0.00037863306
92	0x3b4a3074	0.0030851634
93	0xbae2109a	-0.0017247379
94	0x3c261f5b	0.010139312
95	0xbbf0b0e3	-0.0073453053
96	0xbb4f4fe1	-0.0031633305
97	0x3c237e47	0.009978837
98	0xbc0864f4	-0.00832485
99	0x3c22832e	0.009918971
100	0xbac88d25	-0.0015300853
101	0x3beb2beb	0.0071768663
102	0xbbc2f07c	-0.005949078
103	0xbb916ec6	-0.004438254
104	0xbbd9eb10	-0.006650336
105	0x3b84d99e	0.0040542623
106	0x3b7c2a1f	0.0038477255
107	0xba85871b	-0.0010187359
108	0x399c7150	0.00029839063
109	0x3b01c059	0.0019798486
110	0x3c225a23	0.009909186
111	0x3c23f125	0.010006224
112	0x3c21b4fb	0.009869809
113	0xbbaeb37b	-0.0053314543
114	0xbac7a489	-0.001523153
115	0xbbcd4f76	-0.006265576
116	0xbbb9fa96	-0.005675624
117	0xba40353e	-0.00073321525
118	0xbb246f3b	-0.0025090713
119	0x3c241e11	0.010016934
120	0xbbe345db	-0.0069358177
121	0x3a800c67	0.0009769321
122	0x3b8896c1	0.004168362
123	0x3c25bceb	0.010115842
124	0x3b91043b	0.004425553
125	0x3c259013	0.010105151
126	0xb927d7ea	-0.00016006795
127	0x3c20dbe8	0.009818055

convs.0.lin.weight f4 [128, 384]
0	0xbdb028cb	-0.08601531
1	0xbd459498	-0.048237413
2	0xbda65b5c	-0.08122894
3	0x3ca0685d	0.019581014
4	0x3d9c46c5	0.07630686
5	0xbd2befda	-0.041976787
6	0xbd140330	-0.036135852
7	0xbd319868	-0.043358237
8	0xbd0c7529	-0.03429142
9	0x3dd4b743	0.10386517
10	0x3da830cf	0.082124345
11	0x3d2ae0e1	0.041718367
12	0x3d7853c3	0.060626756
13	0x3da2f709	0.079572745
14	0xbd8546f4	-0.06507674
15	0xbdcdb7be	-0.10044812
16	0x3b99ea45	0.0046971166
17	0xbd228a07	-0.039682414
18	0xbda7e1bd	-0.08197353
19	0xbdbb40dd	-0.09143231
20	0x3cdf26f5	0.027240256
21	0x3d357539	0.044301245
22	0x3dbd2896	0.09236257
23	0xbc989c71	-0.018629285
24	0xbd85ce57	-0.06533497
25	0xbd66d6f2	-0.05635733
26	0x39e0d71c	0.00042884878
27	0x3daeb55c	0.08530685
28	0x3cc6f813	0.024288213
29	0x3d08610c	0.033295676
30	0x3c81fbb2	0.015867088
31	0xbda1e381	-0.07904721
32	0xbbab9318	-0.005236041
33	0xbd34c5e0	-0.04413402
34	0xbd7ace00	-0.061231613
35	0x3910e691	0.00013818803
36	0xbd6cb4da	-0.05778966
37	0x3dbc6df9	0.09200663
38	0x3d01ff4d	0.031737614
39	0x3db0b667	0.086285405
40	0x3d07e699	0.0331789
41	0x3d1d927e	0.038469784
42	0x3d9f9345	0.07791761
43	0x3dac80c0	0.084229946
44	0x3d058902	0.032601364
45	0xbd59562e	-0.053060703
46	0xbd919ed4	-0.07110372
47	0xbd06e760	-0.0329355
48	0x3c91f401	0.017816545
49	0xbc5ebd83	-0.013594988
50	0xbd953ad4	-0.07286611
51	0xbd9de46b	-0.07709583
52	0x3de16075	0.11004726
53	0xbdd01d42	-0.101618305
54	0xbd2a1606	-0.04152491
55	0x3dcc9327	0.099890046
56	0xbd940784	-0.07227996
57	0xbc68cd36	-0.014209082
58	0x3d582717	0.052771654
59	0x3d60042e	0.054691486
60	0x3cc5adb0	0.024130672
61	0xbd753192	-0.059861727
62	0x3da10dc6	0.07863955
63	0x3dc22ae9	0.09480841
64	0x3d32e566	0.043675803
65	0x3d98e520	0.07465577
66	0xbd8c8571	-0.068613894
67	0x3ce08a7f	0.02740979
68	0x3dc2af9e	0.095061526
69	0x3cf3fc77	0.02978347
70	0x3d9d804b	0.076904856
71	0x3db6e877	0.08931058
72	0xbd06f5cc	-0.032949254
73	0x3da3beff	0.07995414
74	0x3c467fee	0.012115462
75	0xbc2d8f4d	-0.010593248
76	0x3c2b22cf	0.010445311
77	0x3c18abae	0.009318275
78	0xbc6e7865	-0.0145550715
79	0xbde47f6a	-0.11157115
80	0xbdb8ed77	-0.09029668
81	0xbd9ffe20	-0.07812142
82	0x3d8f249f	0.06989407
83	0x3d2f7361	0.042834643
84	0x3cc64d74	0.024206854
85	0x3be77949	0.007064019
86	0x3db9b889	0.090684004
87	0xbd61ad93	-0.055097174
88	0xbd42a7d4	-0.047523335
89	0x3d303968	0.043023497
90	0xbdae50b5	-0.085114874
91	0x3d246db5	0.040143687
92	0xbd8c12e1	-0.06839538
93	0x3ce87918	0.028378054
94	0xbcddf561	-0.027094545
95	0x3d84a822	0.06477381
96	0xbdc8e5fe	-0.098094925
97	0x3d9acfe7	0.075591855
98	0xbcf5af72	-0.029990885
99	0xbdc034ae	-0.09385048
100	0x3da41725	0.08012227
101	0x3d1a1862	0.03762091
102	0xbd9484af	-0.0725187
103	0xbc970df5	-0.018439272
104	0x3d7cd02f	0.061721977
105	0x3d192fb1	0.037398998
106	0x3d0f28ae	0.034950905
107	0x3d73967f	0.059469696
108	0xbd911fd7	-0.07086151
109	0xbd6bf4ac	-0.057606384
110	0x3dc523f6	0.09626
111	0x3dc216c5	0.09476999
112	0xbcdb805c	-0.026794605
113	0x3d5ab91f	0.0533992
114	0x3d8b3e36	0.06798975
115	0x3d9dc8be	0.07704304
116	0xbdb45c12	-0.088066235
117	0xbd5a5661	-0.053305034
118	0x3d889880	0.06669712
119	0xbde62155	-0.11236826
120	0xbda5e31b	-0.080999576
121	0x3d6fd551	0.058553044
122	0xbce43fca	-0.027862448
123	0x3d8cdc00	0.06877899
124	0xbcfd20af	-0.030899374
125	0xbd67ee34	-0.056623653
126	0x3d89f727	0.06736594
127	0x389bf066	7.435754e-05
128	0x3dc34bee	0.09535967
129	0x3daf722e	0.085667
130	0x3d6520de	0.055939548
131	0x3de98613	0.11402526
132	0xbdc3c713	-0.09559455
133	0xbded7de5	-0.11596278
134	0x3d8402b1	0.06445826
135	0x3d943abb	0.072377644
136	0xbd8c8685	-0.06861595
137	0xbda422a2	-0.08014418
138	0xbdba4b73	-0.09096422
139	0xbcfc407f	-0.030792473
140	0x3d0236ee	0.031790666
141	0xbc87cacc	-0.016576193
142	0x3d9765f2	0.073924914
143	0xbdbcd9be	-0.092212185
144	0x3d82c526	0.06385259
145	0xbd3cde90	-0.04611069
146	0xbd38c0d7	-0.04510578
147	0xbde2f00c	-0.110809416
148	0x3d943b61	0.07237888
149	0x3dd42053	0.10357728
150	0x3d3f2f34	0.046675876
151	0x3aa72bd5	0.0012754152
152	0xbc1a5a61	-0.009420962
153	0xbd9bd5c5	-0.07609133
154	0xba4ea92d	-0.00078834855
155	0xbc92cd5b	-0.017920187
156	0xbcac139d	-0.021005446
157	0x3d9653d9	0.073402114
158	0xbc6c8df2	-0.014438139
159	0x3cae9d7e	0.021315333
160	0x3de89197	0.11355894
161	0x3dcff980	0.1015501
162	0xbd62181f	-0.055198785
163	0x3de3c12e	0.111208305
164	0x3de70af1	0.11281384
165	0x3ca156fc	0.019694798
166	0xbd119d9a	-0.03555069
167	0x3d21cc6b	0.03950159
168	0x3da02667	0.07819825
169	0x3ccf44ae	0.025301304
170	0x3da372da	0.079808906
171	0xbaab72c7	-0.0013080471
172	0xbd867e83	-0.06567099
173	0xbd48b6a8	-0.04900232
174	0xbda6efea	-0.08151229
175	0x3ccd2188	0.025040403
176	0x3d68ad29	0.056805763
177	0x3d98b342	0.07456066
178	0x3d59d92e	0.053185634
179	0xbd8cfe43	-0.06884434
180	0xbdb01e6c	-0.085995525
181	0x3dc05fb8	0.09393257
182	0xbd19eb6a	-0.037578024
183	0x3cb4e352	0.022081051
184	0xbdb35875	-0.08757106
185	0xbdd7887e	-0.10524081
186	0xbd1fc08b	-0.039001983
187	0x3c91713d	0.017754192
188	0x3d14f1de	0.036363475
189	0xbcfa6002	-0.030563358
190	0xbd00c1ba	-0.031434752
191	0xbdc614c6	-0.09671931
192	0xbc4846d1	-0.012223915
193	0xbda0c9de	-0.07851003
194	0x3b9bc40f	0.0047535966
195	0xbda2e631	-0.07954062
196	0xbd519c8c	-0.051174685
197	0x3cc8f06e	0.024528708
198	0xbaedf4c5	-0.0018154612
199	0x3ca0a87a	0.019611586
200	0x3c42ac2f	0.011881872
201	0x3be295b8	0.0069148205
202	0xbd85361e	-0.06504463
203	0xbdd3bf2b	-0.10339197
204	0xbdaa6347	-0.08319717
205	0x3ca8aa10	0.020588905
206	0x3de4dcf9	0.1117496
207	0x3d8783eb	0.06616958
208	0x3b150991	0.0022741298
209	0xbd6a1c8f	-0.05715614
210	0x3d90d22b	0.07071336
211	0x3d6ec940	0.058297396
212	0x3c550b55	0.01300319
213	0x3dcec84b	0.100967966
214	0xbdcbbd03	-0.099481605
215	0x3c92916f	0.017891614
216	0x3d8cb849	0.06871087
217	0xbda60f5c	-0.08108398
218	0xbdc4cb82	-0.096091285
219	0xbd66f0da	-0.056382038
220	0x3dc40608	0.09571463
221	0x3d1d350b	0.038380664
222	0x3dd0a49e	0.10187648
223	0x3da3e9b5	0.080035605
224	0xbdf2165e	-0.118206725
225	0xbd16dc2d	-0.03683107
226	0xbdcaa3a1	-0.09894491
227	0x3dc5bc87	0.09655099
228	0xbc6238a3	-0.013807449
229	0xbd6cb079	-0.057785485
230	0xbd99365b	-0.074810706
231	0xbda0e08d	-0.0785533
232	0x3d5c489e	0.05378019
233	0x3da492cf	0.08035814
234	0x3cdc3a51	0.026883276
235	0xbd05d38e	-0.032672457
236	0x3dbda96a	0.09260829
237	0x3d845eb7	0.06463378
238	0x3de4254b	0.111399256
239	0xbc9324a2	-0.017961804
240	0x3ce05e7a	0.0273888
241	0x3d045213	0.032304835
242	0x3d058c3a	0.032604434
243	0x3b5d3dd8	0.0033758786
244	0x3bf9eb4e	0.0076269275
245	0x3cc190a7	0.023628546
246	0x3d2d2440	0.0422709
247	0x3c353e23	0.011062178
248	0x3d630877	0.055427995
249	0xbb3aa4a7	-0.0028479488
250	0x3c347bf1	0.011015878
251	0xbc13179f	-0.0089778
252	0x3d24f11e	0.04026901
253	0x3c28b02e	0.010295911
254	0xbcb3ae75	-0.021933774
255	0x3d9212e1	0.07132507

convs.1.bias f4 [128]
0	0xbc0d52b2	-0.008625673
1	0xbbe11257	-0.0068686414
2	0xbc001f91	-0.007820026
3	0xbc0d3f96	-0.008621117
4	0xbc10a319	-0.008827948
5	0x3bc7ef76	0.006101544
6	0x3c26083e	0.010133801
7	0xbc08d514	-0.008351583
8	0x3c1f19ab	0.00971071
9	0xbb62238b	-0.0034506049
10	0xbc0b2602	-0.0084929485
11	0x3c1f9646	0.009740418
12	0xbb63a083	-0.0034733124
13	0x3c250d9d	0.010074046
14	0x3c24c3c3	0.010056439
15	0xbbda459e	-0.006661131
16	0xbbedc51e	-0.007256164
17	0xbc19e1cf	-0.009392216
18	0x3c1da9d9	0.009623014
19	0x3c246e89	0.010036119
20	0x3b50d269	0.0031863695
21	0xbbf857d2	-0.0075788284
22	0x3c22265c	0.009896841
23	0x3c25498f	0.0100883385
24	0x3c21ef47	0.009883708
25	0x3c230141	0.009949029
26	0xbc0f6c22	-0.008753808
27	0x3bab0472	0.005219036
28	0x3be6b373	0.007040435
29	0xbc125a8d	-0.008932722
30	0x3c241023	0.010013613
31	0xbba4f18a	-0.0050336765
32	0xbc0b49bd	-0.008501467
33	0xbbfedafe	-0.0077775707
34	0x3c25c22f	0.010117098
35	0x3c230860	0.009950727
36	0x3b875995	0.004130552
37	0x3c252d6d	0.010081631
38	0x3c1a3636	0.009412339
39	0x3c22cc28	0.00993637
40	0x3c236480	0.009972692
41	0x3c1c70e1	0.009548397
42	0x3c2066a8	0.0097901
43	0x3b449e7b	0.0030001688
44	0x3c222b01	0.009897948
45	0xbbf76364	-0.00754969
46	0x3c224683	0.009904507
47	0xbbe4b694	-0.006979773
48	0x3c25eb9e	0.010126976
49	0xbbfdd6db	-0.00774656
50	0x3c2556ea	0.010091523
51	0x3b6cc377	0.0036127248
52	0xbc001f7b	-0.0078200055
53	0xbb5c33a0	-0.0033600107
54	0xbc04f35b	-0.008114661
55	0xbba624fa	-0.005070326
56	0xbb145ec4	-0.0022639493
57	0x3ac8ca6f	0.0015319119
58	0xbbda7a0c	-0.006667381
59	0x3c15a021	0.009132416
60	0x3c24dc9f	0.010062366
61	0x3c25d962	0.010122629
62	0xbb4df834	-0.0031428458
63	0x3c248b87	0.010043032
64	0xbc1276f6	-0.008939495
65	0xbc100c1c	-0.00879195
66	0x3c24aa6e	0.010050399
67	0x3c233648	0.009961672
68	0x3c257a99	0.01010003
69	0x3c245715	0.010030528
70	0x3c2384a4	0.009980354
71	0x3c2366ba	0.009973222
72	0x3c254e6f	0.010089501
73	0x3c24cde1	0.010058851
74	0x3c235325	0.009968554
75	0x3be6ae13	0.007039794
76	0x3c24ca4b	0.010057996
77	0x3c238e4a	0.009982655
78	0xbae53336	-0.0017486576
79	0x3c22b99f	0.009931951
80	0xbc051726	-0.008123195
81	0x3a92a9e3	0.0011189546
82	0x3c25391f	0.0100844195
83	0xbb74ba89	-0.003734263
84	0xbb452fca	-0.00300883
85	0xbb2a3986	-0.0025974228
86	0x3b3d7731	0.0028910155
87	0xbc0093ac	-0.007847708
88	0x3c245adb	0.010031427
89	0x3c24e48c	0.010064255
90	0x3ac55cc4	0.0015057554
91	0x3c12b4c1	0.008954228
92	0x3a9639cc	0.0011461317
93	0x3c24f667	0.0100685125
94	0x3c251ff6	0.010078421
95	0x3c227302	0.009915115
96	0x3b8f7079	0.0043774215
97	0x3993869c	0.00028138317
98	0x3bd989d8	0.0066387467
99	0xbbd6bf18	-0.006553542
100	0x3c2146dd	0.009843555
101	0x3c2581ad	0.010101718
102	0xbb83b5f8	-0.004019495
103	0xbbfc4aa3	-0.007699327
104	0x3c25300c	0.010082256
105	0xbc09fbeb	-0.008421878
106	0xbae3b87e	-0.0017373709
107	0x3c247e57	0.010039887
108	0xbc1f6b5c	-0.009730186
109	0xbbf4aae2	-0.00746666
110	0x3bd4fc45	0.0064997994
111	0x3c2365db	0.009973015
112	0x3c239b55	0.0099857645
113	0xbbedc616	-0.0072562797
114	0xbc06e6f5	-0.008233775
115	0xb9d9e5d9	-0.00041560715
116	0x3c25a443	0.010109964
117	0xbbe34ed3	-0.006936887
118	0x3c2446a2	0.010026606
119	0x3c24608e	0.010032786
120	0xbbc46d27	-0.0059944573
121	0x3c1d21c1	0.009590567
122	0x3c21bfed	0.009872419
123	0x3be50539	0.006989148
124	0x3c25ada2	0.010112198
125	0x3c1f794a	0.009733507
126	0x3b82a92c	0.003987452
127	0x3bb76cc9	0.005597685

convs.1.lin.weight f4 [128, 128]
0	0x3c9cbdff	0.019133566
1	0xbc9154e9	-0.017740684
2	0x3d271d88	0.040799648
3	0xbd7968cc	-0.060890958
4	0xbe020b66	-0.1269966
5	0x3c9539e0	0.018216074
6	0x3da1abdb	0.07894107
7	0x3d640528	0.05566898
8	0xbe11560a	-0.14192978
9	0xbdbf5c7f	-0.09343814
10	0x3dff1603	0.1245537
11	0x3aa3b3c7	0.0012489491
12	0x3d89fee7	0.06738072
13	0x3e1027a9	0.14077629
14	0x3e06e1a7	0.13172017
15	0x3d02c263	0.031923663
16	0xbda231e9	-0.07919676
17	0x3d88954c	0.06669101
18	0x3d9c0fa3	0.0762017
19	0x3d7dde0c	0.06197934
20	0xbe24ad2a	-0.16081682
21	0x3d273fb9	0.040832255
22	0x3cab413e	0.020905133
23	0x3dee4528	0.11634284
24	0x3d4aae4b	0.049482625
25	0xbd9c6fc2	-0.076385036
26	0xbb5b43bb	-0.0033457119
27	0xbd473048	-0.04863003
28	0xbe1c2fcf	-0.15252613
29	0xbdc9b773	-0.09849443
30	0x3d8fd1f1	0.07022465
31	0xbe03bca0	-0.12864923
32	0xbc3179c4	-0.010832254
33	0xbbb2ebf1	-0.0054602553
34	0xbd7e7c03	-0.062129986
35	0xbdf5a307	-0.119939856
36	0x3dddfeea	0.108396366
37	0xbe128d48	-0.14311707
38	0xbd56b88b	-0.052422088
39	0xbd31a5d8	-0.04337105
40	0x3e0f9da2	0.14024976
41	0x3dbf81c5	0.093509234
42	0x3c817097	0.015800757
43	0x3d63ffab	0.055663746
44	0xbda9c0ec	-0.0828875
45	0x3e0bc372	0.13648775
46	0xbda62e0c	-0.081142515
47	0xbe19bb9e	-0.15012977
48	0x3df4c87f	0.11952304
49	0xbb8674f6	-0.0041032983
50	0x3e085e6f	0.13317274
51	0x3db2964e	0.087200746
52	0xbdbbd301	-0.09171105
53	0xbe199913	-0.149998
54	0xbe21dabf	-0.15806101
55	0xbcb1e92a	-0.021717627
56	0x3c37d7b8	0.011220865
57	0xbdcbcd34	-0.09951249
58	0xbe164c23	-0.14677481
59	0x3dca4d64	0.09878042
60	0xbdd09b53	-0.10185876
61	0x3dfd203c	0.12359664
62	0xbb4ff442	-0.0031731282
63	0xbdf1f122	-0.118135706
64	0x3debc66c	0.11512455
65	0xbd5a613a	-0.05331538
66	0xbdcfbb95	-0.101432
67	0xbe177968	-0.14792407
68	0xbd41300a	-0.047164954
69	0xbd9a016b	-0.07519802
70	0x3de11d85	0.109919585
71	0xbda7b36d	-0.081885196
72	0xbdd3512b	-0.10318216
73	0x3ddee890	0.108842015
74	0x3e03f6b9	0.12887086
75	0x3dee659f	0.116404764
76	0xbdad2c8b	-0.084557615
77	0x3c124d22	0.008929523
78	0xbe1cff17	-0.15331684
79	0x3c033124	0.0080073215
80	0xbcc8fefb	-0.024535647
81	0x3d98d2c1	0.07462073
82	0x39f14dd2	0.00046025083
83	0xbdf2e125	-0.11859349
84	0xbd8294d5	-0.06376044
85	0xbd148a34	-0.036264613
86	0xbcd1ec26	-0.0256253
87	0xbde022b6	-0.109441206
88	0x3cd9238d	0.02650621
89	0x3d9a890e	0.07545672
90	0xbddbeda5	-0.107386865
91	0x3cb672d7	0.022271557
92	0x3dca7cae	0.09887062
93	0x3c5f7527	0.013638771
94	0xbca465d5	-0.020068089
95	0xbceed61b	-0.029154828
96	0xbb83b616	-0.004019509
97	0xbe234b83	-0.15946774
98	0x3d026e70	0.031843603
99	0xbcd8474a	-0.02640118
100	0x3d2af837	0.041740622
101	0xbd10d28d	-0.035357047
102	0xbbb3706e	-0.005476049
103	0x3e06f228	0.13178313
104	0xbd6dce5b	-0.058058124
105	0x3dd91458	0.105995834
106	0xbe0e7b6a	-0.13914266
107	0xbddc0b35	-0.10744325
108	0x3dd27c76	0.10277645
109	0xbc85b3d0	-0.016321093
110	0xbd90c79e	-0.07069324
111	0x3d8aa5f1	0.06769932
112	0xbddb7820	-0.107162714
113	0xbd3764bc	-0.044773802
114	0x3dd32906	0.10310559
115	0xbd852903	-0.06501963
116	0x3d3f6042	0.046722658
117	0xbd46fe6b	-0.048582476
118	0xbd03c492	-0.032169886
119	0xbe06bf2c	-0.13158864
120	0xbce23940	-0.02761519
121	0xbd63b4cc	-0.055592343
122	0xbded320f	-0.115818135
123	0x3d45ec53	0.04832108
124	0xbd6ba800	-0.057533264
125	0xbc736fcf	-0.0148582
126	0x3d2ac44e	0.041691117
127	0x3da16d36	0.078821585
128	0x3ddff7f5	0.10935966
129	0xbda89177	-0.0823087
130	0xbdf3300b	-0.11874398
131	0x3de2e2b6	0.11078398
132	0x3da00092	0.07812609
133	0xbd1789d2	-0.03699667
134	0x3d2b222f	0.041780647
135	0xbb3aebe2	-0.0028521945
136	0xbdd58fe9	-0.10427839
137	0xbe186ec2	-0.14886001
138	0x3c8474ff	0.01616907
139	0x3e0ed59e	0.13948676
140	0xbd021d24	-0.031766072
141	0x3da33074	0.07968226
142	0xbde258c2	-0.110520855
143	0x3c4c9de8	0.01248882
144	0xbe0e026e	-0.13868114
145	0xbde682fe	-0.112554535
146	0xbd68dfd3	-0.05685408
147	0x3d9c25e5	0.07624415
148	0x3d53358d	0.051564742
149	0x3d4a82d9	0.049441192
150	0x3debf1fb	0.115207635
151	0xbd2bf6bb	-0.041983347
152	0xbd38c2d1	-0.045107666
153	0xbdad1e1f	-0.08453011
154	0xbd679e11	-0.05654723
155	0x3d143c5e	0.036190383
156	0x3dc98890	0.098405
157	0x3dba0f09	0.09084899
158	0x3d92edc3	0.07174256
159	0xbe10276c	-0.14077538
160	0x3daf2ac6	0.0855308
161	0xbc692082	-0.014228942
162	0xbd403e73	-0.046934556
163	0xbd0eb4f6	-0.034840547
164	0x3c848d64	0.016180702
165	0x3cfd92e8	0.03095384
166	0xbdac077d	-0.08399866
167	0xbe15aa06	-0.1461564
168	0xbde661e5	-0.11249141
169	0xbdf544aa	-0.11975987
170	0xbc8ebf68	-0.017425254
171	0x3d903156	0.0704066
172	0xbda3b578	-0.07993597
173	0xbd00f79f	-0.03148615
174	0x3e1d5134	0.15363008
175	0x39ec8177	0.00045109887
176	0x3e086b5e	0.13322207
177	0x3d9402a4	0.07227066
178	0xbdcbdd77	-0.099543504
179	0x3d03b1d3	0.03215201
180	0x3de0d27d	0.109776475
181	0x3db2abb1	0.08724154
182	0xb90d51a5	-0.00013477223
183	0x3c522156	0.012825331
184	0x3d7b7695	0.061392386
185	0x3dfea243	0.12433293
186	0xbc36f500	-0.011166811
187	0x3c598483	0.013276222
188	0x3e003790	0.12521195
189	0x3d8955c4	0.067058116
190	0xbdbe9715	-0.0930616
191	0x3e23f457	0.16011177
192	0xbc19e9cb	-0.0093941195
193	0xbddd8e2b	-0.10818132
194	0x3d90defc	0.07073781
195	0x3de3c98a	0.11122425
196	0xba32bed3	-0.0006818596
197	0xbe148467	-0.14503632
198	0xbdbe5244	-0.09293035
199	0x3de8a8a6	0.11360292
200	0xbd78e083	-0.060760986
201	0xbda16476	-0.078804895
202	0xbdb0c1ae	-0.086306915
203	0x3de23e55	0.11047045
204	0x3d106fac	0.03526275
205	0x3da10063	0.07861402
206	0xbe0ef3c2	-0.13960174
207	0x3d557b29	0.052119408
208	0x3ca7e6e5	0.020495841
209	0x3e0e28c0	0.13882732
210	0x3da3fffb	0.08007809
211	0x3e11de8a	0.14245048
212	0xbd1edc75	-0.038784463
213	0xbd198319	-0.03747854
214	0xbcfaa880	-0.030597925
215	0x3de2665f	0.11054682
216	0x3de9728c	0.11398801
217	0xbdd85658	-0.10563344
218	0xbd357b3d	-0.044306982
219	0xbde2d8c6	-0.110765025
220	0xbc48a37f	-0.012246012
221	0xbdb82237	-0.08990901
222	0xbc5576f5	-0.01302885
223	0x3ce5ae50	0.02803722
224	0xbdd55ce3	-0.10418107
225	0x3a93b885	0.0011270201
226	0x3cac78c6	0.021053683
227	0x3d94b604	0.07261279
228	0x3b2a9d87	0.0026033835
229	0x3dcc85bf	0.099864475
230	0x3e05d22c	0.13068455
231	0x3db31d8b	0.08745869
232	0x3df673d1	0.12033809
233	0xbdcc227d	-0.099675156
234	0x3d460fd1	0.048354927
235	0xbd835f14	-0.06414619
236	0xb9965406	-0.00028672832
237	0xbe05a476	-0.13051018
238	0xbe044dbc	-0.12920278
239	0xbddf9984	-0.10917953
240	0xbc181e1f	-0.009284525
241	0x3e0819f1	0.13291146
242	0x3e020c96	0.12700114
243	0xbdad8ba1	-0.08473898
244	0xba3b23fb	-0.00071388454
245	0xbe173d6d	-0.14769526
246	0xbc1e196d	-0.009649617
247	0xbd06114e	-0.032731347
248	0x3c4522e5	0.012032245
249	0xbe0fc112	-0.14038494
250	0xbdb9680c	-0.090530485
251	0x3c69b61e	0.0142646115
252	0x3d0d590d	0.034508754
253	0xbdc37af2	-0.09544934
254	0x3db4fca5	0.088372506
255	0x3e057862	0.13034204

lin.weight f4 [10, 128]
0	0x3d36a828	0.04459396
1	0x3d99e32f	0.07514035
2	0x3d8a441f	0.06751274
3	0xbd9a43ab	-0.07532438
4	0xbcf0bc5b	-0.02938669
5	0x3d46520e	0.048418097
6	0x3cdb1132	0.026741598
7	0x3ce6bdd4	0.028166689
8	0x3da49cd6	0.080377266
9	0x3d0d937c	0.03456448
10	0xbd8e7f3a	-0.0695786
11	0x3d96ffb2	0.07372989
12	0x3d9ad5dc	0.07560322
13	0xbdc1b208	-0.09457785
14	0x3d99c350	0.07507956
15	0x3d827557	0.06370037
16	0x3d5f35aa	0.054494537
17	0xbcd2eb39	-0.025746929
18	0xbcfadc41	-0.030622603
19	0x3dc1c4bd	0.09461353
20	0xbc998fdb	-0.018745353
21	0x3a8f6092	0.0010938814
22	0xbc673224	-0.014111076
23	0x3d655e0d	0.055997897
24	0xbbda6625	-0.0066650086
25	0x3c396147	0.011314697
26	0xbd4a6783	-0.049415123
27	0xbd019fa1	-0.031646375
28	0xbdc9148f	-0.09818374
29	0xbd1b0325	-0.037844796
30	0xbd3ff979	-0.046868775
31	0x3c4ecc08	0.012621887
32	0x3c59c004	0.013290409
33	0xbd9e9b91	-0.07744516
34	0x3c771600	0.015080929
35	0x3c6c165b	0.014409627
36	0x3d6f547e	0.058430187
37	0x3d052116	0.032502256
38	0x3d641f7c	0.05569409
39	0xbd0c3d33	-0.03423805
40	0xbd42b4d0	-0.047535717
41	0xbd11d776	-0.03560587
42	0x3d3c2cd4	0.04594119
43	0x3d9234fa	0.07139011
44	0xbc165883	-0.009176376
45	0x3d576751	0.052588765
46	0xbda030be	-0.07821797
47	0xbd972091	-0.073792584
48	0x3ce2d760	0.02769059
49	0xbd9f20a6	-0.07769899
50	0x3d69e11c	0.057099447
51	0x3db133ca	0.08652456
52	0xbd37adc1	-0.04484344
53	0x3cfbede1	0.030753078
54	0xba34a681	-0.0006891266
55	0xbda26f7d	-0.07931421
56	0x3dc8b055	0.09799258
57	0xbc557cc0	-0.013030231
58	0xbd8d948c	-0.06913099
59	0x3dbc09de	0.091815695
60	0x3c5ec1e6	0.013596034
61	0x3c0f245d	0.008736697
62	0x3c69dcbb	0.014273818
63	0xbd576f6d	-0.0525965
64	0xbd43db46	-0.047816537
65	0x3d48a3ec	0.048984453
66	0x3d29d1e6	0.04145994
67	0x3d07edbd	0.03318571
68	0x3baa6a84	0.005200686
69	0x3d50f923	0.051018845
70	0x3d89302c	0.06698641
71	0xbd8cd2ab	-0.06876119
72	0x3cb4e4fb	0.022081843
73	0x3d95059b	0.0727646
74	0xbd8b4ad9	-0.068013854
75	0x3cc004c4	0.023439772
76	0x3caacf77	0.02085088
77	0x3db88167	0.090090565
78	0xbc80a915	-0.015705625
79	0xbd60f6a4	-0.054922715
80	0x3b7fba1a	0.0039020837
81	0xbcaa0936	-0.020756345
82	0x3c11435f	0.00886616
83	0x3dc86c28	0.09786254
84	0x3dbe90dc	0.093049735
85	0xbc0b1150	-0.008488014
86	0x3d9ac2e5	0.075567044
87	0x3d2d63d0	0.042331517
88	0x3c5ecb75	0.013598313
89	0x3d421ec5	0.047392625
90	0xbd59aec6	-0.053145193
91	0x3d5b1076	0.053482495
92	0xbd981108	-0.074251235
93	0xbd90ffff	-0.070800774
94	0x3c2d46f2	0.010575997
95	0xbd4a7e55	-0.049436886
96	0x3ca64a31	0.02029905
97	0xbd1e76ed	-0.038687635
98	0x3d9c3ead	0.07629142
99	0xbd9bf2fa	-0.076147035
100	0xbd8a2bcf	-0.06746637
101	0x3c450cde	0.012026994
102	0xbd31df0e	-0.043425612
103	0xbb3e6dcd	-0.0029057146
104	0x3d0f4ca3	0.034985196
105	0xbcb4855d	-0.022036249
106	0xbd858ef7	-0.06521409
107	0x3d9d11b5	0.07669393
108	0xbd61b7a6	-0.05510678
109	0xbb88c5d8	-0.0041739754
110	0x3db3af2c	0.08773646
111	0x3d157dab	0.0364968
112	0xbd39df63	-0.045379054
113	0x3d581bc0	0.05276084
114	0x3c960fea	0.018318135
115	0xbd742486	-0.059605144
116	0x3c2fcfeb	0.010730724
117	0x3d452f9e	0.048141114
118	0x3d564822	0.052314885
119	0x3dc39916	0.09550683
120	0x3d476884	0.04868366
121	0xbdc09a19	-0.09404392
122	0xbbf605a2	-0.0075079957
123	0xbdb6682a	-0.089065865
124	0x3dc5eecf	0.0966469
125	0x3cd59288	0.026070848
126	0x3d5468af	0.051857647
127	0xbd2b3053	-0.041794132
128	0xbcc1f94c	-0.023678444
129	0xbd3fd1b2	-0.04683084
130	0xbd892d49	-0.066980906
131	0x3d80c20a	0.0628701
132	0xbd7aa2ff	-0.0611906
133	0x3d544b65	0.051829714
134	0x3d364c57	0.044506397
135	0x3c27b3c8	0.010235734
136	0x3dc0b15b	0.09408828
137	0x3c768c1c	0.015048053
138	0xbd85fa1c	-0.06541845
139	0x3d875477	0.06607907
140	0x3cc9d4e6	0.02463765
141	0xbbe55169	-0.0069982302
142	0xbd51d2f6	-0.05122658
143	0xbd5e1f2a	-0.05422894
144	0x3cb03696	0.021510404
145	0xbd41e9d7	-0.047342148
146	0xbd879428	-0.066200554
147	0xbd400143	-0.046876203
148	0x3d8691ec	0.06570801
149	0xbd78403c	-0.060608134
150	0xbcc7a8a0	-0.024372399
151	0xbd209a67	-0.03920975
152	0x3d9daac4	0.076985866
153	0x3cec9b3c	0.028882615
154	0xbb75e3b0	-0.0037519746
155	0xbd973016	-0.073822185
156	0xbd884bf3	-0.06655111
157	0x3c0a9279	0.008457773
158	0x3da898f6	0.082323
159	0xbd5dff51	-0.054198567
160	0x3d8ae24e	0.067814454
161	0x3cb88b13	0.022527253
162	0x3d2682fa	0.040652253
163	0x3d4f3a50	0.05059272
164	0xbce4c2d7	-0.027924938
165	0xbd9a6568	-0.07538873
166	0x3c4e5799	0.012594127
167	0x3d1ab1e0	0.03776729
168	0xbd87d745	-0.06632856
169	0x3ce205ef	0.02759072
170	0x3da05fd7	0.0783078
171	0x3d03c7e1	0.03217304
172	0x3db4d4c5	0.08829645
173	0xbd937a75	-0.07201091
174	0xbc5057bc	-0.01271623
175	0xbd76fbe1	-0.060298804
176	0x3d5e4cb7	0.05427238
177	0x3c9c5263	0.019082254
178	0x3d2974ca	0.041371144
179	0xbd0df6c7	-0.034659173
180	0xbd8d7f41	-0.069090374
181	0x3cc8423d	0.024445647
182	0xbd294e7b	-0.04133461
183	0x3c27f161	0.01025042
184	0x3d5621d8	0.05227837
185	0xbcf2fffa	-0.029663075
186	0xbd8471e1	-0.06467033
187	0xbd75e218	-0.060030073
188	0x3d9bfd37	0.07616656
189	0xbd5efe92	-0.054441996
190	0x3da62408	0.08112341
191	0xbd002f35	-0.03129502
192	0x3c260020	0.010131866
193	0x3d8e3cbd	0.06945179
194	0xbd38c44e	-0.045109086
195	0x3da8a6c9	0.08234937
196	0xbb1caa47	-0.0023905204
197	0x3bd6b734	0.0065526012
198	0x3d1fdc2e	0.03902834
199	0x3ccdc26d	0.025117123
200	0xbd937bc6	-0.07201342
201	0xbcd5a575	-0.026079873
202	0x3d90e4f0	0.07074916
203	0xbd737110	-0.059433997
204	0xbd7eca03	-0.062204372
205	0x3daa3bb4	0.08312169
206	0xbc95e311	-0.01829675
207	0x3c13ef5f	0.0090292385
208	0xbd4984be	-0.04919886
209	0x3d28b83f	0.041191336
210	0x3c87306f	0.016502587
211	0xbd92fa46	-0.07176642
212	0xbd6b8d06	-0.057507537
213	0x3d144af5	0.036204297
214	0xbd30a4ec	-0.04312603
215	0x3d7ec787	0.062202003
216	0x3d5f91cc	0.054582402
217	0x3d4f443d	0.050602186
218	0x3d8a0450	0.06739104
219	0x3d1318e5	0.035912413
220	0x3d80603b	0.062683545
221	0x3d09ec36	0.033672534
222	0xbd9a6445	-0.07538656
223	0x3d4961f7	0.049165692
224	0xbd2b1516	-0.041768156
225	0x3d2e73de	0.04259097
226	0xbd3fa0fb	-0.046784382
227	0x3d702347	0.058627393
228	0x3d7caf21	0.061690453
229	0xbda8e2cb	-0.08246382
230	0xbd95bff4	-0.07312003
231	0x3c8b3425	0.016992638
232	0x3d1542c2	0.03644062
233	0xbd8c70ee	-0.06857477
234	0xbc2dc5c1	-0.01060623
235	0x3d5b62c8	0.053561002
236	0xbd8bf4c7	-0.06833797
237	0x3d971cf8	0.07378572
238	0x3c397cfc	0.0113213025
239	0xbdb9b7ff	-0.090682976
240	0x3d8c3b19	0.068472095
241	0x3d2d5a34	0.042322353
242	0x3d5e2565	0.05423488
243	0xbd8aae3a	-0.06771512
244	0xbd205f78	-0.039153546
245	0xbc8685f0	-0.016421288
246	0xbd1c895f	-0.038216945
247	0x3d50624a	0.050874986
248	0xbd8a321c	-0.06747839
249	0x3a8d3617	0.0010773566
250	0xbc0306d7	-0.007997236
251	0x3dc2471e	0.09486221
252	0xbd706c3d	-0.058696974
253	0x3da744d3	0.08167424
254	0xbc83df7f	-0.016097782
255	0x3d84ae06	0.06478505

lin.bias f4 [10]
0	0xbce53713	-0.027980363
1	0xbd69f493	-0.05711801
2	0x3d433da0	0.047666192
3	0x3d5aba57	0.053400364
4	0x3d70ad45	0.058758993
5	0xbc92890a	-0.017887611
6	0x3d30f26e	0.04319995
7	0xbd9288f8	-0.07155031
8	0x3cc9b22f	0.024621097
9	0xbb5565f8	-0.0032561999
