resgcn_runs/resgcn_improved.pt (torch, 869968 bytes, 16 tensors)

blocks.0.conv.bias f4 [128]
00000000: 7267 c838 6628 e038 e880 dab8 bc19 c036
00000010: b06e 4fb9 88dc 0d39 5c9a fbb6 3243 4738
00000020: 4f93 23b9 529b c6b8 5d0b 1338 0639 9238
00000030: 6c3d 7bb8 bcf4 ceb7 9c42 1738 b6ea 22b7
00000040: dae2 2a38 7430 0a39 6c26 a337 4d6c c938
00000050: c38e 1fb9 7a16 d4b8 1a4c 9637 5cb8 4539
00000060: 4ad6 ceb5 59b7 14b8 68af 4cb9 262a 8a38
00000070: d47e 5fb8 ef9d e7b7 2c28 0839 3675 94b5
00000080: 77c4 b138 b052 94b8 d25a 3c38 9c96 43b6
00000090: 4c90 91b8 c91e 0338 06e8 a638 3347 1838
000000a0: f4e1 02b8 98bb 0ab8 a0c1 c637 7dbb 86b8
000000b0: 730c cbb8 d247 9938 a1dc 52b8 3172 d1b7
000000c0: 1ccc 8bb8 cf3b b7b8 3bd9 0bb9 fe78 8c38
000000d0: c8e8 fc37 88f2 1bb8 d95a 9db8 213b 3fb8
000000e0: 01d2 6fb7 92fc a738 8094 5837 a581 92b8
000000f0: 4f82 8cb7 9440 0a38 63df 31b9 3f12 d037
00000100: b7a6 1839 9858 9ab8 7663 c4b6 5c99 4e38
00000110: 0419 c036 401b e1b8 cdbb da38 b898 e536
00000120: 815a 5ab9 ffda a738 9765 68b9 e274 1538
00000130: df73 de36 b824 adb6 0747 8337 7e7f 51b8
00000140: 5afd 22b8 5031 8437 e555 9238 0f04 1238
00000150: 03b2 f838 5c54 c4b7 1604 47b8 bef8 8538
00000160: 0995 98b8 be11 36b8 2f02 0b39 bae0 89b8
00000170: 01eb 81b8 7c67 bfb7 84c5 4eb8 7a20 d537
00000180: e82c 1936 5e0e ba37 61cc e5b8 73c8 9338
00000190: 9adb a438 d75e 3a39 4679 5bb8 584e 8cb7
000001a0: 2a3a f037 7a89 9737 3d8c 3fb8 8e29 eb36
000001b0: ea27 d938 adf7 9138 820d f438 da3b 3f38
000001c0: a2b0 9238 ecd4 1738 40d4 e834 0370 5139
000001d0: 4e36 81b8 8cf5 8e38 c7b0 39b9 823c 9b37
000001e0: 0b43 4138 ce15 9638 2cb3 af36 cae1 2a38
000001f0: 68b1 f735 79f8 3137 1c76 0038 28a1 8138
9.556011e-05 0.00010688677 -0.00010419061 5.725042e-06 -0.00019782293 0.00013528962 -7.4983527e-06 4.7507878e-05
-0.00015599768 -9.4703064e-05 3.5058114e-05 6.972444e-05 -5.9900267e-05 -2.4671077e-05 3.606324e-05 -9.7106e-06
4.074243e-05 0.00013178756 1.9449006e-05 9.6045995e-05 -0.00015216605 -0.00010113134 1.7916831e-05 0.00018856063
-1.5410562e-06 -3.5456706e-05 -0.000195203 6.5882035e-05 -5.328546e-05 -2.761089e-05 0.00012984936 -1.1060972e-06
8.476612e-05 -7.072592e-05 4.4907276e-05 -2.914493e-06 -6.941016e-05 3.1261505e-05 7.9587146e-05 3.6305933e-05
-3.120485e-05 -3.3076474e-05 2.3693603e-05 -6.42454e-05 -9.682113e-05 7.308986e-05 -5.027338e-05 -2.4967916e-05
-6.666055e-05 -8.73726e-05 -0.00013336998 6.698257e-05 3.0149138e-05 -3.7180755e-05 -7.503265e-05 -4.5593017e-05
-1.4294405e-05 8.0102254e-05 1.2909179e-05 -6.985971e-05 -1.674998e-05 3.2961907e-05 -0.00016963253 2.4804029e-05
0.00014557956 -7.359794e-05 -5.852834e-06 4.9257054e-05 5.724958e-06 -0.00010733912 0.00010430031 6.8425106e-06
-0.00020823815 8.003972e-05 -0.0002216309 3.5633224e-05 6.6296047e-06 -5.1600764e-06 1.5649492e-05 -4.994822e-05
-3.8859762e-05 1.575859e-05 6.9778216e-05 3.4812892e-05 0.00011858719 -2.3404304e-05 -4.7449103e-05 6.388266e-05
-7.275685e-05 -4.3408705e-05 0.00013256886 -6.574528e-05 -6.194972e-05 -2.2817163e-05 -4.9298178e-05 2.5406702e-05
2.2824916e-06 2.2179618e-05 -0.000109576395 7.046843e-05 7.8610334e-05 0.00017773673 -5.2326614e-05 -1.6725782e-05
2.8637314e-05 1.806462e-05 -4.5668556e-05 7.0083834e-06 0.00010354801 6.960272e-05 0.00011637343 4.559369e-05
6.994723e-05 3.6199504e-05 4.33678e-07 0.00019973521 -6.1613144e-05 6.816824e-05 -0.0001770883 1.8505616e-05
4.6077224e-05 7.156619e-05 5.2362648e-06 4.074144e-05 1.8454566e-06 1.0607874e-05 3.0627576e-05 6.181217e-05

blocks.0.conv.lin.weight f4 [128, 768]
00000000: 1d97 ee3c 848e 25bb 5345 4ebd 007f ebbc
00000010: 73d8 033a 4e62 8a3d de2f b03d f182 e2bd
00000020: 7644 78bd 3625 90bd 01d7 93bc 17a1 b3bb
00000030: f1b6 0f3d 4195 41bd cf7c e93d 18f8 b2bc
00000040: 033a a83d 9e4c 8e3d 2ea0 febc d33d 8a3d
00000050: 6f62 94bc ef72 913d 1492 563d 2c9d 61bd
00000060: a814 ae3d 6b4f 48bd 7b9f 963d fe5c 9a3d
00000070: 0dcd 763d e45d caba 8190 76bc b9ba 01bc
00000080: 8bd2 37bd 3d9f c33c 81b7 adbc 791c 333d
00000090: f334 efbc d029 943d 318c 34bd 6d34 6ebd
000000a0: 7afc 7b3d 2003 87bd 411e 583d 54fa bb3d
000000b0: bcdd 96bd 418a 443c 1b02 1a3d c5df 5d3d
000000c0: e252 13bc 3c74 a23d 15c1 843d ebfb a6bd
000000d0: 30d7 6b3b e77e 883d ea0a 95bd ef78 0f3d
000000e0: 2ab9 2b3d 5f1e 343c c8cf 82bd e048 993c
000000f0: d73d 70bd 8da3 d4bc 882a bd3c c3fc 71bd
00000100: 7fac 973d 6bdd 69bd afc7 c2bd 76d0 8dbd
00000110: 2db6 04bd e194 643d 83db a1bd 28b0 953d
00000120: 2909 4939 1ca9 263d 4114 173d 86d9 7dbd
00000130: 82d4 4c3d 3008 013c b184 22bd 7d94 863c
00000140: eaf8 813d d322 5dbd c61c 51bd f6c9 463c
00000150: 0961 29bc 28a7 e43b 57bd b0bd cf41 7cbd
00000160: ba9b 9ebc e88b 20bd ebc7 733d 2935 7ebd
00000170: 1d61 6abd d9c3 5abd 5c37 6a3d 2177 fd3b
00000180: f307 013d c426 b3bd 8e30 d3bc 3e77 0d3d
00000190: f6a9 aa3d 9e41 9bbd a681 57bd fa78 5cbc
000001a0: c09e c4bc 5e69 95bd 85bd fe3c 234e d5bb
000001b0: 9766 31bd 4a48 e13c a3c2 4d3d 6bac 6b3c
000001c0: 483b 6cbd 93a5 62bc 001a 8abc b2e9 2ebd
000001d0: 0697 8bbd 5dd8 12bd b936 92bc 2992 e93c
000001e0: ac3b f33a 1130 bcbd fa82 a83d 98ef c5bc
000001f0: 664f 05bd 675f 12bc 2f42 22bd d524 1a3d
00000200: 8cf1 ca3d 3207 403d 4e3d e2bb 4618 8d3c
00000210: 0ee1 043d 7d55 f83c 50eb 283c 8c1a 6fbd
00000220: f326 08bd b5ad 813d f0f2 fbbb 1216 6bbd
00000230: 0678 a83d d6d0 18bd e23a ea3d 009b 5c3d
00000240: 6888 a13d 9d52 a1bb 1e18 4e3d 3361 853a
00000250: 06ba 853d 8560 84bd f538 3fbd 403c bb3c
00000260: 8bd0 4b3d 4384 293d 3d82 0f3d cde3 a0bd
00000270: e6da 9d3d 75e7 04bd 2423 653d 8bc5 8abd
00000280: 3db3 34bd af6d 0e3d 42e1 93bd 1d73 c13d
00000290: bfde 62bd 84c7 a2bd b52b 98bd cd73 b83d
000002a0: b03c 993c 6e2e 1bbc 34a2 75bd 4ea9 443d
000002b0: eea9 873c fa0d debc afad be3d 5108 b5bd
000002c0: 82f8 17bd 44a5 953d 25ae 4abd 2f2a 6b3d
000002d0: 860b 6d3d d822 02bd 222a 8fbc b66b 8fbd
000002e0: 20c8 1c3d bccb b2bc ec7a c4bc c589 8a3c
000002f0: 461c ee3c 063a 48bd 8268 373d 4bd8 233d
00000300: 582e d6bc 5238 663b 0fae 7cbd 62d5 00bd
00000310: 0dbd 79bc c85a c6bc 73ed 813d a60b 7fbd
00000320: a041 85bd 439f c8bb 2f79 cd3c 2f68 603d
00000330: 972c 463d 982b 38bd bb5e 4ebd f868 47bc
00000340: 4261 5d3d 7dbd d23c 944e b73a 0aba ad3d
00000350: b682 8a3d 9aec 4a3d bbe0 5a3c 038b afbd
00000360: f03e d7bc 1e17 80bc a86d 51bd 113a 84bd
00000370: 88fa 30bd 10de 733d 9001 403c 62f1 f63c
00000380: b7de 1a3d 38db 2fbd 41f0 913a 0797 1dbd
00000390: c08d 2dbd 3e17 c8bb b6b0 4abd 23aa 0a3d
000003a0: a9f4 6a3c b181 813d 8113 bcbc 3a35 2bbd
000003b0: 0772 863d 4ff1 8bbd 35f2 ce3c bf28 563d
000003c0: 760e 6bbd 94fe 803d fc0d 5abd fd20 a3b9
000003d0: f711 753d 9abd 96bd 9034 e6bc f2a1 483d
000003e0: 2c8a 21bc e3ea 7a3c 934c 41bd 7322 a53c
000003f0: 5cf9 6a3c 0700 093b 0655 ed3c d07a 2bbd
0.02912479 -0.0025261948 -0.05035908 -0.028747082 0.0005029507 0.067570314 0.0860288 -0.11060131
-0.060612164 -0.070383474 -0.018046858 -0.00548185 0.035086576 -0.04726148 0.114007585 -0.021846816
0.0821419 0.06948207 -0.031082239 0.06750073 -0.018113343 0.07102 0.052385405 -0.05508153
0.085000336 -0.048903864 0.07354637 0.07537268 0.060254145 -0.0015439359 -0.015049101 -0.007918053
-0.044878524 0.023879642 -0.021205666 0.043728326 -0.029200053 0.072345376 -0.04407901 -0.058155466
0.061520077 -0.06592393 0.052763227 0.09178606 -0.07366511 0.011995853 0.037599664 0.05416848
-0.008991929 0.07932326 0.0648214 -0.08153518 0.0035986416 0.0666483 -0.07277472 0.03502744
0.041924633 0.010993569 -0.063872874 0.018711507 -0.058652725 -0.025956893 0.02309157 -0.059078943
0.07405948 -0.057095926 -0.09510743 -0.069245264 -0.0324003 0.055806044 -0.07903197 0.0730899
0.00019172266 0.04068862 0.03688455 -0.061975025 0.05000735 0.007875487 -0.039677326 0.016428227
0.06346305 -0.05398829 -0.05105283 0.012133112 -0.010338076 0.0069779344 -0.08629864 -0.061586197
-0.019361366 -0.039195925 0.05951683 -0.062062416 -0.05722152 -0.05340943 0.0571817 0.0077351485
0.03150172 -0.08747628 -0.025779989 0.034537546 0.08333199 -0.07580875 -0.052613877 -0.013456577
-0.02400148 -0.07295488 0.03109623 -0.0065095588 -0.043310728 0.02750029 0.05023445 0.014384369
-0.057673723 -0.013833421 -0.0168581 -0.042703338 -0.06815915 -0.03585087 -0.01784836 0.028512077
0.0018557212 -0.091888554 0.08228107 -0.024162099 -0.032546423 -0.0089338785 -0.0396139 0.037632782
0.09909353 0.046881862 -0.0069042807 0.017223489 0.03244119 0.030314201 0.010310009 -0.058374926
-0.03324027 0.0633196 -0.0076888725 -0.057394095 0.08226018 -0.037308536 0.11437012 0.053858757
0.078873456 -0.0049231783 0.05031597 0.0010176062 0.06529622 -0.06463722 -0.046685178 0.022855878
0.04975943 0.0413859 0.035036314 -0.078559496 0.07707767 -0.032447297 0.055941716 -0.067759596
-0.044116247 0.03477257 -0.07220699 0.09445784 -0.05538821 -0.07948211 -0.074302115 0.09006462
0.018705696 -0.009471519 -0.059969142 0.048013024 0.016560521 -0.027106274 0.09310471 -0.08839477
-0.03710223 0.073069125 -0.049482483 0.057413276 0.057872318 -0.03177151 -0.017476145 -0.07002966
0.03827679 -0.021825664 -0.023984395 0.016911397 0.029066216 -0.04888346 0.0447774 0.040001195
-0.026145145 0.0035128784 -0.061689433 -0.031453498 -0.015242827 -0.02421321 0.06344118 -0.06226697
-0.065066576 -0.006122501 0.025082199 0.054786857 0.048382368 -0.04496345 -0.05038331 -0.012171023
0.05404783 0.02572512 0.001398521 0.0848275 0.067632124 0.049542047 0.013359244 -0.08571436
-0.026275128 -0.015636023 -0.051129967 -0.06456388 -0.043207675 0.059537947 0.0117191225 0.030144397
0.037810054 -0.042933673 0.0011134223 -0.03847411 -0.04237151 -0.0061062863 -0.04948493 0.03385366
0.014340558 0.06323565 -0.022958519 -0.041798808 0.06564718 -0.06833135 0.025261978 0.052284952
-0.057386838 0.06298557 -0.053235993 -0.0003111436 0.059831586 -0.073603824 -0.028101236 0.048982568
-0.009859603 0.01531479 -0.047192167 0.020158028 0.0143416785 0.0020904557 0.028971206 -0.04186517

blocks.0.bn.module.weight f4 [128]
00000000: 235f 823f cc9b 803f 8547 833f 8704 833f
00000010: 5287 823f 4e2e 833f a6ec 823f 8140 7c3f
00000020: ea69 823f 0f03 813f 0bfc 7c3f 8c45 823f
00000030: dea2 823f 2671 823f 48b2 7b3f 51d9 7e3f
00000040: 489e 813f 19c1 843f 7942 823f 8caa 7d3f
00000050: 5df6 823f 27cd 813f 1fe9 7d3f a6ae 7f3f
00000060: 620a 7f3f 2280 823f 078c 833f 2a5b 803f
00000070: b729 7e3f 2e6a 7c3f 19c0 803f 5d97 813f
00000080: f77f 833f 606a 803f a8d8 7c3f b605 7c3f
00000090: dcbc 813f afa9 833f e4a1 803f c982 833f
000000a0: fabb 823f 237c 7d3f a518 833f b273 823f
000000b0: cba9 813f 3ff0 813f 149d 823f 09a1 813f
000000c0: 0377 823f 7f57 843f a970 823f 0120 803f
000000d0: 5cf6 7a3f 9659 823f cc11 7d3f 1bba 833f
000000e0: 8561 823f 6981 803f d67f 813f 1e64 7d3f
000000f0: 2bd7 7b3f a6d9 823f 7364 823f 8eaa 823f
00000100: 501a 823f f864 843f 2e05 803f c997 813f
00000110: 15f8 7c3f 7b40 803f dedd 823f b5f7 7a3f
00000120: 343b 823f 2c7f 813f 86ba 7d3f b28a 7c3f
00000130: 71ce 813f 7c75 7d3f e1e7 823f 6dd7 7c3f
00000140: 3061 7e3f d1f0 7e3f abba 823f 5dc5 803f
00000150: db18 863f 5194 823f 324e 7d3f ce72 803f
00000160: 381f 843f 5cc0 7d3f 3138 7d3f 0404 813f
00000170: a2c7 813f a3f3 7b3f 6912 833f 6bea 833f
00000180: 79e1 803f 122c 823f 8844 823f 1d7e 833f
00000190: 385a 813f 7196 823f 634e 7e3f a418 803f
000001a0: 3750 823f ed53 7c3f 050b 833f f260 7c3f
000001b0: 60b5 7e3f e4e4 823f 9671 843f 92d1 803f
000001c0: 4c19 7f3f 99f5 813f 6a74 813f 9bfa 803f
000001d0: eab8 813f a688 803f 2ff4 7e3f 00e7 7e3f
000001e0: 8a38 823f 1523 803f 4024 823f a3b0 7f3f
000001f0: dc94 803f 6e1f 7c3f 15be 843f e688 813f
1.0185283 1.0047545 1.0256201 1.0235757 1.0197546 1.0248506 1.0228469 0.98535925
1.0188572 1.0079058 0.9882209 1.0177474 1.0205953 1.019078 0.9831891 0.9955035
1.0126429 1.0371429 1.0176536 0.9908836 1.0231434 1.0140733 0.9918384 0.9987587
0.9962522 1.0195353 1.0277108 1.0027821 0.992824 0.9859952 1.0058624 1.0124317
1.0273427 1.0032463 0.9876809 0.98446214 1.013576 1.0286158 1.0049405 1.0274287
1.0213616 0.9901754 1.0241896 1.0191557 1.0129942 1.0151442 1.0204186 1.0127269
1.019257 1.0339202 1.0190631 1.0009767 0.98032165 1.018359 0.9885528 1.029117
1.0186011 1.0039493 1.0117137 0.9898089 0.98375195 1.0222671 1.0186905 1.0208299
1.016428 1.0343313 1.0001581 1.0124446 0.98816043 1.0019678 1.0223958 0.9803422
1.0174317 1.0116935 0.9911274 0.9864913 1.0141126 0.9900739 1.0227014 0.98766214
0.99367046 0.99586207 1.0213217 1.006023 1.0476335 1.0201513 0.9894744 1.0035036
1.0322027 0.9912164 0.98913866 1.007935 1.0139048 0.98418635 1.0239993 1.0305914
1.0068809 1.0169699 1.0177164 1.0272862 1.0105658 1.0202161 0.9933836 1.000752
1.018073 0.9856556 1.0237738 0.98585427 0.99495506 1.0226102 1.0347164 1.0063956
0.99647975 1.0153075 1.0113652 1.0076479 1.0134556 1.0041702 0.99591345 0.9957123
1.0173504 1.0010706 1.0167313 0.998789 1.0045428 0.9848546 1.0370508 1.0119903

blocks.0.bn.module.bias f4 [128]
00000000: a2ba d63c 9d2f 71bc a623 c63c 5cd0 ca3c
00000010: 18bb b63c 5c49 c8b8 930c b33c a513 68bc
00000020: 7948 a03c 1011 0c3c cd8f 13bc b808 a03c
00000030: 9ff2 8539 68ed 963c e474 6abc fa9d 35bc
00000040: 6b51 a33c f957 ec3c bf30 b23c 816a 5dbc
00000050: 5829 923c d0f4 cbbb 3ed8 423c dd94 2dbc
00000060: b95d fbb9 c154 9a3c 26c1 373c b4f1 ddbb
00000070: ee4c 54bc 0419 94bc 3a27 adbb 0115 ad3c
00000080: 553e ff3c aae6 2cbb ed03 61bc 95fb 933c
00000090: 260b 763b dba5 b73c 9219 a23b 94a9 a33c
000000a0: cc44 b83c d652 ccbb 9069 a33c b014 913c
000000b0: 1644 b03a d40a 6a3c 9e8e a63c 7d83 703c
000000c0: f47c b93c 2ed1 ce3c e546 903c 77df acbb
000000d0: 3f8f 6e3c 0d7e b53c d737 1fbc 19be be3c
000000e0: 7c3e 993c 9b46 6c3b aaf4 c8bc c744 3fbc
000000f0: 3f0d 443c fbcc a13c cd0a 9a3c 1bfa d93c
00000100: c6f3 523c 4f0e d53c f8f9 98bc c542 a73c
00000110: b678 73bc 8e00 55bb 99d6 a83c f00f 8f3c
00000120: 7558 943c 7c6a a2bb c77f 27bc e3ed 5bbc
00000130: 8288 863c 47ac 33bc bda9 ad3c 3924 103c
00000140: 53e4 81bc d53e 98bc 146a 973c 9acb 823c
00000150: 15a3 d93c fabf aebc e741 b6bb 21d6 133c
00000160: 81e6 043d de52 35bc 192e b9bc 9a3f 41bc
00000170: e9c0 403c 2ffa 88bc f34f 813b c5f8 bc3c
00000180: 820a 27bc c846 873c 9a01 963c cb2b be3c
00000190: 2662 9a3c 90dc 633c d33e 37bc b0aa 413d
000001a0: 1a5c aa3c fbce 79bc 9c85 c13c b69d f8bb
000001b0: e3b7 75bc f37a 013c 265a f23c c6db 9f3c
000001c0: ee72 c6bb 29bb 673c c2b4 d9bb 01e2 f6bb
000001d0: 2bd3 563b 1389 263c 0d80 d9bb b42d 9fbb
000001e0: 0f56 15bc 167a ddba 92c2 983c 51c4 253c
000001f0: 603d 243c 3136 7dbb c815 aa3b 9834 7b3c
0.02621204 -0.014720825 0.02418692 0.024757557 0.02230601 -9.5504074e-05 0.021856582 -0.01416484
0.019565808 0.00854899 -0.009006453 0.019535407 0.00025548504 0.018423751 -0.014310095 -0.011085028
0.019936284 0.028850542 0.02175176 -0.013514162 0.01784198 -0.0062242523 0.0118923765 -0.010594574
-0.0004794428 0.018839242 0.011215484 -0.006773198 -0.012957795 -0.018078335 -0.005284217 0.02112818
0.031157652 -0.0026382604 -0.013733846 0.0180643 0.0037543266 0.022417953 0.004946896 0.019978322
0.022493742 -0.0062354608 0.019947797 0.01771006 0.0013448026 0.014284808 0.020331677 0.014679787
0.02264259 0.025246229 0.01761193 -0.0052756625 0.01456052 0.022154832 -0.009717903 0.023284005
0.018706553 0.0036052826 -0.024530727 -0.011674113 0.011966049 0.019751063 0.018803978 0.026608517
0.012875503 0.0260078 -0.018673882 0.02041758 -0.014860323 -0.0032501551 0.02061014 0.017463654
0.018108586 -0.0049565416 -0.010223336 -0.013423416 0.016422514 -0.010966367 0.021199102 0.008797699
-0.015855944 -0.018584648 0.0184832 0.015966225 0.026567021 -0.021331776 -0.0055620554 0.00902322
0.03244639 -0.01106712 -0.022604989 -0.011794949 0.011764743 -0.01672086 0.0039462983 0.023067841
-0.010195376 0.016513243 0.01831131 0.023214241 0.018845629 0.013907567 -0.011184412 0.04728192
0.02079587 -0.015247102 0.02362328 -0.00758716 -0.014997455 0.0079028485 0.029584002 0.019513976
-0.006056181 0.014143744 -0.0066438625 -0.007534266 0.0032779675 0.010164517 -0.0066375793 -0.004857743
-0.009114756 -0.0016897346 0.018647466 0.010117606 0.010024399 -0.0038637037 0.005190585 0.015332364

blocks.0.bn.module.running_mean f4 [128]
00000000: cfcd 69bb 1163 5a3c ca8e e73b ea9a abbc
00000010: 5e10 46bd 348b 3ebd 8137 3abd f6d0 e8bb
00000020: 282e b1bc 8344 fc3c bff2 243c b74c 22bd
00000030: 2ac5 ad3b 1d42 68bd b4bf 4dbc 1a35 95bc
00000040: 482f 2abd 7b8f 3c3b c108 02bd 92a8 babc
00000050: 2cd0 37bb 4b1b 4b3c 1321 7bbc 27de 2a3b
00000060: 4f5b 19bd 8b2d f4bb 7982 b8bc 72ea 473d
00000070: 98f4 babc 2c56 b3bc 05fa 153b 64e8 9b3c
00000080: 56f0 013d c77b 563d 1911 f43c dd54 75bc
00000090: 462e ddbb 0ec0 e2bc cbc2 cebc 70d8 66b9
000000a0: 7bc7 dcbc fdb2 093d 1d77 b73c d27b 17bd
000000b0: 9644 cabc 1b0a 3bbc b287 90bd d5c9 15bd
000000c0: d19e 423d a75c f439 f9b7 7abd 0415 99bc
000000d0: 8c78 fc3c 442b 1fb9 9678 b0bc 00d6 103d
000000e0: 4dc4 37bc ad3e ecbb 4b09 0c3d 5bfa e6bc
000000f0: ac42 a4bc 787e 05bd a5cf b83c 2e6e 7c3b
00000100: 2ac9 803b e519 00bc de1b 78bc a2d7 1d3d
00000110: aa52 9e3c 42dc a9ba 7705 523c 5366 ba3c
00000120: 057e 01bc e874 933c 6570 b23b 1076 01bd
00000130: b4e4 09bd 7f4e 2f3d 2448 d3bc f9ae 233c
00000140: de75 53bc 825b 723c 1251 86bd 45f5 953b
00000150: edbe 453b 1987 193c 6a62 243c 19f5 8abc
00000160: 09c5 4a3c 97dd 773c 5244 ca3c 85f0 953c
00000170: 6e89 1bbd a3aa c53b 7d5c 763c 4951 94b9
00000180: 5495 d43a 0094 c13c ea6e 8cbc 4899 ac3c
00000190: 989e 3cba ac13 17bd ddf6 223b 1a01 6a3c
000001a0: 0305 9bbc 14c6 fa3c ebe5 c6bc 97f1 093d
000001b0: ff3b 6e3c d07c ee3c 6c18 16bd aa49 28bd
000001c0: 347a 003c f838 d0bb cb53 233c 82c3 cbbb
000001d0: 6314 9bbb 6485 8cbc 1ee2 e1ba c221 933b
000001e0: 4157 f83c dd38 7d3b 1a68 523b ddb2 0cbd
000001f0: 5a7e 36bc c052 8fbc 2bc0 773c 8e8d 79ba
-0.003567565 0.013329283 0.0070665823 -0.020947892 -0.048355453 -0.046519473 -0.04546309 -0.007104988
-0.021628454 0.030794388 0.010067641 -0.039623942 0.005303045 -0.056703676 -0.012557913 -0.018213797
-0.041548997 0.0028772044 -0.03174663 -0.022785459 -0.0028047664 0.012396644 -0.01532771 0.0026072355
-0.037440594 -0.007451718 -0.022523152 0.04880757 -0.02282171 -0.021891676 0.002288462 0.01903171
0.031723343 0.052364137 0.029793309 -0.014973846 -0.006749901 -0.02767947 -0.025239369 -0.00022015139
-0.026950588 0.033617962 0.022395665 -0.03698332 -0.024690907 -0.011415984 -0.07057132 -0.036569435
0.04751474 0.00046608338 -0.061210606 -0.018686779 0.0308192 -0.0001517954 -0.021541875 0.035360336
-0.011216235 -0.00720962 0.03418855 -0.02819555 -0.020051323 -0.032591313 0.02255995 0.003851782
0.0039302306 -0.007818674 -0.015143363 0.03853572 0.019326527 -0.0012959319 0.012818686 0.02275387
-0.007903581 0.018000081 0.0054455274 -0.031606734 -0.033665374 0.04279947 -0.025791235 0.009990447
-0.01290652 0.014792325 -0.06558432 0.0045763575 0.0030173615 0.009370589 0.010033229 -0.016962575
0.012376078 0.015128515 0.02469078 0.018303165 -0.03797286 0.0060323044 0.015036699 -0.00028289322
0.001621882 0.023630142 -0.017142732 0.021069184 -0.0007195263 -0.036883995 0.002486638 0.014282489
-0.018923288 0.03061203 -0.024279555 0.033677664 0.014540671 0.02911225 -0.036644384 -0.041085877
0.0078416355 -0.0063544475 0.009968708 -0.0062183747 -0.004732655 -0.01715345 -0.0017233526 0.004490108
0.030315043 0.003863863 0.0032105506 -0.034350265 -0.011138523 -0.017495513 0.0151215 -0.00095196895

blocks.0.bn.module.running_var f4 [128]
00000000: 35dd b53b 7e6d 8b3b b016 9d3b 7d28 b13b
00000010: 8189 ae3b 5793 943b bace d73b 6803 d83b
00000020: 9788 bf3b 63ff b93b f99d b93b d703 ec3b
00000030: d7e5 9d3b 2c3b bf3b ba2e c13b fbd7 b33b
00000040: ee7e f33b 2673 953b 56b7 163c bdef d33b
00000050: 5ced 943b b62e ac3b 76c4 bf3b 4ecb 9e3b
00000060: 490a c53b a7b5 a03b 1f4d 8a3b 2b75 c83b
00000070: e57f b23b e51c d63b 0a48 af3b e2a3 ac3b
00000080: 5a82 fb3b baa9 e53b c7ba df3b abc1 993b
00000090: d272 8b3b b487 9a3b 9d38 a33b dd09 a03b
000000a0: 8721 c23b 6e2c df3b f29f b63b 92ee d23b
000000b0: 1a31 bb3b 77bd a33b 790b c73b 4b73 d13b
000000c0: a58a 0e3c fbc3 a13b a451 c63b 4992 973b
000000d0: 78a5 c43b 2635 963b 9c25 a13b 19ef c93b
000000e0: 1dcd c53b c9a1 a33b f15b 153c e5a0 9f3b
000000f0: f8b5 953b 9fdd a73b e06d db3b 93fa ac3b
00000100: b7bf b63b 8d0c 9a3b 93f5 943b 72bc 063c
00000110: 31f7 a93b a6db 9c3b 28df b93b b37e d13b
00000120: fa58 953b f12a aa3b 61ac 9b3b f863 b63b
00000130: 60ba bf3b 6b2f bc3b 0f3c c73b 71ce ae3b
00000140: 305e b23b 0708 8c3b fa26 c13b 6c46 c53b
00000150: b937 9f3b ead4 bb3b 7834 de3b e8a7 bb3b
00000160: 3f23 bc3b ec0a a03b 476e b13b 6a53 db3b
00000170: 7d97 c23b 0123 b23b 7164 a13b 8782 973b
00000180: 0155 943b 1bbd ba3b 2665 cf3b 4b5b ac3b
00000190: e56e 983b 2997 923b f4e2 bc3b c6f4 f03b
000001a0: d5a0 c33b 306a d23b 98f8 9d3b 566e e33b
000001b0: 9ee7 943b 8ebc a83b 156b a33b 2339 bd3b
000001c0: 307a a93b 43e8 c43b f6c2 a33b cc2f a13b
000001d0: 8fcc 8d3b 6874 ce3b 7a6e cc3b 89f6 b73b
000001e0: 365e d43b 5923 923b f33a ae3b e9b0 9a3b
000001f0: c402 bf3b 6497 de3b f474 ad3b 86ea aa3b
0.0055500516 0.004254996 0.0047939643 0.005406438 0.0053264503 0.004534166 0.006585923 0.006592203
0.00584514 0.0056761964 0.0056645838 0.007202606 0.004818659 0.0058359113 0.005895463 0.0054883934
0.0074309027 0.004560846 0.009198984 0.006467788 0.004544897 0.005254592 0.0058522774 0.004846013
0.006013189 0.004904467 0.0042206193 0.006117483 0.005447375 0.006534206 0.005349164 0.00526856
0.007675451 0.0070087584 0.0068276855 0.0046922765 0.004255631 0.004715884 0.004981114 0.0048839883
0.005924407 0.0068107164 0.005573266 0.006437131 0.0057126405 0.004996951 0.0060743657 0.006391918
0.008700048 0.004936693 0.006052213 0.004625593 0.0060011707 0.0045839725 0.0049178135 0.006162536
0.0060364143 0.0049936515 0.009116159 0.004871475 0.0045688115 0.005122855 0.0066964477 0.005278894
0.0055770534 0.004701203 0.0045458763 0.00822364 0.005186938 0.0047869263 0.0056723543 0.0063932776
0.004557726 0.0051931073 0.004750774 0.0055661164 0.005851075 0.0057429573 0.0060801576 0.0053346683
0.005443357 0.004273418 0.005894539 0.006020358 0.0048589376 0.0057321684 0.006781157 0.005726803
0.0057415063 0.0048841145 0.0054147574 0.0066932933 0.005938469 0.0054363017 0.0049253036 0.0046237144
0.004526735 0.0056988127 0.0063291965 0.0052599064 0.0046518915 0.004473586 0.0057643596 0.007353398
0.0059701004 0.00642135 0.0048208944 0.0069406433 0.0045442125 0.0051494306 0.0049871304 0.0057746335
0.0051720366 0.006009133 0.0049976064 0.004919028 0.004327364 0.006300498 0.006238756 0.005614106
0.0064809574 0.00445978 0.005317086 0.0047207964 0.005829187 0.0067929495 0.005293483 0.0052159457

blocks.0.res_proj.weight f4 [128, 768]
00000000: 6fbb 8a3b f33a 4abc 21e1 9d3c f9e0 e93b
00000010: 9310 4f3d 93d7 51bc 81b8 243d cd5b d3bc
00000020: 296e a03b 2c0b e0bc bd92 8a3c 5e90 3f3d
00000030: 9239 2c3c 3ca3 f4bb e5ca 503d a8dd dabb
00000040: 116f f33c 3b16 99ba ba2f 3cbd ebbe 1a3d
00000050: a6ef 20bd a2c1 943c 929a 3fbd dbc7 733d
00000060: f0b2 ab3c 4747 4c3d 42d8 1abc 014f 2c3d
00000070: 84fa c0bc 422c 24bc 6098 60bb 6569 f6bc
00000080: a7a1 24bd e42b 0b3d fb73 c03a 6bb9 4c3b
00000090: c00e 0a3c 2151 02bd c03d 343d 4d47 e1bc
000000a0: a650 383d c4c1 5139 7573 d7bb 3093 273c
000000b0: 0c29 44bb ac2e aabb dccd 38bd 13bf afbb
000000c0: fe4c 003d e674 f8bb 0839 6abd aaa1 12bc
000000d0: 35a3 34bd 929c 83bc dbce b7bc f32e 083d
000000e0: 690a 803c 9703 9dbc c888 193c de7e 443d
000000f0: df52 843c 1259 4cbc 3239 87bc dc4b 713b
00000100: c82b 4b3c cfd7 d4bc 1257 b9bc 2978 7aba
00000110: 5b69 0ebc 6c05 21bb 38db 69bc c139 353d
00000120: 5ad0 86bc b8e0 e03c 0c1a bfbc 842e dc3c
00000130: cace 263d fccc 14bd 39c1 993c f13b dfbc
00000140: 019b afbb 3124 bf3c 57cb 253d f6f6 a03c
00000150: ddd1 c63b 49f8 31bd d13f 71bd 8719 b93c
00000160: 701f 423c 16b3 033d c3f8 d9bc cc5d 6abb
00000170: e2a9 90bc f09f 043d e12c 93bb e147 b6bc
00000180: f890 7f3c c063 72bc 5cfc b63c f5cc 303d
00000190: 8da2 283c 73bf 5b3d 2c3f 82bc ec78 c5bb
000001a0: a085 1cbc 14d7 a43c 354f 0dbd 138b bcba
000001b0: c9df d3bc ed17 dd3c 6455 dd3b c092 173d
000001c0: 6301 603d 5ede f53a d81b 65bd 0f61 1ebc
000001d0: 03b8 253c 6c7a 123d 74c6 5a3c 62ce 7e3c
000001e0: 35f0 1cbc 609a 4dbc 4c75 46bd 2a5e 883c
000001f0: 6889 1dbd 256a 43bd 8e74 7bbd 37b6 853d
00000200: 0f4a 353c 3eef b43a a086 443c f713 463d
00000210: 5fe9 0dbd 3059 af3c 10ec 643c ce5e 54bb
00000220: b199 8bbc e226 dcbc a36e 103c 579f debb
00000230: 6fbe 0bbc 5efa 683d 7911 603d aa75 e6bb
00000240: 6ce7 f73c 2c54 cebc 1fc2 193d 2fda 00bc
00000250: 1cc5 74bb 6eb9 80bc ee88 2dbd 75b7 ebb9
00000260: 8c75 b5bc 1327 f43c 9510 ae3c 2982 453d
00000270: 3d7d b93c 5077 7b3d 9e39 8bbc 8801 9a3c
00000280: 042b 09bd 9583 5cbb cccc 18bd 61ab 043c
00000290: acf0 85bc 39a0 19bd 3514 53bd 5682 3b3a
000002a0: 05ea 3d3d e953 33bd 3193 49bc 366b febb
000002b0: b7f3 fbbc f232 f53b 11a7 a5bc 8ff2 bfbc
000002c0: 72aa b53c 1860 b73c e6b2 b0bc 8ff6 913a
000002d0: 45f9 bbbc 329c 223d eb3a 39bc ab24 74bd
000002e0: ae8e 543c 9ffc e1bc 0407 a9bc 9487 a1bb
000002f0: 9619 1e3d 4182 79bc 7746 d8bc 58e2 1cbd
00000300: 2f79 d5ba 5577 f8bc aa40 cd3c d804 9a3a
00000310: 6bcc 1e3d 3eb4 2f3b 5b3b 043c 8881 fcbc
00000320: 65dc 5dbd c011 a6bb f63a d53b 70ec aa3c
00000330: 796f 01bd a335 87b9 db50 cbbb 75af 2cbd
00000340: 4551 463c 82b5 a03c 7143 a1bc d13c 463c
00000350: b769 1bbd f1cd d0bc 6101 14bd 8fb2 01bd
00000360: 8c2b 7ebc 9a43 4b3d 9d8c 9a3b 1435 453d
00000370: 2a50 e4bc 1197 c73c 8139 45bc f2b9 0d3c
00000380: aa0b 24bd 2971 133c 0e6d 2b38 946b 0f3d
00000390: dadc 04bd 27fb dc3c adae 18bc e5a0 a23c
000003a0: fd60 0c3d 3f6c dabc cc75 9abc 5efe ad3b
000003b0: f43e d0bb 6c7d 87bc 05c4 e6bc f39e 84bb
000003c0: 03ec e53c 86fc ef3a 4d7b 95bc 3bd5 92bd
000003d0: ce56 1abc a8a6 34bc 9159 2abd 52d2 a83c
000003e0: dec4 d9bb 0ed5 ec3c de43 523d 991d 2bbc
000003f0: 415e 053d f0e9 febc 5c21 d0bb 7b07 293b
0.0042337696 -0.012343156 0.019272389 0.0071374145 0.050552916 -0.012807745 0.04021502 -0.02580061
0.0048959446 -0.027349077 0.016915673 0.04676854 0.010511773 -0.007465748 0.050974745 -0.0066792555
0.029716047 -0.0011679599 -0.045943953 0.03777973 -0.039291047 0.018158738 -0.04677827 0.05951677
0.020959347 0.049872663 -0.009450974 0.04206753 -0.023556955 -0.0100203175 -0.003427051 -0.030079553
-0.040193226 0.033977404 0.0014683002 0.0031238447 0.008426368 -0.03181565 0.044004202 -0.02749982
0.044998787 0.00020003977 -0.006575043 0.010227963 -0.0029931692 -0.005193552 -0.045118198 -0.005363354
0.031323425 -0.0075822948 -0.057183295 -0.0089496765 -0.04410096 -0.01606587 -0.022437504 0.0332479
0.015629964 -0.01916675 0.00937099 0.047972552 0.016152797 -0.012472408 -0.016506765 0.0036818897
0.012400575 -0.025981812 -0.022624526 -0.00095546484 -0.008692111 -0.0024569882 -0.014273457 0.04424453
-0.016456772 0.027450904 -0.02332785 0.02687765 0.040724553 -0.0363283 0.018768894 -0.027250262
-0.005359054 0.023332687 0.040477123 0.01964901 0.006067498 -0.043449674 -0.05889875 0.02259518
0.011848316 0.03215321 -0.026607877 -0.0035761474 -0.017659131 0.03237909 -0.004491434 -0.022251071
0.015598528 -0.01479429 0.022337131 0.043164212 0.010292661 0.053649377 -0.015899263 -0.006026378
-0.009553343 0.020122088 -0.034499366 -0.0014384709 -0.025863545 0.026988948 0.006754564 0.037005186
0.054688822 0.0018758287 -0.055934757 -0.009666695 0.010114673 0.03576128 0.013352979 0.015552135
-0.009578754 -0.012549013 -0.048451707 0.016646463 -0.03846112 -0.04770865 -0.061390452 0.06528895
0.01106502 0.001380421 0.011994988 0.048358884 -0.03464639 0.021404833 0.013972297 -0.003240514
-0.01704106 -0.02687401 0.00881544 -0.006793897 -0.00852929 0.056879394 0.054704163 -0.0070330696
0.030261718 -0.02518662 0.037538644 -0.007864519 -0.0037348932 -0.01571342 -0.042366914 -0.0004495938
-0.022150777 0.029803788 0.021248141 0.048219834 0.022642726 0.061393082 -0.016995247 0.018799558
-0.03348829 -0.0033647765 -0.037304685 0.008097501 -0.016350113 -0.037506316 -0.051532943 0.00071529055
0.046365757 -0.043781195 -0.01230316 -0.0077642454 -0.03075586 0.00748288 -0.020221265 -0.02343109
0.022176001 0.022384688 -0.02156968 0.0011136102 -0.02294601 0.03969974 -0.011305551 -0.05960528
0.012973471 -0.02758628 -0.020633228 -0.0049294923 0.03859862 -0.015228809 -0.026400788 -0.038301796
-0.0016286726 -0.03033034 0.025055248 0.0011750711 0.038769167 0.0026810314 0.008070792 -0.030823484
-0.054165263 -0.005068034 0.006507273 0.020864695 -0.03160045 -0.0002578917 -0.006204707 -0.042159516
0.012104337 0.0196178 -0.019685479 0.012099461 -0.037942614 -0.025488826 -0.036134128 -0.031664427
-0.015513312 0.049625017 0.0047164694 0.048146322 -0.027870256 0.024364026 -0.012037636 0.00865029
-0.040050186 0.008999147 4.0871142e-05 0.035014704 -0.032437183 0.026975228 -0.00931899 0.019852111
0.034272183 -0.026662944 -0.018854998 0.005309864 -0.006355161 -0.016539298 -0.028169641 -0.0040472685
0.02806664 0.0018309511 -0.018247271 -0.07169577 -0.00942011 -0.011026062 -0.041589323 0.020608101
-0.006645783 0.028910186 0.051334254 -0.010444068 0.03256059 -0.03111741 -0.006351633 0.0025791812

blocks.0.res_proj.bias f4 [128]
00000000: d7e9 883c ed7f e83b 42b3 823c 4e2f af3b
00000010: 77ee 323d d614 093c 12a4 01bb 9805 bf3b
00000020: 98d0 d93c f791 38bd 44f5 ce3b ea9c 103c
00000030: 3b0b e039 5952 373c 7e0a e3bc 8592 16bc
00000040: 6033 3d3d 90b9 f83b 7bbc 673b 58f9 70bc
00000050: 1844 083d bb5f 01bd 388e ffbc 554a a7bb
00000060: 5b18 5dbc b2d2 ba3c 0c0d 44bc 82b0 e0bc
00000070: d03e 313c c2fe 7fbd 1ccc b6bc 6ba3 9bbc
00000080: 6731 923c 7469 6b3c dfff 92bc 9738 61bc
00000090: 6dfb d2bc d3bb 423c f997 e4bb 5754 b9bb
000000a0: 6e0f 233d ae06 c1bc 9607 25bd fe09 bf3c
000000b0: 1433 943c 2369 16bc 2c49 37bc ec4f 3fbc
000000c0: 2f32 81bc daec 2a3d dcf4 92bc 4d4c 6e3b
000000d0: 6d23 4cbc 5f4d ab3c e661 5c3c 7044 7638
000000e0: aab4 913c 3a60 0ebd a849 23bd 61ba b2bc
000000f0: 85c3 2a3d 4b03 96bb 30fd 6e3c 80c4 5ebc
00000100: d043 6ebc f82d 393d c47e 1cbd eaa5 e6bc
00000110: 5d79 923c 0f9e c1bc a728 be3c 5150 e73c
00000120: 8ee3 7f3b dd28 5d3b 256b 84bc be07 0cbc
00000130: fdf1 83bc a78b 0abd a2a5 8a3c fcba ee3b
00000140: e979 46bd d1c2 73bb 7fc9 7abc f41b b73c
00000150: 798f 0abc c653 10bd ade2 38bb 3bfe 123d
00000160: e304 90bb 9875 49bc 4849 ddbc 7950 4abd
00000170: 7daf 263d e504 1ebc 4129 8f3c 16bd 3a3d
00000180: 2535 923b b652 00bd 67be c03c 6fcb 473d
00000190: 8231 413c fa4d e93c 4a00 18bb b0a0 19bc
000001a0: 321c fe3c 72ed 03bd 7cf2 4cbc da7e e639
000001b0: c751 7c3c 0ec2 813b df9f 1e3d 9f54 47bc
000001c0: 43f8 9fbb f565 06bc 199a 02bd e83e 4fbb
000001d0: 4493 a9bc e914 633c 4480 2ebd 87e7 493c
000001e0: 8604 213c 0ad7 da3b d926 b9bc 7726 423d
000001f0: da86 fe39 0076 95b8 eb33 12bd 150a 2fbb
0.016713066 0.007095328 0.015954617 0.0053462153 0.04368445 0.008366784 -0.0019781631 0.0058295242
0.026588723 -0.045061078 0.006315859 0.008826474 0.00042732977 0.011189067 -0.027714964 -0.009190206
0.046191573 0.00759048 0.0035360146 -0.014707886 0.033268064 -0.031585436 -0.031195745 -0.0051052966
-0.013494576 0.022805545 -0.011966001 -0.027427915 0.010818198 -0.062498815 -0.022314124 -0.018998822
0.017845822 0.014368404 -0.017944274 -0.013746402 -0.025754655 0.011885601 -0.0069761244 -0.005655806
0.039809637 -0.023562755 -0.040290438 0.023320194 0.018090762 -0.00918034 -0.011186879 -0.01167677
-0.015771 0.041729786 -0.017939024 0.0036361397 -0.012459618 0.020910917 0.013451075 5.8714708e-05
0.017786343 -0.034759738 -0.039865166 -0.021817388 0.04169037 -0.0045780293 0.014586732 -0.013596654
-0.014542535 0.045209855 -0.03820683 -0.028155286 0.017880136 -0.023634939 0.023212744 0.02823654
0.0039045545 0.003374628 -0.016164372 -0.008546768 -0.0161066 -0.03382459 0.016924683 0.007285474
-0.048456106 -0.0037194977 -0.0153068295 0.022352196 -0.008457058 -0.035236143 -0.0028211281 0.035886984
-0.004395114 -0.012296103 -0.027012482 -0.04939315 0.040694702 -0.009644722 0.017475726 0.045590483
0.0044619017 -0.03132888 0.02352829 0.048777994 0.011791589 0.028479565 -0.0023193532 -0.00937669
0.031019304 -0.032208867 -0.012508985 0.0004396353 0.015400357 0.0039599007 0.038726684 -0.012166171
-0.00488189 -0.008203019 -0.03188524 -0.0031623188 -0.020700105 0.013859966 -0.042602792 0.012323267
0.009827739 0.0066784667 -0.022601532 0.047399964 0.00048547128 -7.126853e-05 -0.035694044 -0.002670889

blocks.1.conv.bias f4 [128]
00000000: a6ee dd36 4c40 a0b6 e8af 07b7 4777 ee36
00000010: 3a17 9437 e652 9736 4cdf a936 00ab 99b6
00000020: cf52 b536 924f 9eb5 1812 ac33 4c6e bf36
00000030: 7d95 9db5 7d95 c135 1645 2f36 86bd a5b6
00000040: 263c d1b5 85f0 8f36 aac6 73b6 e33a 76b5
00000050: 4f49 c535 23f9 17b7 3d88 f735 c1af 0d37
00000060: a8eb 91b6 2049 70b4 0c6f a6b6 20e9 2536
00000070: 1590 2737 d70d 5a35 884f 5235 ae5e ff35
00000080: c056 8ab3 4446 2937 188d d9b5 b48c 1e37
00000090: 0b03 7337 da07 d7b6 d83f 19b5 899b 13b6
000000a0: 66dc db35 934d 84b5 3e5d 9e36 b3d9 e5b6
000000b0: 704e 97b5 1417 0735 ef5c 52b6 bc0d 8bb5
000000c0: 283e b7b4 b1c6 8336 76b3 f3b6 71c0 9ab7
000000d0: e80f 3636 eab8 b0b6 311a d536 8ea8 8336
000000e0: dc3a c7b6 6619 8cb6 4c49 3937 cbdc e336
000000f0: 06b9 00b7 b2e4 a8b6 6038 e136 e4d8 b5b6
00000100: f440 5735 389e c4b6 2ad4 50b5 d2bf 0db7
00000110: 4772 d0b5 0eb2 b1b6 b838 f635 78fa 7736
00000120: 228e c036 d8f8 6036 acbf 1236 352d 1237
00000130: 5fed 2e36 42de cb37 ae0c 9235 927a 1038
00000140: 07f6 0137 0974 abb6 888b 6d36 607a f636
00000150: de0a 6ab6 c8a8 4135 4072 31b6 3f88 8db6
00000160: 5ac9 3fb6 2f82 73b6 8601 2bb6 2477 cfb5
00000170: 6841 0036 4aed 9bb5 0a3e a6b6 75c8 5337
00000180: df75 afb6 245f 08b6 b9a5 5db6 fd61 3eb6
00000190: 40a0 19b5 b213 6237 022c 3837 443b 1db6
000001a0: a0fc 8835 17c8 eab6 028d 7c36 126a c4b5
000001b0: 0d79 d436 ed32 8636 1ec1 12b6 ccbc 89b4
000001c0: 08d6 39b6 0d5b dfb5 a01b bab5 8eaf b637
000001d0: 3bff 1937 cc21 e4b6 6a0d 67b5 8446 cbb6
000001e0: a886 8536 1ea3 8036 0717 f8b5 3a3f 0136
000001f0: a6ff f734 ac04 6c36 20aa f4b3 9f24 2636
6.6140956e-06 -4.7758567e-06 -8.087583e-06 7.1068384e-06 1.765379e-05 4.5098013e-06 5.0625877e-06 -4.5796623e-06
5.4038605e-06 -1.1795075e-06 8.0126654e-08 5.705084e-06 -1.1740918e-06 1.4423127e-06 2.6117245e-06 -4.9394466e-06
-1.5589219e-06 4.2897323e-06 -3.632546e-06 -9.172783e-07 1.4698979e-06 -9.058308e-06 1.8442585e-06 8.445176e-06
-4.3487707e-06 -2.2378345e-07 -4.960113e-06 2.4722613e-06 9.987522e-06 8.123147e-07 7.834683e-07 1.9026536e-06
-6.4419055e-08 1.0089545e-05 -1.6208824e-06 9.450294e-06 1.4484637e-05 -6.4084134e-06 -5.7089846e-07 -2.199524e-06
1.6380916e-06 -9.857343e-07 4.7196218e-06 -6.8500754e-06 -1.1273205e-06 5.0325e-07 -3.1346533e-06 -1.0360304e-06
-3.413163e-07 3.927235e-06 -7.2628563e-06 -1.8447843e-05 2.7129372e-06 -5.2667356e-06 6.3509437e-06 3.9237266e-06
-5.9375143e-06 -4.175282e-06 1.1043925e-05 6.790831e-06 -7.672474e-06 -5.033414e-06 6.7120855e-06 -5.4194697e-06
8.018826e-07 -5.8596743e-06 -7.779478e-07 -8.448917e-06 -1.5530467e-06 -5.2957394e-06 1.8344936e-06 3.695166e-06
5.7385923e-06 3.3523447e-06 2.1867263e-06 8.712804e-06 2.6066189e-06 2.4302983e-05 1.0881538e-06 3.4446428e-05
7.746282e-06 -5.1097054e-06 3.539697e-06 7.3456176e-06 -3.4875043e-06 7.214371e-07 -2.6441558e-06 -4.2179886e-06
-2.857842e-06 -3.6285599e-06 -2.5481872e-06 -1.5457376e-06 1.9111558e-06 -1.161746e-06 -4.954408e-06 1.2623253e-05
-5.2291284e-06 -2.0320958e-06 -3.302803e-06 -2.8369243e-06 -5.7230136e-07 1.3475235e-05 1.0977501e-05 -2.342932e-06
1.0206313e-06 -6.997037e-06 3.7633004e-06 -1.4634008e-06 6.3321845e-06 3.9994397e-06 -2.1868104e-06 -2.5655606e-07
-2.769173e-06 -1.6641294e-06 -1.386612e-06 2.177784e-05 9.178936e-06 -6.798864e-06 -8.6073726e-07 -6.0580805e-06
3.979385e-06 3.8336866e-06 -1.8484142e-06 1.92593e-06 4.6193344e-07 3.516946e-06 -1.1393081e-07 2.4757244e-06

blocks.1.conv.lin.weight f4 [128, 128]
00000000: 59a5 013e fb30 49bd 9b4b e4bd 7803 9bbc
00000010: 284a b1bd 6d0a 773d 3ee7 0bbe 60ca 053d
00000020: f3c9 d1bd b8d9 d73d 8eaf 00bd e180 08be
00000030: 76a4 253e d025 2a3d d755 bb3d 6c10 ff3d
00000040: 0e89 bebd e7fb e43c 27e4 0cbe 24cb 863d
00000050: 43d8 d5bd 486f e6bd 2439 d73d 25ba 603c
00000060: 0684 db3c 40f1 94bd 4234 8d3d 6379 e4bd
00000070: 3784 c23d 75f6 12bd 413b 253e ad57 d1bc
00000080: 0c6f 22bd cefc f5bd 770c febd 493f c43c
00000090: 86c4 433d ab48 dcbd 47ee 29bc 7990 41bd
000000a0: 96b5 1cbe 73fa 2c3d cf1f e2bd 4ae9 cdbd
000000b0: 6f99 163e cb32 75bc c192 623d 784b 5abd
000000c0: 2a36 e73d e2e1 943c c2b7 823d da1e 30be
000000d0: a314 b53d 190d f33d 74a5 2fbe 4c4c d73d
000000e0: dddb 4fbd 05d2 2ebd 200a 673d 448a 303c
000000f0: ef7b db3d 10c7 21be 6525 aabd c46f 913d
00000100: 5c0d 01be 1765 8a3d 7acc 46bd 2bf5 d6bc
00000110: 8247 d23d 1cdf 9c3d 1494 3cbd 0422 1cbe
00000120: 0634 c93d 2443 e43d c124 1f3e b4ea 97bd
00000130: a35d d7bb 246e 21bc 317f 113d ddcc 90bd
00000140: 8fb5 a3bd aeac ee3d 7236 cb3d 2b95 ffbd
00000150: d724 6cbd 60c5 ea3d bd93 ec3d aedb 853b
00000160: f6c0 9f3c c9fe 79bd be1e 1f3c e3a5 87bd
00000170: 1b89 073b 2bc7 a4bd 37bf e1bd 981c c6bd
00000180: eda9 26be 40a7 f4bd a57c ab3d 66b1 343d
00000190: 3564 313d 0e73 ff3b 05cc c4bd c7d2 37be
000001a0: 4bae c33b 1875 bebd 2d3d c13d 4d4d d63c
000001b0: a02d 623d d34f ed3d 34d5 2e3c 1a57 663d
000001c0: ec90 933d 71d6 0e3e 0649 c83d c690 b4bd
000001d0: dabc 9f3d a1b4 32bc c6b1 94bd 1453 cfbd
000001e0: 13e4 bb3d 688f 9abd ed0a dabc 3caf fb3d
000001f0: 6adb ad3d 3a5a 28be ddde c4bc a4a3 623c
00000200: ac87 043d b4aa 6b3d 78e0 853d 0009 163e
00000210: 2372 923c 9716 1cbb 8c3d e13d 18b7 4dbd
00000220: 1f50 df3c 29e0 883d 834e 153e c627 71bd
00000230: ec79 18be 1f37 ccbc 24e5 423d 92e8 2dbb
00000240: 1d1d 70bc c68a 9d3c de29 573d 9e5c 433d
00000250: 467d c1ba c5d8 463d 8c3e 733d 2b84 49bd
00000260: 72fe 16be e28b 0b3e 634c 743c 50de acbd
00000270: b845 953b 2ac3 84bd 24ad 053d 0fc7 11bd
00000280: 9e06 b2bc 5bcf 663d 7163 d3bd 0fca 023e
00000290: 3955 b73d 907d fa3b 51f7 a2bd 816e 1e3e
000002a0: 22e0 d13d 9b2d d9bd 79e5 c33d 5269 f5bd
000002b0: ad62 f23c 25ed 01be dc5f aa3c 8659 84bd
000002c0: 23bb 0e3e 96c6 da3d 6578 aabd c721 29bd
000002d0: e1ce e1bd fdae b63d ce05 d8bd 872d b4bd
000002e0: a769 1bbe 8f7f b93d 22d1 16be a602 68bc
000002f0: 03e3 21be 996a 8139 a38d 213e fc61 0fbd
00000300: f4ab e93d 8d0b 073e 653c 0a3e 2355 2f3e
00000310: a1e2 c6bc ba67 b13d 92a2 bfbd 9e93 6b3d
00000320: 8f7e 2a3d d96a a13d a945 c0bc 0a5f 123e
00000330: 9e62 07bc a4d8 89bd 9250 433d 6668 5fbd
00000340: 7b53 75bd a22b c03d 64ac 68bb 2104 c4bd
00000350: 92dc 2b3e 768e 0abe fc9e 513d 21f7 07bd
00000360: e4fc 263c 827b c0bd b5bc 233e 29a6 253d
00000370: 1a6b 92bd a6a9 f5bb 3510 9fbc 6946 3abd
00000380: 6919 b43d d726 bf3c eecb 20be be59 da3d
00000390: d9b0 f33d 75e8 933c 0811 90bd ebd9 f03c
000003a0: c5d1 013e b922 113d 235a 0e3d c600 dfbd
000003b0: 62e1 ca3d 7e8f 0c3e 6934 cfbd 72b5 acbd
000003c0: abd7 b13d 1ad2 af3d d6cb ec3d 7229 adbd
000003d0: 30d2 edbd 622e a73c d535 23bd 43c5 95bd
000003e0: b85e 1c3e b949 d73d d3d0 3d3d 888d d23d
000003f0: 0918 973c a5ea 2c3d 4ace 85bd 4ec2 8e3d
0.12660731 -0.049118977 -0.11147233 -0.018922552 -0.08656722 0.060312677 -0.1366243 0.032663703
-0.10243597 0.105395734 -0.031417422 -0.13330413 0.16176018 0.041539967 0.09147232 0.12454304
-0.09303485 0.027952148 -0.13758908 0.06581715 -0.10441639 -0.11251694 0.105089456 0.013716255
0.026796352 -0.07272577 0.06894733 -0.11155965 0.09497874 -0.03587957 0.16135885 -0.025554502
-0.039656684 -0.12011109 -0.12404721 0.023955958 0.04779484 -0.10756048 -0.010371751 -0.04725692
-0.15303645 0.042231034 -0.11041223 -0.10054262 0.14706968 -0.014965723 0.055315737 -0.05329463
0.11289628 0.018174116 0.06382705 -0.17199269 0.08841827 0.118677326 -0.17152959 0.10512599
-0.050746787 -0.04268076 0.05640614 0.010775153 0.10716998 -0.15798593 -0.08307914 0.07101396
-0.12602752 0.067575626 -0.048534848 -0.026239952 0.10267545 0.07659742 -0.046039656 -0.15247351
0.09824376 0.111456186 0.15541364 -0.07417813 -0.0065724417 -0.00985292 0.03552169 -0.070703246
-0.07993614 0.1165403 0.09922494 -0.124796234 -0.05765232 0.114634275 0.11551616 0.0040850258
0.01950119 -0.061033998 0.009711919 -0.06623437 0.0020681086 -0.08045801 -0.110227995 -0.096734226
-0.16275759 -0.11945963 0.083733834 0.044114493 0.043308455 0.007795698 -0.09609226 -0.17951499
0.005971705 -0.092996776 0.094354965 0.026159907 0.055219293 0.11587491 0.010670949 0.05623541
0.07205376 0.1394899 0.09779553 -0.08816676 0.077996925 -0.010907323 -0.0726047 -0.10123268
0.09174361 -0.07546884 -0.026616538 0.12289283 0.084891155 -0.16440669 -0.02403205 0.01383296
0.03235595 0.057535842 0.06536955 0.1465187 0.01787669 -0.0023817176 0.10998067 -0.05022344
0.027259884 0.0668338 0.14580731 -0.05887582 -0.1489026 -0.024928628 0.047581807 -0.0026536328
-0.014655379 0.019231211 0.052530162 0.04769575 -0.0014762066 0.04854657 0.05938582 -0.04919831
-0.147455 0.1362758 0.01491079 -0.0844084 0.0045554303 -0.06482537 0.032635823 -0.035590228
-0.021731671 0.056350093 -0.10321701 0.12772392 0.08951802 0.0076443627 -0.07957328 0.15471841
0.10247828 -0.10604402 0.09565253 -0.11982979 0.029588068 -0.1268812 0.020797662 -0.06462388
0.13938574 0.106824085 -0.08323745 -0.04129198 -0.11025787 0.08920095 -0.10547982 -0.08797746
-0.15177022 0.09057533 -0.14728215 -0.014160788 -0.15809254 0.0002468422 0.15776686 -0.035005555
0.114097506 0.13188 0.13499601 0.17122321 -0.024277987 0.086623624 -0.0935718 0.057513826
0.041624602 0.07881708 -0.023470717 0.14294067 -0.008263258 -0.06730774 0.04768426 -0.05454292
-0.059894066 0.09383322 -0.0035503143 -0.095711 0.1678336 -0.13530907 0.05117701 -0.033194665
0.01019213 -0.09398557 0.15989955 0.040441666 -0.07149334 -0.0074970303 -0.019416908 -0.045477305
0.08793909 0.02333395 -0.15702793 0.10661648 0.118989654 0.01805518 -0.070344985 0.029400786
0.12677677 0.035433505 0.03475393 -0.108888194 0.099062696 0.13726613 -0.10117418 -0.084330454
0.086837135 0.085849956 0.11562316 -0.08455171 -0.11612356 0.02040786 -0.03984626 -0.07313015
0.15270507 0.10512108 0.04634173 0.10280901 0.018444078 0.042215962 -0.06533487 0.069706544

blocks.1.bn.module.weight f4 [128]
00000000: e838 823f 3d46 833f 2447 833f 8ca4 823f
00000010: 770c 833f 8eb9 7e3f 81fc 843f 0278 7e3f
00000020: fe9b 823f 2373 813f 6e1a 833f b25c 813f
00000030: 62e5 823f b2f6 823f eff2 7e3f 81bc 843f
00000040: 57dd 813f 662c 833f 956e 833f 9986 823f
00000050: d127 823f 9378 7e3f 62ae 7d3f 6e82 843f
00000060: 898e 833f b422 823f f185 823f 4514 7f3f
00000070: ee83 7e3f fa84 843f a0a8 823f f3e6 823f
00000080: 5d89 7e3f 03f5 803f 53ac 823f c043 823f
00000090: bbaa 823f f1c4 813f c874 7f3f 97a2 833f
000000a0: cc4c 833f d5e5 823f 3c5f 833f 80b7 823f
000000b0: 2b4b 823f dab9 823f 1b3e 833f f6aa 823f
000000c0: 20f4 823f 1469 813f ff0f 833f d4d3 803f
000000d0: a4d8 803f 01d8 833f a27b 823f 1979 7d3f
000000e0: 93df 823f 004c 7f3f ed09 803f 6da6 7d3f
000000f0: 5629 803f 124f 833f a6f7 823f 2ad6 803f
00000100: 044b 823f 3203 833f c328 823f 0afd 7c3f
00000110: b768 813f d663 833f d233 823f d28c 7e3f
00000120: 49ed 803f 7c2e 803f 68cb 803f 7a5b 843f
00000130: 0d68 823f ea32 813f ddf1 823f f47c 843f
00000140: 2645 803f cb6d 833f 5823 833f 3ca2 823f
00000150: 419a 823f d14f 803f 0856 833f 3cb4 813f
00000160: a000 823f 08f9 813f 89d3 7d3f 29d4 7f3f
00000170: b22c 823f 8ef9 803f e90f 803f e36e 823f
00000180: 3653 823f f666 823f b04b 823f fe11 823f
00000190: 1bdc 823f c88e 823f 5d18 823f 8b37 823f
000001a0: 0429 823f 092c 803f eeeb 823f bd38 823f
000001b0: e417 7d3f 7d81 7e3f 9c3c 833f 783f 823f
000001c0: 2413 7f3f bd84 823f 2b75 803f f661 843f
000001d0: 6d3b 833f cdfe 813f 0354 7e3f 86b8 803f
000001e0: d302 7e3f 19ab 823f d7a5 833f 028f 803f
000001f0: 435a 823f 5396 823f b2f3 7d3f 71d2 813f
1.0173616 1.025581 1.0256085 1.0206466 1.0238179 0.99501884 1.0389558 0.9940187
1.0203855 1.0113262 1.0242441 1.0106413 1.0226252 1.0231535 0.9958944 1.0370027
1.0145673 1.0247924 1.0268122 1.0197326 1.0168401 0.9940273 0.9909421 1.0352304
1.0277873 1.016684 1.0197126 0.99640304 0.9942006 1.0353081 1.020771 1.022673
0.9942835 1.0074772 1.0208839 1.0176926 1.0208353 1.0138227 0.9978757 1.0283993
1.0257812 1.0226389 1.0263438 1.021225 1.017919 1.0212967 1.0253328 1.0208423
1.0230751 1.0110192 1.0239257 1.0064645 1.0066113 1.0300294 1.019398 0.99012905
1.022448 0.9972534 1.0003029 0.9908207 1.0012615 1.0258505 1.0231826 1.0065358
1.0179143 1.023535 1.016869 0.98823607 1.0110081 1.0264843 1.0172064 0.99433625
1.0072414 1.0014186 1.0062075 1.0340416 1.0188004 1.0093663 1.0230061 1.0350633
1.0021102 1.0267881 1.0245161 1.020576 1.0203325 1.0024358 1.026063 1.0133128
1.0156441 1.0154123 0.991509 0.99933106 1.016989 1.0076158 1.0004855 1.019009
1.0181644 1.0187671 1.0179348 1.0161741 1.0223421 1.0199823 1.0163685 1.01732
1.0168767 1.0013438 1.022825 1.0173565 0.9886458 0.99416333 1.0252872 1.0175619
0.9963858 1.0196759 1.0035757 1.0342395 1.025251 1.0155884 0.9934694 1.0056312
0.9922306 1.0208465 1.0284985 1.0043643 1.0183796 1.0202125 0.99199975 1.0142347

blocks.1.bn.module.bias f4 [128]
00000000: f365 663c 435d 493b b204 bc3c 1f56 bb3c
00000010: 2981 7b3c c46f bd3b e480 bc3c a0f4 72bc
00000020: 7abc b23c 73f5 0abc a787 c93c 9df3 673c
00000030: cb8e 7ab9 bc79 b03c 2936 e5bb 1fd3 353d
00000040: a1b4 ae3c 75cd df3c 47e8 d83c 8173 f13c
00000050: 2d50 873c 7584 93bc 94ba 2ebc 0301 0c3d
00000060: 4474 f43c 047e a03c 8db4 a33c db96 3ebb
00000070: 41a1 51bb 954c a23c 97a5 6e3c 2f8b f83c
00000080: 517e 11bc 2200 1ebc 0c3b 25bc a8e8 ee3c
00000090: 1668 883c 0f58 843c df52 c93a 3378 9c3c
000000a0: 12fa c53c 1588 083c 6e76 b63c bb15 a13c
000000b0: e4e8 ca39 8c15 c63c 69da b63c 2670 9b3c
000000c0: 5297 c6b9 022a 803c 4065 a83c 1eb5 fa3a
000000d0: ebed a63a 9980 ab3c 9cb7 9e3c 5c3c 57bc
000000e0: 3489 903c d647 c9bb 3b9d c0ba b126 7cbc
000000f0: e46c 9e3b fa4e b43c f29d a03c e1a5 053d
00000100: b360 a13c a1b9 c63c 5340 c83c db10 79bc
00000110: d1a5 803a 4e4b c13b 54f7 863c d73a 7ebb
00000120: 8638 103c 0cf6 3fbc 4ad8 8b3b 12ef dd3c
00000130: 435d 9b3c 7ce7 9fbb 9ce4 ba3c 6b6f dd3c
00000140: 830c dabb e17d b03c cc71 bc3c 6e43 9e3c
00000150: ab01 ad3c 32d8 c2bb d2da 8cbb 8341 2a3c
00000160: 2d5b 053c 8dd6 12bb f09c 81bc 8319 26bc
00000170: 0cda b03c 391f 4abc 8633 28bb 5719 c03c
00000180: 2804 963c ee9d 843b 4d4b ae3c 07b6 a83c
00000190: 7fc0 ec3c 9ed0 5d3c 5cae 4e39 e0ad c53c
000001a0: dd78 a43c 63ff f9bb 8343 cf3c 6da6 c23b
000001b0: 2732 28bc b980 67bc ba08 7e3c a0eb a13c
000001c0: 121d 9239 b953 613c 750a 29bc 3da4 b93c
000001d0: dc41 593c 8736 8b3c 9260 67bc 7312 93b9
000001e0: 1543 80bc aa60 cb3a 55c8 bb3c b0fb af3c
000001f0: 385f 863c a8f4 ab3c 9aaf 2dbc 7eb7 9b3c
0.0140623925 0.0030725754 0.022951458 0.022868214 0.015350618 0.0057811458 0.023010679 -0.014828831
0.021818388 -0.008481371 0.024600817 0.014157203 -0.00023895052 0.021542422 -0.006994982 0.044390794
0.021326365 0.02731965 0.026477946 0.029474022 0.016517723 -0.018007496 -0.010664601 0.034180652
0.029840596 0.019591339 0.019983554 -0.0029081616 -0.0031986984 0.019811908 0.014565847 0.030339805
-0.008880214 -0.009643586 -0.010084879 0.029163674 0.016651195 0.01615527 0.001535978 0.019100284
0.024167094 0.008333226 0.022273269 0.019663682 0.0003870196 0.024180196 0.022320943 0.018974375
-0.00037878245 0.01564503 0.020556092 0.0019127463 0.00127357 0.020935344 0.019374661 -0.013136949
0.017643549 -0.0061425967 -0.0014695296 -0.015390084 0.004834758 0.022010315 0.019606564 0.032628898
0.01969943 0.024258437 0.024444735 -0.015201773 0.0009815042 0.0058988696 0.016475357 -0.0038792395
0.008802539 -0.011716377 0.004267727 0.027091537 0.01896537 -0.00487989 0.022814088 0.027030667
-0.0066543235 0.021544399 0.023003481 0.019319262 0.02111896 -0.0059461826 -0.0042985464 0.010391596
0.008139414 -0.0022405714 -0.015821904 -0.010137918 0.021588348 -0.012336546 -0.0025665476 0.023449583
0.018312529 0.004047147 0.02127614 0.02059461 0.028900383 0.013538508 0.00019710645 0.024130762
0.020077163 -0.0076293214 0.025300747 0.0059402497 -0.0102658635 -0.014129811 0.01550501 0.019765675
0.0002786895 0.013752871 -0.010317435 0.022661323 0.013260331 0.016993774 -0.014122145 -0.0002805177
-0.015656987 0.0015516479 0.022922674 0.021482319 0.016402826 0.020990685 -0.010600949 0.019008394
