resgcn_runs/resgcn_improved_besthp_from_tuning.pt (torch, 870578 bytes, 16 tensors)

blocks.0.conv.bias f4 [128]
000000 74 cb be 36 5e 19 09 38 d6 8f 4e b7 e6 a5 4c 37
       5.6861263e-06 3.268697e-05 -1.2312046e-05 1.2197974e-05
000010 4d a8 33 b8 e2 76 c6 37 9e 45 ab 37 bc 40 0d 37
       -4.2833668e-05 2.3658798e-05 2.0417207e-05 8.419327e-06
000020 f7 fe 70 b8 97 31 7b b8 60 72 64 b7 a0 41 d4 b7
       -5.7457913e-05 -5.9889247e-05 -1.3616489e-05 -2.5302928e-05
000030 98 eb b9 b6 84 39 9a b6 e9 5c 08 38 75 54 8f b7
       -5.5408564e-06 -4.5962533e-06 3.2511456e-05 -1.7086257e-05
000040 26 bd ac 37 2f cb 9b b7 a9 c1 30 b8 b8 33 23 b7
       2.0592077e-05 -1.8572055e-05 -4.214203e-05 -9.727599e-06
000050 78 33 ab b6 45 11 a8 37 bc ee 27 b8 d1 5a db 37
       -5.102189e-06 2.0035202e-05 -4.003824e-05 2.6149124e-05
000060 80 c1 e7 37 2f d2 15 38 02 52 6a 37 13 7e 48 38
       2.7627451e-05 3.5720117e-05 1.3966581e-05 4.780113e-05
000070 78 b5 52 b7 e0 c4 59 b8 98 13 0f b8 2e 99 1f b8
       -1.2559227e-05 -5.1920186e-05 -3.4112105e-05 -3.8051214e-05
000080 0d a5 b6 b7 a2 7d 8f 37 4e 1b 30 37 2f 47 19 b8
       -2.1772948e-05 1.710543e-05 1.0496775e-05 -3.6544337e-05
000090 a4 d0 b5 b7 80 cd 1b b5 bd ef 55 38 80 02 37 b7
       -2.1674037e-05 -5.804104e-07 5.100643e-05 -1.0908232e-05
0000a0 7f 67 fa b7 8c b7 3e 37 7a c6 f9 37 64 22 c1 b6
       -2.9850517e-05 1.1367618e-05 2.9775536e-05 -5.755852e-06
0000b0 00 91 a2 b7 16 52 68 b7 8c 6c 41 37 48 65 5a b8
       -1.9379426e-05 -1.384739e-05 1.15289695e-05 -5.2069576e-05
0000c0 08 d3 5a 38 6a 53 e6 37 d2 ae 7b 38 18 31 69 38
       5.217179e-05 2.745698e-05 6.0005877e-05 5.559725e-05
0000d0 14 45 e1 b7 ca 41 e5 37 48 37 c8 36 c8 f0 4e 37
       -2.6854257e-05 2.7329563e-05 5.9669e-06 1.2334618e-05
0000e0 ae 8d 20 38 43 b3 20 b8 34 06 53 b7 c6 df 12 37
       3.8278922e-05 -3.8313923e-05 -1.2578024e-05 8.754379e-06
0000f0 ff b1 00 38 23 5c f1 37 a2 e6 1a 38 96 fc 29 38
       3.068335e-05 2.8772343e-05 3.6931255e-05 4.052798e-05
000100 e8 18 2e b8 c2 55 a0 b7 8f 42 2a 38 6c f0 f4 b6
       -4.150803e-05 -1.911342e-05 4.0593146e-05 -7.2997555e-06
000110 62 ac cb 37 f7 af d8 b7 a6 28 08 38 b6 8a 73 b7
       2.4279758e-05 -2.5831147e-05 3.2462784e-05 -1.4516225e-05
000120 fc 08 44 b8 d6 73 4d b8 0a 00 cf b7 39 0e 5e 38
       -4.673841e-05 -4.898369e-05 -2.4676341e-05 5.294217e-05
000130 ae cc 23 37 58 a8 3a b8 0c 1c cf 37 36 dc 7c b7
       9.763213e-06 -4.4502638e-05 2.4689383e-05 -1.5071642e-05
000140 50 d4 0e 36 12 60 fc 37 be 78 23 38 de d4 1b b7
       2.128323e-06 3.0085477e-05 3.897468e-05 -9.288282e-06
000150 14 f6 cf b6 08 f1 28 b6 f4 4e e8 b7 58 d8 00 b8
       -6.197728e-06 -2.517425e-06 -2.769332e-05 -3.0719064e-05
000160 6a 00 3f 38 1b b9 cb 37 50 89 d4 35 82 be 6d 38
       4.5538334e-05 2.4285682e-05 1.5835194e-06 5.6682627e-05
000170 fc 42 7a b8 00 00 52 33 a7 1f 06 38 47 84 80 38
       -5.966703e-05 4.8894435e-08 3.1977568e-05 6.128154e-05
000180 3a b7 3d 38 4b d5 af 37 f2 15 a3 37 e0 0d bd b7
       4.5231754e-05 2.0960948e-05 1.9441333e-05 -2.2537017e-05
000190 50 33 4b b7 ce 0e 45 b8 77 ba c6 37 d4 32 4f 37
       -1.211169e-05 -4.6982248e-05 2.3690269e-05 1.2349996e-05
0001a0 43 0e d3 b7 86 0a b3 37 40 5c 4d 38 b6 2d 13 b8
       -2.5159801e-05 2.1343363e-05 4.8961723e-05 -3.5090103e-05
0001b0 34 28 46 b7 ef 18 2a 38 ae c5 1d 38 1e 94 43 37
       -1.181108e-05 4.055438e-05 3.761582e-05 1.1657392e-05
0001c0 f0 e9 9a 37 73 fa 84 37 00 b8 40 b8 a0 09 2e b8
       1.8467166e-05 1.585225e-05 -4.594773e-05 -4.1493797e-05
0001d0 74 7a dd b7 76 63 df b7 0d 38 35 38 d6 2b 2c b7
       -2.6402275e-05 -2.6629987e-05 4.3205964e-05 -1.0262205e-05
0001e0 91 5b 56 b8 07 d3 e9 b7 7d 44 dd 37 06 70 e5 b7
       -5.1106854e-05 -2.7874032e-05 2.6377145e-05 -2.7351092e-05
0001f0 21 8f 07 b8 1e fa 09 38 95 2e b4 37 48 6c 57 b8
       -3.2319807e-05 3.2896285e-05 2.1479364e-05 -5.136084e-05

blocks.0.conv.lin.weight f4 [128, 768]
000000 05 a9 a3 bc 25 f7 1a 3d 4f 49 62 3c 7c dd 8b bd
       -0.019978056 0.03783335 0.013811423 -0.06829354
000010 30 bc 18 bc 4e 91 d9 bc e0 65 0e bb 28 fc c0 b9
       -0.009322211 -0.026558544 -0.0021728203 -0.00036808965
000020 a5 8f 80 bd c1 d3 d9 3b c4 66 dc 3c 0b 8a cd 3c
       -0.06277398 0.0066475575 0.026904471 0.025090238
000030 cd 97 63 3d 3f 4a 07 3c e3 4c 92 bd 4b 8e 06 3d
       0.05556469 0.008257448 -0.07143571 0.032850545
000040 11 59 ca 3b 8b 89 59 bd 7e 8b 89 bd ed 12 b4 3b
       0.0061751683 -0.053109687 -0.06716059 0.00549542
000050 1f 87 1b 3b 5a d9 81 3d c3 ac 50 bd 18 ea b4 3b
       0.0023731661 0.06340285 -0.05094601 0.00552107
000060 a1 33 2f 3d 6b cc 30 3d 7c 27 39 3d 3a 20 cc 3c
       0.042773847 0.0431637 0.04520367 0.02491771
000070 cd d7 55 3d f6 d5 13 bd 4c a2 f7 3c 73 84 4c bd
       0.052207757 -0.03609272 0.030228756 -0.049931
000080 bd a3 7e 3d c1 a0 3d bc 2b 0e d1 3c d2 2c 00 bd
       0.06216787 -0.011573971 0.025519451 -0.031292744
000090 a1 c7 5d bd 1c 47 f4 bc fd 52 94 3d 1b 49 6c bd
       -0.05414546 -0.029819064 0.07242391 -0.057686906
0000a0 6b 1a 1e 3d 0d 5f 5f bd 54 18 cb 3c 01 bd bb 3d
       0.038599413 -0.054534007 0.024791874 0.09166909
0000b0 46 4b b4 3d 2a 8d a0 3c c9 10 f1 bb ee 5b 2f bd
       0.0880342 0.019598562 -0.0073567373 -0.04281228
0000c0 1b 71 4b 3c b4 77 b2 bc 7f 14 bb 3c de fd 8b bb
       0.012417103 -0.021785595 0.022836922 -0.0042722067
0000d0 99 ed 15 3d b2 c5 1a bb 70 14 dc b9 9b d2 1b 3d
       0.036603544 -0.002361637 -0.00041976897 0.038042646
0000e0 c1 9a 9f bc f5 86 aa bd 7a 4c ba 3d 4e 66 51 bd
       -0.019482972 -0.08326522 0.09096618 -0.051122956
0000f0 13 49 c1 3c cd 0a c3 3b 6c 66 70 3d 0f 2a 14 3d
       0.023594415 0.0059522153 0.058691427 0.036172923
000100 c6 5d a5 bd 01 62 d3 bb 1f b3 57 bd 6c e0 40 bd
       -0.080745265 -0.006450892 -0.052661058 -0.047089025
000110 20 e3 8d 3d 02 82 9f bc e0 18 c8 3c bd 98 4e bc
       0.06928086 -0.019471172 0.024425924 -0.012609658
000120 1c 9a 51 bd 20 fb b1 3d d7 1d 5c bd 49 08 61 bd
       -0.05117236 0.086904764 -0.053739395 -0.054939542
000130 5a c6 32 bd b6 5a 75 3c 60 14 0f bd fa 4b a7 bc
       -0.043646194 0.01497524 -0.03493154 -0.02042197
000140 c6 7e d6 3c ff d3 16 3c b1 09 09 bd f0 b1 fe bc
       0.026183497 0.009205817 -0.033456508 -0.031090707
000150 a0 48 e2 bc 35 8b 2d 3d d5 76 71 3d df ad a4 3c
       -0.02762252 0.042369086 0.058951218 0.02010244
000160 af 0a a4 3d 5a 40 85 bd 6d 7c 33 3d 85 a6 43 3d
       0.0800985 -0.06506415 0.043819834 0.047766227
000170 a8 d0 20 3d 8c ec ba bc 17 2b 8f bc ab aa 65 bd
       0.03926149 -0.022817872 -0.017476602 -0.056070965
000180 f6 77 5e bd 50 a8 df 3c b2 98 36 bc ab 77 97 bd
       -0.054313622 0.027301937 -0.011144804 -0.07395872
000190 b4 2a a3 bd ec 5a 57 3d 44 f1 8a 3c 42 5c 69 bd
       -0.07967129 0.052576944 0.016960748 -0.05697275
0001a0 35 18 76 3d d3 b7 2d bb 27 8e ef 3c a8 75 6a bd
       0.06008168 -0.0026507273 0.029242588 -0.057241112
0001b0 44 21 f7 3c 2c f3 f2 3c 76 9a 6e 3d cb 95 1b 3d
       0.03016723 0.029656969 0.058252774 0.03798465
0001c0 91 97 95 3d f2 f8 9c bc 2d 20 5a bb 7d 28 70 bd
       0.073042996 -0.019161675 -0.0033283338 -0.058632363
0001d0 3a 78 2b 3c 66 14 21 bd 5e 6a 85 bd 20 b2 48 3d
       0.010465676 -0.039326094 -0.065144286 0.048998
0001e0 f6 c8 68 3d 5b 88 1e 3b 94 1a e5 bc 27 79 4a bc
       0.056832276 0.002419016 -0.027966775 -0.0123579865
0001f0 fb 7b 5f 3c ff c4 b2 3c 14 33 a1 3d 25 85 52 bd
       0.013640399 0.02182245 0.078710705 -0.051396508
000200 9d ad 59 bd ad f7 19 bd c1 16 5a 3d 27 c6 4b bc
       -0.053144086 -0.037589718 0.053244356 -0.01243738
000210 29 73 22 bd 86 c0 0f 3d 86 0c 96 3d 2e 42 e9 bc
       -0.039660607 0.035095714 0.073266074 -0.02847394
000220 d0 35 84 bd 0e bd cb bc 60 de 87 bd 97 45 56 bb
       -0.064555764 -0.024870422 -0.066342115 -0.0032695287
000230 c9 46 76 3d 6b 53 a6 3b 3e bf 92 bc e8 ac 9d bd
       0.0601261 0.005075862 -0.017913457 -0.07698995
000240 48 a5 2c bd 07 56 8e 3d ab 6c 64 bd 08 48 f1 3c
       -0.042149812 0.06950002 -0.055767696 0.029453292
000250 62 60 35 3d d7 91 27 3d c9 97 19 bc 6c 22 2e bc
       0.04428137 0.040910568 -0.009374567 -0.010628324
000260 25 86 41 bb 21 e7 92 bc 6f bf 79 bb 43 c5 e9 bc
       -0.002952942 -0.017932476 -0.0038108488 -0.028536445
000270 5f 00 4d bd cf dd 94 bd c3 9c b7 3d 94 4f 8c 3b
       -0.050049182 -0.07268869 0.08965447 0.0042819474
000280 d6 66 26 bc 2b 0e 2e 3d 58 1f db bc 17 6e 83 bc
       -0.010156354 0.04249398 -0.026748344 -0.016043706
000290 dc 9c 8c bd 56 a1 d8 3c 69 b7 3b 3d bf 82 44 3c
       -0.06865856 0.026444118 0.04582921 0.011994063
0002a0 74 60 b7 3c 41 a5 32 bd 4a df 91 3d b4 5b be ba
       0.02238486 -0.04361463 0.07122667 -0.0014523179
0002b0 fc 29 29 3c 4a 59 20 3d 4f ca 37 bd 38 91 09 bc
       0.010324951 0.039147653 -0.04487067 -0.008396439
0002c0 69 08 10 3c fb 60 8c 3d 1a 28 8e bd f5 35 6c 3d
       0.008791068 0.06854435 -0.069412425 0.057668645
0002d0 10 7c 5a bc a7 55 8c 3c af 5a 89 3c d5 77 4d bd
       -0.013335243 0.017130686 0.016766874 -0.05016311
0002e0 c8 f4 76 3c 15 f0 85 3d ce 26 39 bc ac 4d 1d 3d
       0.015073009 0.06539933 -0.011300756 0.03840415
0002f0 2f eb 80 3c b8 32 6e 3c 18 4e 24 3d fb c5 f5 bc
       0.015737144 0.0145384595 0.04011354 -0.030001631
000300 b5 8f 56 bd a4 df 52 3d f8 ef b1 bc da 30 0c 3d
       -0.052383143 0.05148281 -0.021720871 0.034226276
000310 44 05 d7 3b a6 0c 8a 3d 27 ed 06 bd 66 2d ca bc
       0.006561907 0.06740694 -0.03294101 -0.02467985
000320 af 73 c3 bc a3 dc 80 3c cb 5a 39 bd be 81 f4 3c
       -0.023858873 0.015730208 -0.045252603 0.029847022
000330 30 6b 34 3d 6d b5 3c bd b3 a6 e9 3c 70 ba 2d bd
       0.044047534 -0.04607146 0.028521871 -0.04241413
000340 1b 08 82 3c e2 c4 a3 bc 7a f6 42 3d 56 a5 54 3d
       0.015873006 -0.019991342 0.04759834 0.05191549
000350 0f df b7 3c 0d 37 20 3c 47 15 3a 3c f7 40 1a 3d
       0.02244523 0.00977875 0.011357612 0.03765961
000360 df 17 87 bd c8 fb 2b 3d a5 a3 3e 3d 92 1c 5f bd
       -0.0659635 0.041988164 0.046542782 -0.054470606
000370 19 64 48 3c a5 50 da bc e3 eb e5 3c 57 2d cf 3a
       0.012230896 -0.026649782 0.028066581 0.0015806359
000380 2f 41 34 3d ec a5 dd 3b 47 69 9f bd c1 86 43 3d
       0.044007476 0.006764164 -0.07783752 0.047735933
000390 99 26 91 3c 82 95 8d 3c 3c 5d a3 bd 73 d5 14 3c
       0.0177186 0.017283205 -0.079767674 0.009084093
0003a0 8e 47 49 3d d9 e5 18 3b 73 67 b1 bd d1 c9 19 3d
       0.049140505 0.002333036 -0.086623095 0.037545983
0003b0 4d 80 86 bc 68 21 5f bd f5 93 d5 3c ab cf 46 3d
       -0.0164186 -0.054475218 0.026071528 0.04853789
0003c0 d2 0f a5 bd 9f 1a f0 3c f6 37 e3 bc 47 8e e7 3c
       -0.08059658 0.029309569 -0.027736645 0.028266085
0003d0 e6 ab 45 bb 67 be 90 3d 40 e2 3c bd dd 08 c2 bb
       -0.0030162274 0.07067566 -0.046114206 -0.0059214667
0003e0 fc d6 93 3d 7f ff a8 bc 32 61 c1 3c 99 77 81 3d
       0.072187394 -0.020629643 0.023605917 0.063216396
0003f0 8f 98 85 3d 2d 57 46 3c 91 1a 11 3d d1 13 53 3d
       0.06523239 0.012105745 0.035425726 0.05153257

blocks.0.bn.module.weight f4 [128]
000000 4d ae 7f 3f 7e 3d 78 3f 48 cb 81 3f 93 eb 7f 3f
       0.99875337 0.9696883 1.0140162 0.9996883
000010 fa 95 80 3f be 62 79 3f 66 72 76 3f bc 05 80 3f
       1.0045769 0.97416294 0.9626831 1.000175
000020 e2 27 7d 3f 59 b6 81 3f fe 16 79 3f 48 da 7b 3f
       0.9888898 1.0133773 0.9730071 0.98379946
000030 ff 45 7c 3f 91 ef 7e 3f 58 0a 7a 3f 0d be 7f 3f
       0.98544306 0.995843 0.97672033 0.9989937
000040 7e a1 7b 3f 09 70 76 3f 9e 4c 7d 3f 19 a0 78 3f
       0.9829329 0.962647 0.98945034 0.9711929
000050 93 31 7c 3f b2 62 80 3f c7 89 81 3f 20 9f 76 3f
       0.98513144 1.003012 1.0120171 0.96336555
000060 1e 50 82 3f 90 51 7e 3f 2a 94 79 3f 08 1d 80 3f
       1.01807 0.99343204 0.97491705 1.000886
000070 11 e4 7e 3f 5a 0c 81 3f af 9f 7b 3f e8 39 7b 3f
       0.9956675 1.0081894 0.9829053 0.9813523
000080 49 5c 7c 3f 76 15 77 3f b4 63 81 3f 4c 19 7a 3f
       0.98578316 0.9651712 1.0108552 0.9769485
000090 cf af 76 3f 48 27 7b 3f fc 1a 82 3f 27 60 80 3f
       0.9636201 0.98106813 1.0164485 1.0029343
0000a0 c0 c8 81 3f 74 b8 77 3f 4c 55 7e 3f 07 50 77 3f
       1.0139389 0.9676583 0.993489 0.9660649
0000b0 12 e6 7c 3f 2c 53 7a 3f 4b cc 7a 3f 89 e9 78 3f
       0.9878856 0.9778316 0.97967976 0.97231346
0000c0 07 9c 7c 3f 60 a1 78 3f 1f 2f 7e 3f 3a d0 81 3f
       0.9867558 0.9712124 0.9929065 1.0141671
0000d0 9d ea 7a 3f 82 c3 80 3f 40 67 7b 3f 96 6c 7f 3f
       0.9801424 1.0059664 0.9820442 0.99775064
0000e0 a7 6b 81 3f b4 eb 79 3f ec 35 78 3f df 06 7b 3f
       1.0110978 0.9762528 0.9695728 0.9805736
0000f0 35 61 7b 3f 99 56 7f 3f 3f bf 7d 3f 00 7c 7a 3f
       0.981952 0.9974151 0.99119943 0.9784546
000100 ee dc 75 3f c1 a2 7c 3f ce c0 78 3f 12 5d 7b 3f
       0.96040237 0.9868584 0.97169197 0.9818889
000110 19 f5 7f 3f 5a 2b 7c 3f 0f 5c 7a 3f cd b3 81 3f
       0.99983364 0.9850365 0.9779672 1.0132996
000120 6f 16 81 3f 62 3b 7b 3f 0c 2d 7b 3f 9e 31 80 3f
       1.0084971 0.98137486 0.9811561 1.0015142
000130 89 26 7d 3f 53 64 7a 3f 54 44 81 3f 5e 9e 7b 3f
       0.98886925 0.9780933 1.0098977 0.98288524
000140 d7 c8 80 3f f0 15 80 3f e4 df 7e 3f c2 bd 7d 3f
       1.0061291 1.0006695 0.9956038 0.9911767
000150 26 d7 79 3f e1 df 7b 3f be de 7a 3f c9 f6 77 3f
       0.97593915 0.9838849 0.9799613 0.9686094
000160 dc 02 81 3f 37 c8 7f 3f 98 c9 78 3f ae 79 81 3f
       1.0078998 0.9991488 0.9718261 1.0115259
000170 d7 c9 80 3f d5 ba 7d 3f 9c cc 7b 3f 75 55 7f 3f
       1.0061597 0.9911321 0.98359084 0.9973977
000180 f3 3e 7a 3f 13 c6 74 3f ea 05 7c 3f e8 7a 7b 3f
       0.977523 0.9561474 0.98446524 0.98234415
000190 ba b7 7c 3f b2 13 80 3f 35 43 7b 3f 9f 18 7d 3f
       0.98717844 1.000601 0.98149425 0.98865694
0001a0 aa 07 7b 3f 3b d4 81 3f 4d 1e 7d 3f f3 b5 81 3f
       0.9805857 1.0142893 0.9887436 1.0133651
0001b0 ec 8c 81 3f 8d a1 82 3f de 2f 7a 3f c0 9c 7b 3f
       1.0121131 1.0205551 0.9772929 0.98286057
0001c0 d5 cb 7c 3f 8b d7 78 3f 13 c8 79 3f 8b 20 75 3f
       0.98748523 0.9720389 0.97570914 0.9575278
0001d0 0a a1 7c 3f 78 14 80 3f d2 bd 77 3f a3 e6 7e 3f
       0.98683226 1.0006247 0.9677402 0.99570674
0001e0 bb ef 7c 3f b4 05 7a 3f 9e cd 7a 3f b5 3e 79 3f
       0.988033 0.9766495 0.97969997 0.9736131
0001f0 89 07 81 3f 35 0d 7d 3f 0a ed 81 3f ec ce 7b 3f
       1.0080425 0.9884828 1.0150464 0.9836261

blocks.0.bn.module.bias f4 [128]
000000 bb 52 92 3c 3a ca 99 3c 8c 66 b0 3c e9 4a a4 3c
       0.017861715 0.018773187 0.021533273 0.020055251
000010 a5 6c b8 3c f4 3c 05 3c 9f 75 d3 bc 42 28 c9 3c
       0.022512743 0.008132208 -0.025812922 0.02455533
000020 54 ce 3f 3a 63 82 de 3c 51 63 9e 3c 3f 8e 21 bc
       0.0007316817 0.027161783 0.019334467 -0.009860574
000030 12 e8 8c bb 80 49 a5 3c 7e 7a 3d b9 23 62 81 3c
       -0.004300126 0.02017665 -0.00018070076 0.015793866
000040 45 55 3e 3c ad 9a 69 bc 9e 1e 73 3c a5 1a 83 3c
       0.0116170095 -0.014258069 0.014838843 0.016003916
000050 1d 09 0b bc 32 79 64 3c 98 3b 81 3c 6a d0 a5 ba
       -0.0084860595 0.013944911 0.015775487 -0.0012650613
000060 a1 c4 d4 3c 10 50 c8 3c d8 d1 82 bc 6f 04 80 3c
       0.025972666 0.02445224 -0.015969202 0.015627114
000070 09 9b 92 3c 8c 73 35 3c 5b cb 5e bb a2 e7 19 3c
       0.017896192 0.011074912 -0.003399572 0.0093936045
000080 3e 03 3b 3b bf 44 03 bc f2 f0 a1 3c 2f 1b 52 bc
       0.0028535868 -0.008011996 0.019768212 -0.012823864
000090 70 10 df bb a2 6e 96 bb 0b 55 78 3c 18 8d a1 3c
       -0.0068073794 -0.004590825 0.015156995 0.019720599
0000a0 4b 73 be 3c dd 17 62 bc 5f 7e 4d 3c 95 65 3a bb
       0.023248335 -0.013799635 0.012542336 -0.0028441895
0000b0 85 f4 4b bb 3a 9c 90 ba db 69 51 bc 4d 09 86 3c
       -0.0031121087 -0.0011032887 -0.012781586 0.016361857
0000c0 17 71 a0 3b 1c c8 57 bc 0f eb 31 bc ca d7 a4 3c
       0.004896294 -0.013170268 -0.010859265 0.020122427
0000d0 76 70 0d bc e3 1c 5d 3c d4 7a 0f bc 29 49 df 3c
       -0.00863277 0.013495657 -0.008757312 0.027256565
0000e0 b1 27 9a 3c 1a a8 20 3c 18 e6 7c bb 44 90 1c bc
       0.018817754 0.009805704 -0.0038589295 -0.00955588
0000f0 18 7b f9 3a 08 62 f3 3b a2 53 01 3c d2 61 03 3c
       0.0019033877 0.0074274577 0.007893475 0.008018928
000100 f9 a5 8e bb 0c f0 98 3c ed cf fd 3a 9e 3c ca 3b
       -0.0043532816 0.01866915 0.0019364335 0.006171777
000110 f8 8f ee 3c b0 e6 3e bb 59 3b 83 3b f0 58 4d 3c
       0.029121384 -0.00291292 0.0040048775 0.012533411
000120 71 2b 8e 3c a1 2e 55 bb b2 26 62 bc 85 a2 8e 3c
       0.017354699 -0.0032529014 -0.013803171 0.01741148
000130 81 61 4a 3c da d2 6d bc be b7 ca 3c e4 c9 1e 3c
       0.012352348 -0.014515603 0.024745818 0.009691689
000140 50 5d af 3c 1f e5 8d ba 97 2f f2 bb d4 c1 b2 3c
       0.0214068 -0.001082573 -0.007390927 0.02182094
000150 1d d4 d1 3b eb 6e 2c 3c a2 19 0a bc b5 6c ed bb
       0.0064034597 0.010524492 -0.008428963 -0.007245625
000160 f1 e3 a8 3c 9c d1 dd 3c 2f 4d 92 3c 01 14 94 3c
       0.020616503 0.027077489 0.01785907 0.018075945
000170 4c c8 74 3c 51 5f 0e 3c 2f 20 47 bc 61 cd 2d 3c
       0.014940333 0.008689717 -0.012153669 0.010608048
000180 06 43 e0 3b 4f 70 51 3c 40 4d 0f bc 0a 20 00 bc
       0.0068439273 0.012783124 -0.008746445 -0.007820139
000190 fb 75 23 bc af e0 89 3c e5 47 13 bc 7d b6 8e 3c
       -0.009976859 0.01683077 -0.008989309 0.017421002
0001a0 78 2d 3f bc 34 97 d4 3c e2 76 79 3c 28 9f a6 3c
       -0.011668555 0.025951006 0.015226098 0.020339563
0001b0 45 e6 97 3c 53 b3 bb 3c 72 c3 a2 3c 4c 5b 75 bc
       0.018542418 0.022912657 0.019868586 -0.01497538
0001c0 11 fc eb 3c fa 11 e4 3c 48 e5 87 bc dc 96 dc 3c
       0.028806718 0.027840603 -0.016588822 0.026927404
0001d0 aa 78 3b 3b 3e 03 52 3c d7 e9 ef 3c 4e 0d 19 3c
       0.0028605857 0.012818156 0.029286308 0.009341551
0001e0 a3 d7 1b bc dd ff a1 3b 47 e8 86 bb 84 36 81 3c
       -0.009511861 0.0049438314 -0.004117045 0.015773065
0001f0 57 24 72 3c 76 b9 dc bb 37 47 fb 3c a0 5f 18 bb
       0.014779172 -0.006735976 0.030673606 -0.0023250356

blocks.0.bn.module.running_mean f4 [128]
000000 13 70 a9 3c 64 87 ce 3b 8b f2 16 bc 4e 9d 1a 3d
       0.020683324 0.006302761 -0.0092131 0.037747674
000010 72 a9 ed bb 2b 9e d1 bc 72 7e fb 3c 44 d0 a5 bc
       -0.0072528655 -0.025588116 0.030699942 -0.02024091
000020 f5 09 a7 bc d8 bc b8 bc d0 0f 4b bd 2f 1a ab bb
       -0.02039049 -0.022550985 -0.049575627 -0.005221627
000030 20 c8 a8 bc fa 85 84 bc 13 13 e1 3c a6 e9 ec 3b
       -0.02060324 -0.016177166 0.027474916 0.0072300015
000040 dc 1c 92 3c 47 5e 87 bd 1e ef 0a 3d 10 01 f9 b9
       0.017836027 -0.06609779 0.033919446 -0.00047493773
000050 d6 f8 aa bb b2 8b 3c 3d cd 84 a0 bb 07 4a f1 ba
       -0.005217652 0.04603166 -0.0048986436 -0.0018408903
000060 83 7a 47 3c 82 1d 65 ba 1a d8 a7 bc 3b fe 2a bd
       0.012175205 -0.0008740054 -0.020488787 -0.04174636
000070 7e 39 dd 3c 5c 67 34 3c d6 40 b7 3c d2 3a 44 bd
       0.027004953 0.011010971 0.022369783 -0.047907658
000080 6f b6 b1 bc 72 43 08 3d b4 63 05 bd ef 99 22 bc
       -0.021693436 0.033267446 -0.032565787 -0.009924396
000090 fe 85 07 3c af 7f 72 3c f8 de b9 3b 15 1a 8f bd
       0.008271692 0.01480095 0.005672332 -0.06987397
0000a0 d2 bb 96 bc e6 ee a7 bc f5 e1 65 bc 5c ec c9 3c
       -0.018400107 -0.020499658 -0.014030923 0.024648838
0000b0 5c e7 15 3d c3 42 b3 bc 3e 1c 32 3b 05 c1 9d bc
       0.036597595 -0.02188242 0.0027177478 -0.019257078
0000c0 8c 12 18 bd 9a 73 b8 3c 3d c0 fb ba dd e6 38 bd
       -0.037127063 0.02251606 -0.0019207072 -0.045142043
0000d0 33 d7 6e bc 57 f2 7d bc 03 65 87 3c 22 b7 0f bb
       -0.014577675 -0.015499673 0.016527658 -0.0021929224
0000e0 84 b4 35 ba 15 2f 83 3c ee 97 03 bd 0d 89 16 bd
       -0.0006931501 0.016013661 -0.032127313 -0.036751796
0000f0 ef 55 ae bb 7b a7 01 3d f2 86 1f 3d 0d e8 13 bd
       -0.0053203027 0.031653862 0.038947053 -0.036109973
000100 51 46 49 3d 16 cb 91 bc ee 9f 27 bc d1 65 4a 3c
       0.049139325 -0.017797034 -0.010231001 0.0123533765
000110 80 6b ee 3b 0f e8 cb bc f0 be b7 3c 93 99 8b bc
       0.0072759986 -0.024890928 0.022429913 -0.017041003
000120 61 a1 9f 3c 67 6f b6 bc 86 f9 86 bc fc 68 99 bc
       0.019486131 -0.022269918 -0.016476404 -0.018726818
000130 80 2d c1 bc 06 9a 07 bc 12 54 86 bc 39 39 a4 3c
       -0.023581266 -0.008276468 -0.01639751 0.020046817
000140 0d dc 26 bc f0 c3 93 3c 1f f5 50 3c b9 34 00 bc
       -0.0101843 0.018037766 0.012753754 -0.00782507
000150 ce 22 2f 3c e9 a4 01 bd bd 26 66 bb 3f ac 21 3d
       0.01068945 -0.03165141 -0.0035118305 0.039470907
000160 86 69 90 bd 78 0b 04 bc 7d 68 21 bb 3d 2c 27 bb
       -0.07051377 -0.008059375 -0.002462893 -0.0025508546
000170 ce c4 01 bd de f9 0a 3d 4c 34 9d bc b2 12 9e 3c
       -0.03168183 0.0339297 -0.019189976 0.019296024
000180 ba 3a 4d bb bf a6 dd 3c da e9 23 3b 43 be f6 3c
       -0.0031315521 0.02705705 0.0025011213 0.03012002
000190 75 99 84 3c eb 80 c0 bc 12 d6 a1 bb 0a c8 5a bd
       0.016186455 -0.023498973 -0.0049388492 -0.05341343
0001a0 69 21 cd 3b 0b be 3e 3b f1 b1 f8 bc a8 cc 91 bc
       0.0062600863 0.0029104974 -0.030358287 -0.017797783
0001b0 de 3a 39 bc dd 1c c5 3a c5 63 d6 bc 87 ca c7 ba
       -0.011305539 0.0015038509 -0.02617062 -0.0015242853
0001c0 21 fe ad bc 28 30 c6 bc 39 40 8e bc 62 f1 2b bd
       -0.021239342 -0.024192885 -0.017364608 -0.041978247
0001d0 b7 67 32 3c 6f c6 0a bd bb 6a f1 bc 93 7c 5b 3c
       0.010888985 -0.033880647 -0.029469838 0.0133964
0001e0 56 f0 11 bc d7 9b d9 bc 46 ef 35 bd 7a ca a3 bb
       -0.008907398 -0.026563568 -0.044417642 -0.0049985023
0001f0 1f 1f 0b bd c8 30 cf bc fc 99 e3 bc b2 6d 5f bd
       -0.033965226 -0.025291815 -0.027783386 -0.054547973

blocks.0.bn.module.running_var f4 [128]
000000 22 af 1a 3c 22 71 16 3c 36 53 04 3c 0d 88 1b 3c
       0.009441169 0.009182246 0.00807648 0.009492886
000010 9f 5b 08 3c 15 27 14 3c 1e 89 18 3c cb 9f 08 3c
       0.008322625 0.009042521 0.009310035 0.008338879
000020 fe f6 fd 3b aa 2d 01 3c 2b 16 11 3c bf 47 0d 3c
       0.007750391 0.007884422 0.008855383 0.008623063
000030 d5 9f 0c 3c 1f 19 07 3c 19 4a 0a 3c c3 a9 0d 3c
       0.008583029 0.008245735 0.008440518 0.008646431
000040 74 f3 20 3c 19 b8 0b 3c 93 97 13 3c 8f eb 05 3c
       0.009823669 0.008527779 0.009008306 0.008173837
000050 9e 75 11 3c ce c1 1e 3c 0c ab 10 3c 06 ef 0b 3c
       0.00887814 0.009689761 0.008829843 0.008540874
000060 ef 43 04 3c 05 66 06 3c 63 63 03 3c e5 6b 23 3c
       0.008072837 0.008203034 0.008019301 0.0099744545
000070 02 a0 2c 3c 9a 3d 0e 3c 93 b9 0b 3c 54 5d 0e 3c
       0.010536196 0.008681679 0.008528131 0.008689243
000080 c4 1b 02 3c 48 29 12 3c 8c ea 0c 3c e5 a8 08 3c
       0.00794119 0.008920975 0.008600842 0.008341049
000090 af 32 00 3c 94 54 f4 3b 40 31 10 3c d0 7d 1a 3c
       0.007824584 0.0074563716 0.008800805 0.00942941
0000a0 92 45 06 3c 9e 32 19 3c 28 72 0c 3c a7 1f 0f 3c
       0.008195298 0.009350447 0.008572139 0.008735574
0000b0 93 cf 0b 3c 30 4e 09 3c e3 c0 23 3c d6 8f 01 3c
       0.008533376 0.008380458 0.009994718 0.007907828
0000c0 80 7d 10 3c d1 9d 2d 3c af 29 fe 3b 4c c0 13 3c
       0.008818984 0.010596708 0.007756434 0.009018015
0000d0 eb 2e 0b 3c 4e 7a 05 3c 5e 46 0c 3c 5c 0e 08 3c
       0.008495073 0.0081468355 0.008561699 0.008304205
0000e0 18 76 07 3c 3f fa 30 3c 51 78 10 3c 28 4b 17 3c
       0.008267902 0.010801851 0.008817748 0.009234227
0000f0 96 06 04 3c 3b 82 03 3c 13 f5 0d 3c c9 38 29 3c
       0.008058211 0.008026655 0.008664387 0.01032848
000100 11 32 07 3c 14 5c 0a 3c a3 cc 00 3c 46 93 0c 3c
       0.008251683 0.008444805 0.007861289 0.008580035
000110 c8 43 03 3c bd 4f 09 3c a6 0e 20 3c f0 05 0b 3c
       0.008011766 0.0083808275 0.009769117 0.008485302
000120 75 c4 16 3c 1f d2 00 3c 41 86 1c 3c 29 92 08 3c
       0.009202112 0.007862597 0.009553493 0.008335629
000130 4a fc 18 3c fe a8 f9 3b 90 59 10 3c 5e df 17 3c
       0.009337494 0.0076190224 0.008810416 0.0092695635
000140 02 68 f8 3b 65 79 08 3c 80 01 01 3c 7f 89 09 3c
       0.007580758 0.008329724 0.007873893 0.008394598
000150 05 cd 0a 3c ab cc 04 3c 04 6a 10 3c 1b da 1d 3c
       0.008471732 0.008105437 0.008814339 0.00963452
000160 43 17 1b 3c b2 e9 08 3c 7b fe 1e 3c 42 11 02 3c
       0.009465995 0.008356499 0.009704228 0.007938685
000170 fa 6d 12 3c f1 84 1e 3c cb 77 00 3c b0 12 0e 3c
       0.008937353 0.00967525 0.007841061 0.008671448
000180 1d ff fb 3b 61 91 2b 3c eb 3e 01 3c 00 9c 14 3c
       0.007690324 0.010471673 0.007888536 0.009070396
000190 81 cd 06 3c 81 f0 0f 3c a2 fd 03 3c e4 a2 35 3c
       0.008227707 0.008785368 0.008056076 0.011086199
0001a0 90 45 04 3c 91 dd 0e 3c e7 f5 09 3c 42 7e ff 3b
       0.008073226 0.008719818 0.008420444 0.0077970335
0001b0 54 eb 0e 3c 3a 8e fd 3b f2 60 04 3c 0d 48 06 3c
       0.008723099 0.007737902 0.008079754 0.008195889
0001c0 79 18 04 3c f3 72 0a 3c f5 35 01 3c 8f 0e 19 3c
       0.008062475 0.008450258 0.0078863995 0.00934185
0001d0 e4 0d 02 3c b6 5a 1a 3c 22 7f 0d 3c 08 33 1a 3c
       0.007937882 0.009421041 0.008636268 0.009411581
0001e0 d5 9f 04 3c b0 92 15 3c d8 3b 10 3c 94 60 08 3c
       0.008094748 0.009129211 0.00880333 0.008323807
0001f0 d9 c9 07 3c 0f de 0f 3c 0a 50 07 3c 2b b9 fa 3b
       0.00828787 0.00878097 0.008258829 0.0076514683

blocks.0.res_proj.weight f4 [128, 768]
000000 d5 7e 7b 3a 1a a8 0f 3c f2 4d fc bb 36 2c d0 bb
       0.00095937896 0.008768106 -0.0076997215 -0.0063529266
000010 e0 d0 57 3c 6c 6f 57 3c b3 f7 14 bd 4f 36 56 3b
       0.013172358 0.013149124 -0.036369037 0.003268618
000020 93 ea 06 bd fc 30 39 bc 6e 5c 6b 3b 57 47 2f bd
       -0.03293855 -0.011303183 0.0035913247 -0.042792644
000030 42 c2 3b 3c e4 02 9c 39 a1 13 14 bc 58 51 ee 3b
       0.011459889 0.00029756792 -0.009037883 0.0072728805
000040 58 53 3e 3c 1a 0a e6 bc 9c c4 a6 b9 cb 36 fe 3a
       0.01161655 -0.028080989 -0.00031808473 0.0019394992
000050 9c ce b4 ba 51 46 83 3c d6 60 01 3c 80 3a 55 3b
       -0.0013794485 0.01602474 0.007896623 0.003253609
000060 f4 6e c8 3b 28 6a cc bb 4b 1a 37 bb 64 81 cd bc
       0.0061167423 -0.0062382407 -0.0027939256 -0.025086112
000070 9b d2 ef 3a cc ec 19 3d f8 93 ce bc 07 80 ae bc
       0.0018297018 0.037579343 -0.025217041 -0.021301283
000080 6f dd 49 3c 6e 3d 05 bc 44 dc 6a 3a 9d 28 8c bc
       0.01232086 -0.008132322 0.0008959214 -0.01710921
000090 a2 9d 7d 3c 57 91 19 bc b0 58 82 3b 15 01 16 bc
       0.015479477 -0.009373031 0.0039778575 -0.009155531
0000a0 62 a7 96 bb 0c 0b 4a bd 36 b0 a0 3c 58 c0 78 3b
       -0.0045975903 -0.04932694 0.019615274 0.0037956443
0000b0 66 41 3b 3c 80 0f 2d 3c c5 92 59 bb 9f 80 82 bc
       0.011429166 0.0105627775 -0.0033199054 -0.015930472
0000c0 19 de 1f bc b3 61 ac 3c cf 6c 8c 3c a2 4c 85 3c
       -0.009757542 0.02104268 0.017141728 0.016271893
0000d0 3d 75 8c 3c 70 b0 91 bc 9e fb 62 3c 57 f0 c0 3b
       0.017145747 -0.017784327 0.0138539355 0.0058880257
0000e0 08 bd de bb 99 b8 0a bd 37 f2 d3 3c 3f dc 2a 3c
       -0.0067974366 -0.033867452 0.025872333 0.010428487
0000f0 ac 60 ad bb 93 56 25 3c b3 8e 8d bc 82 6c b8 3a
       -0.005291065 0.010091442 -0.017279958 0.0014070424
000100 80 90 23 bc 34 c2 ef 3c 40 50 bb ba 6a 07 bc 3b
       -0.009983182 0.029267408 -0.0014290884 0.0057381885
000110 df cb 84 3c eb cf 99 bc 3b 9c ea 3b 6f 1b b4 bc
       0.016210495 -0.0187759 0.0071597374 -0.021985738
000120 b8 a9 28 bc 00 5e b4 3b ca 9a d1 3c fc b0 ca 3a
       -0.01029437 0.0055043697 0.025586504 0.0015464122
000130 d2 10 01 3c 53 07 6f 3b 8f 9b 96 bb f6 98 64 3c
       0.007877545 0.0036472871 -0.0045961807 0.013952484
000140 26 4b f1 3b 66 45 17 bc 3a 14 27 bc 39 6b ad 3c
       0.0073636947 -0.0092328545 -0.0101976935 0.021169292
000150 ad e2 b9 bb 8c e6 c4 bc 0c 6c 12 3b 41 f5 0d 3b
       -0.005672774 -0.024035715 0.0022342233 0.0021661075
000160 51 88 58 bb 3d d9 3a bc 9e 40 fa 3c 0f 12 5d 3b
       -0.0033040235 -0.011404333 0.03054839 0.0033732688
000170 ba de e3 bb 00 27 76 bc 55 16 22 3b 02 82 c7 bb
       -0.0069540413 -0.015023947 0.002473255 -0.006088496
000180 dc bf 3d 3c 7a 9d 05 bc ec ab 41 bb 8a af 8d bc
       0.011581387 -0.008155221 -0.0029551936 -0.017295618
000190 f0 38 07 bd a6 08 8c bc a9 75 ee 3c ca a6 7b bb
       -0.033013284 -0.017093968 0.02910884 -0.0038398975
0001a0 13 17 8f 3b 7e d5 a5 ba db 6c ec 3c 09 d5 0f bc
       0.0043667643 -0.0012652127 0.0288605 -0.008778819
0001b0 e6 41 9c bb 71 ca 85 bc f9 15 34 3b ff 8f 0d bb
       -0.004768598 -0.016331883 0.0027478917 -0.002160072
0001c0 13 d9 9d 3a f8 16 29 bc 5c 4b 23 bb ee c1 2b bc
       0.0012042843 -0.010320418 -0.0024916744 -0.010483248
0001d0 40 87 fd 3c 77 e6 02 3c a6 f6 22 3c 44 5d df 3c
       0.030948281 0.007989517 0.009946501 0.027266152
0001e0 3c 20 8b bc 0e 09 58 bc 57 e6 60 3a ca 59 24 3c
       -0.016983144 -0.013185753 0.0008579245 0.010031173
0001f0 9d 85 6a 3c 36 e8 89 3c c9 30 d2 3c 7a 6c 8e bc
       0.014314082 0.01683436 0.025658028 -0.01738571
000200 0b f2 10 bd 9e 2e bd bc 2a 31 d9 bc 29 e9 df bb
       -0.03538708 -0.023093518 -0.026512701 -0.006833215
000210 95 8b dd bb d2 95 4f 3c 58 ed c2 bb 15 07 19 3d
       -0.0067610242 0.012669997 -0.0059487037 0.03736027
000220 c7 0a f8 ba 3d ba db 3b 4a 72 cd 3b 78 40 cf 3b
       -0.001892411 0.006705551 0.006269728 0.006324824
000230 98 16 d7 bc 7a 69 cb bb 21 13 a6 3b 7a e6 fe b8
       -0.02625589 -0.006207642 0.0050681983 -0.000121545934
000240 8b 77 18 bc 52 c7 47 3b c4 8a d0 ba a9 4a 22 bb
       -0.009305845 0.0030483794 -0.0015910496 -0.002476374
000250 de 0f 39 3c d3 8f 08 bb a9 22 ea 3b 06 f6 09 bc
       0.011295287 -0.002083768 0.007145245 -0.008420473
000260 a8 65 41 bc c5 52 25 bc 2e 29 1d 3d 02 a1 e6 ba
       -0.011804022 -0.010090535 0.03836935 -0.0017595591
000270 04 1f 76 3b 4b 78 9a 3b 85 1b 5d 3c f8 25 93 3c
       0.0037555108 0.004714047 0.013495331 0.01796244
000280 f2 ee 89 3c fa e9 d6 bc f5 53 13 3b 7e 71 b3 bb
       0.01683757 -0.026234616 0.0022480462 -0.005476176
000290 a6 99 80 bb f0 60 36 bc a8 47 1e bc 05 06 85 bb
       -0.0039245663 -0.01113151 -0.009660639 -0.0040595555
0002a0 f8 60 e4 3c 6a b1 7e 3c a7 53 12 bc 21 89 aa 3b
       0.02787827 0.0155452285 -0.008931077 0.0052043353
0002b0 8f 0c 41 3c cb f7 9b bc 31 95 45 bc 80 63 0c 3d
       0.011782779 -0.019039055 -0.012059496 0.034274578
0002c0 29 96 2f ba a6 13 a1 3c 37 72 aa 3a d1 2b d4 bc
       -0.0006698096 0.01966269 0.0013004009 -0.0258998
0002d0 ec db 8d 3a 30 60 d8 bc 7b 03 d5 bb 4e c8 a8 ba
       0.0010822988 -0.026413053 -0.006500659 -0.0012877078
0002e0 26 5a 0f bb 9a 8a c6 3b 42 38 cd bb f1 08 f2 3a
       -0.00218738 0.006059003 -0.00626281 0.00184658
0002f0 a9 7d 47 3b 3b ba 33 3c 7b 32 4f 3c 01 da 0b bc
       0.003043989 0.010969694 0.012646313 -0.008535863
000300 b9 a0 85 3c 95 35 94 bc 7d e3 8d 3c ba e8 58 bb
       0.01631199 -0.018091956 0.017320389 -0.00330977
000310 d9 01 1e bc bd a8 6c 3c a1 60 90 3c c8 af af 3b
       -0.009643995 0.014444527 0.017624201 0.005361531
000320 e6 06 09 3c db 8e 4d 3b 70 63 84 3c de ad 9f 3b
       0.008363461 0.0031365666 0.016160697 0.0048730215
000330 f1 70 1b 3b a5 b1 16 bc e4 73 0e bd a6 b3 4b bc
       0.0023718441 -0.009197627 -0.03477849 -0.012432968
000340 4e 88 34 3d 04 36 85 bc a3 c8 90 3c 6c d4 22 bc
       0.044075303 -0.016261108 0.017673796 -0.009938341
000350 42 0d e8 3b 10 47 5e bc 99 4c 90 bc 93 48 9d 3c
       0.0070816586 -0.013566747 -0.01761465 0.019199645
000360 96 9c 69 bb 99 e8 b4 3b 1f 72 77 3b 04 e0 1c bc
       -0.003564631 0.005520892 0.003775723 -0.009574894
000370 f0 ee eb 3b 45 83 aa bc fd 7f 44 3b 84 26 ce bb
       0.0072001144 -0.020814547 0.0029983514 -0.0062912125
000380 0b c7 80 3b 6f 3d 22 bc 9a 04 46 bc 4e 19 7e b9
       0.003929978 -0.009902342 -0.012086058 -0.00024232754
000390 12 97 fe ba 1d f1 af 3b 33 8f 16 bc 5a d2 f2 bb
       -0.0019423685 0.005369319 -0.009189415 -0.0074103298
0003a0 bd 42 5c ba 36 e0 b9 bb 08 6e 3d bc 9e 71 80 bc
       -0.0008402279 -0.00567248 -0.011561878 -0.015679177
0003b0 67 32 ce bc 6f 2f 0c bd e4 bd 80 bc c8 d5 7b bc
       -0.025170518 -0.034224924 -0.015715547 -0.015370794
0003c0 29 56 03 bb 2b 3f a0 3c 26 1a 91 bc b6 22 af 3b
       -0.002004037 0.01956137 -0.017712664 0.005344714
0003d0 23 09 39 3c 20 15 5e bc 28 44 e7 37 85 8a 8e bb
       0.011293682 -0.013554841 2.7569084e-05 -0.004350009
0003e0 5e e7 45 3a a0 77 27 b8 04 68 34 bc 6d 5c 9c bc
       0.000754943 -3.9927312e-05 -0.011011127 -0.01908704
0003f0 fc 08 a4 bc 20 9d 98 bb 4c a3 58 3c e8 8b fe bb
       -0.020023815 -0.0046574026 0.013222527 -0.007768143

blocks.0.res_proj.bias f4 [128]
000000 14 a9 05 bd 5f 34 ba 3c d8 60 aa 3c 7e 71 38 3b
       -0.03263195 0.02273005 0.020798132 0.0028143818
000010 80 d8 17 bc dc 90 7c bc 5c 81 07 bd f5 f0 c0 3c
       -0.009267926 -0.015415397 -0.03308235 0.023552397
000020 94 46 0f 3c 9b 26 92 38 58 bf da 3c e9 d4 a3 bc
       0.0087448545 6.969013e-05 0.026702568 -0.019998984
000030 94 22 22 bd ac 2b c0 3c f7 90 e4 3b 89 a7 81 bb
       -0.039583758 0.023458324 0.006975289 -0.0039567393
000040 1d f2 1e bd 19 18 9e 3c 19 cd 2f bc 89 b0 73 bc
       -0.038805116 0.0192986 -0.010730051 -0.014873632
000050 5e 28 2c bd 44 97 50 ba c9 96 a9 3c c6 10 4f 3c
       -0.042030685 -0.00079571106 0.020701783 0.012638276
000060 7f 74 ce 3c 12 17 86 3b 13 7b 86 3c 59 54 34 3d
       0.025202034 0.0040921057 0.016416108 0.044025753
000070 fb cf 34 bb c9 20 2d 3d f0 f6 e5 bb a7 2d 59 3c
       -0.0027589786 0.042267594 -0.0070179626 0.013255513
000080 7e f5 5e bc d7 37 29 3c 41 98 cc 3c c5 3e aa 3c
       -0.013608335 0.010328255 0.024974944 0.020781884
000090 a0 20 e6 3c ed 73 ca 3c 50 59 05 3d a3 73 de bc
       0.028091729 0.02471348 0.03255588 -0.02715475
0000a0 21 b9 29 3c 3c 6c 30 bd e2 9e 12 3d 64 4b 1e 3c
       0.01035908 -0.04307197 0.035796054 0.009661529
0000b0 96 f7 e9 3a b0 f7 18 3d 23 cf 17 3b f7 f6 8e bc
       0.0017850276 0.03734559 0.0023164235 -0.017451746
0000c0 f4 47 41 3c c6 a6 49 bd 12 79 3c bd 88 65 26 3d
       0.01179694 -0.049231313 -0.0460139 0.04062417
0000d0 67 c2 43 3c 64 8c 67 bc c9 da e9 3b 72 1f c6 bc
       0.011948205 -0.014132593 0.007136677 -0.024184916
0000e0 3f 2c 80 3b 02 7a ab bc 06 cb 90 3b 20 81 6e bc
       0.0039115245 -0.020932201 0.0044187335 -0.014557153
0000f0 d3 9e 24 bd 81 a9 37 3c 85 1d e0 bc da bf 07 bd
       -0.04019053 0.0112098465 -0.027357826 -0.03314195
000100 99 07 10 3d 4c e7 ae 3c 90 a3 07 bd 80 f9 11 3d
       0.035163496 0.021350525 -0.03311497 0.035638332
000110 fa c5 18 3d d3 76 36 bb 71 5a f4 bc 83 49 9e 3c
       0.03729818 -0.002784182 -0.029828282 0.019322162
000120 fa 56 84 ba fa a5 ec bc 4a 9c 1f bd 96 2c 01 3d
       -0.0010096722 -0.028887738 -0.03896741 0.03153666
000130 c2 4b 93 3c 04 1e 3f bd b2 4b 7c bc f6 7a cc bc
       0.01798046 -0.046659485 -0.015398907 -0.024960976
000140 e1 42 e9 3c 12 96 ff bc 18 25 db bc 27 0b ae 3c
       0.028474273 -0.031199489 -0.026751086 0.021245552
000150 d4 b6 85 3c d8 4c bb ba 97 ae a5 3c 4c 2b 1f bd
       0.01632253 -0.0014289869 0.020224852 -0.03885965
000160 7b e3 92 3b 6e 00 2e 3c 7e 25 5e bc 54 3e 90 3c
       0.004482684 0.01062022 -0.0135587435 0.017607845
000170 31 d9 1d 3c 2e 3d 69 bc 07 c3 8b bb e7 a0 69 3c
       0.009634302 -0.014235778 -0.0042651924 0.0142595535
000180 ee 5b 06 bd 80 b0 f6 bb d6 58 98 3a 51 33 c7 bc
       -0.032802515 -0.0075283647 0.0011623155 -0.024316462
000190 b3 af 2a bd 3b 32 eb bc 54 fc 01 bd fe ce 32 3d
       -0.041671466 -0.028710475 -0.03173478 0.043654434
0001a0 53 7b 01 bd 5e 25 52 3c c9 41 16 bd f5 b2 62 3d
       -0.03161175 0.012826292 -0.03668383 0.055346448
0001b0 c9 ca c8 3b 2a 6b 34 3d 40 55 9e 36 22 28 47 bd
       0.0061276895 0.044047512 4.7186913e-06 -0.048622258
0001c0 e7 58 0d 3d 0a d4 a7 3b 19 85 b4 3b 81 80 61 bb
       0.034508612 0.0051217126 0.0055090305 -0.003440887
0001d0 dd ef d1 3c bc 03 9d bc a1 33 25 bd 18 b2 80 bc
       0.025627071 -0.01916682 -0.04033244 -0.015709922
0001e0 46 37 94 3b 5f 0f 53 bc 90 b8 e8 bc 7b a5 bd bc
       0.0045231907 -0.012882083 -0.028408319 -0.023150196
0001f0 5f 72 ba 3b 90 24 ab 3b 34 63 1f 3d 2d b5 67 bc
       0.0056899036 0.0052228644 0.038912967 -0.014142317

blocks.1.conv.bias f4 [128]
000000 49 c4 f0 37 eb 6d 06 b8 28 e2 02 38 31 eb b6 37
       2.8701632e-05 -3.205046e-05 3.120504e-05 2.180561e-05
000010 e0 85 8b b5 7c 8f d9 37 24 27 ce b7 cc 59 19 b8
       -1.039527e-06 2.5935231e-05 -2.457534e-05 -3.6561672e-05
000020 00 51 9c b4 40 b4 ad 37 ec ff 63 37 64 fa f8 37
       -2.91162e-07 2.0707143e-05 1.3589841e-05 2.9680501e-05
000030 9a 18 94 b7 a0 8f 30 b7 d3 e7 1f 38 66 78 54 37
       -1.765443e-05 -1.0523858e-05 3.8124457e-05 1.2664217e-05
000040 d6 2b 25 38 2d eb ba 37 bc 46 1e b8 52 d1 14 b8
       3.937989e-05 2.228244e-05 -3.7736012e-05 -3.5480894e-05
000050 86 8f 7d b7 35 81 a7 b7 ec 9f e7 37 59 ca 17 b8
       -1.5113392e-05 -1.9968118e-05 2.7611815e-05 -3.6189656e-05
000060 e8 a9 9c b6 bc 7c 8e b7 98 58 09 b8 40 16 1f b8
       -4.668942e-06 -1.6985803e-05 -3.2745855e-05 -3.7929276e-05
000070 c8 2f ca b7 e9 0f e8 37 26 a0 03 b8 a8 07 b6 b7
       -2.4102526e-05 2.7663964e-05 -3.1381984e-05 -2.1699656e-05
000080 dc b5 f0 b7 7d 0e a3 b7 d4 20 21 38 f6 31 9b b7
       -2.8694914e-05 -1.943786e-05 3.8415965e-05 -1.8500705e-05
000090 53 0b a3 37 94 e2 19 b8 88 4e b0 36 2f c1 c9 b7
       1.9436387e-05 -3.668906e-05 5.254351e-06 -2.4051025e-05
0000a0 fc 0e bb 37 aa 9a 06 b8 19 f3 05 38 e8 87 13 38
       2.2299115e-05 -3.209213e-05 3.1936073e-05 3.5174104e-05
0000b0 c5 33 1f b8 1a 11 e9 b7 ff ba 19 b8 18 60 01 b7
       -3.795677e-05 -2.7783728e-05 -3.6652196e-05 -7.711373e-06
0000c0 b2 b2 00 38 5e 85 1b 38 74 b7 ab b7 90 e9 2e 37
       3.0684e-05 3.7079088e-05 -2.0470216e-05 1.0425589e-05
0000d0 a0 95 cf b7 3c 7f cb b7 fc 83 d4 b7 02 eb 19 38
       -2.4745998e-05 -2.4258734e-05 -2.533383e-05 3.669691e-05
0000e0 14 cd 08 38 f7 b0 fd b7 a2 3f bc 37 2b 28 13 38
       3.261592e-05 -3.0242356e-05 2.2440978e-05 3.508494e-05
0000f0 85 09 12 b8 10 be 4c b7 00 96 b3 b7 20 75 1a b7
       -3.481798e-05 -1.22036e-05 -2.1408312e-05 -9.206386e-06
000100 9a 53 9a 37 87 85 d3 b7 46 4a be b7 52 cd e7 b7
       1.839716e-05 -2.5215339e-05 -2.2684351e-05 -2.7632956e-05
000110 66 18 f2 37 79 29 9c 37 ab 67 dd 37 d6 e8 16 b8
       2.886001e-05 1.8615961e-05 2.6393527e-05 -3.5979632e-05
000120 0e 81 79 37 ea 03 28 37 40 6e 37 37 a8 ef ea 36
       1.4871604e-05 1.0014492e-05 1.093332e-05 7.001643e-06
000130 86 26 d1 b7 aa 7d a7 b7 01 f2 fb 37 c4 f7 2b b8
       -2.493268e-05 -1.9966468e-05 3.0034224e-05 -4.1000327e-05
000140 57 5b 1c b8 d2 21 2a 38 7c 16 ed 36 d9 9b f7 b7
       -3.7278365e-05 4.0562656e-05 7.065768e-06 -2.9517267e-05
000150 6c af 14 b8 2b 29 e5 37 a3 21 04 38 60 0f 2a 38
       -3.5449324e-05 2.7318098e-05 3.150258e-05 4.0545478e-05
000160 1d c4 c8 37 aa 72 17 b8 48 45 91 b7 1b c7 f5 37
       2.393318e-05 -3.6107995e-05 -1.7317609e-05 2.9298992e-05
000170 a7 a2 fb b7 1c fc 1b 37 39 de 1d 38 e1 6c 15 38
       -2.9997273e-05 9.297419e-06 3.7638678e-05 3.562577e-05
000180 ee 2c df b7 e5 97 d1 b7 5c 32 13 38 00 70 b5 b6
       -2.6604594e-05 -2.4985473e-05 3.5094432e-05 -5.407259e-06
000190 8f 1a 9a b7 8b 61 83 37 f0 aa 25 b8 6a cc 84 37
       -1.8370598e-05 1.5661839e-05 -3.9498264e-05 1.5830814e-05
0001a0 84 f9 1b b8 3a 85 b0 37 40 fb 9a 34 40 b9 1c 38
       -3.718726e-05 2.1042873e-05 2.8867544e-07 3.7365826e-05
0001b0 88 b0 15 b7 ec e9 c7 b6 ed b3 e1 b7 76 ef 90 b7
       -8.922194e-06 -5.9578942e-06 -2.6905875e-05 -1.7277645e-05
0001c0 2a 5a fe b7 15 09 13 38 06 9d 28 38 f5 f4 9f b7
       -3.0321145e-05 3.505599e-05 4.020056e-05 -1.9068344e-05
0001d0 60 3c a6 35 a0 65 05 b8 8c 08 dc b7 0a bf 07 38
       1.2385535e-06 -3.1804317e-05 -2.6230024e-05 3.2364427e-05
0001e0 9b 8c e4 b7 58 3e 6d 37 36 8c 34 37 d7 73 f4 37
       -2.7245193e-05 1.4140816e-05 1.07614815e-05 2.9141009e-05
0001f0 12 76 e6 b7 76 1f 1c b8 a0 17 1b b6 54 3e 8e b7
       -2.7473117e-05 -3.72226e-05 -2.3110551e-06 -1.6956743e-05

blocks.1.conv.lin.weight f4 [128, 128]
000000 d4 fd d7 3d 0a 64 c7 bd 18 c7 56 3d 43 0d ec 3d
       0.10546461 -0.09735878 0.052435964 0.11525967
000010 ea bb 0a 3e eb ea 9f 3d 5e 72 f4 3d 17 b0 d2 bd
       0.13548246 0.07808479 0.11935876 -0.10287493
000020 54 6d c5 bd 86 f0 d1 bd dd d1 19 3e e6 ab 22 3e
       -0.09639993 -0.10250954 0.15021463 0.15885887
000030 4d fa 11 3e 9c b5 c5 bd e2 3e 35 3d c1 74 de bd
       0.14255638 -0.0965378 0.044249423 -0.10862113
000040 3b 73 b7 bd e0 5a ae 3c 28 93 94 3d e2 2c f8 bd
       -0.08957525 0.021283567 0.0725463 -0.12117936
000050 70 e7 f1 bd af 21 06 3e 81 9e 84 3d 77 d2 d2 bc
       -0.11811721 0.13098787 0.06475545 -0.025735123
000060 3d d4 3f bd b2 83 6f bd 0e d1 da 3d 60 6f 87 bd
       -0.046833266 -0.058475204 0.10684405 -0.0661304
000070 f9 a5 96 3d a7 6e 11 bd 66 b9 1b 3d 4c b0 b9 bd
       0.073558755 -0.035505917 0.038018607 -0.09066829
000080 ca c9 8d bc 3e 5e 92 bc 88 28 10 3e 37 54 c9 bd
       -0.017308135 -0.017867204 0.14077961 -0.09830516
000090 ef 0f c1 bd e2 ed 5f 3b 4f d6 f3 bb 1f 5e 1a be
       -0.09426867 0.0034168889 -0.007441319 -0.15074967
0000a0 30 70 bd bd 3c bb ea bd 47 52 25 3b 86 ac 7e bb
       -0.09249914 -0.114614934 0.0025226043 -0.0038860156
0000b0 71 8b bb 3d fa 0b af 3d b4 60 ed 3d f4 2c b1 3d
       0.09157456 0.08547206 0.1159071 0.08651152
0000c0 8c c5 a7 bc 88 b1 fd 3d 8c 30 8f 3d ab 35 c9 3c
       -0.02047994 0.12387377 0.069916815 0.024561724
0000d0 64 96 b4 3d 24 4f c0 bd 87 e6 de 3d da 1d 5f 3d
       0.08817747 -0.09390095 0.10883813 0.054471828
0000e0 c9 b4 4c bb 57 f1 03 be bc 2f 06 be fa 9d 98 bd
       -0.0031235686 -0.12885033 -0.13104147 -0.07452007
0000f0 21 14 30 bd f4 dc a5 3d 0b 53 05 be 77 cd 82 bd
       -0.042987946 0.08098784 -0.1301996 -0.063868456
000100 ea 30 10 3e ea 5f f5 bb 20 fd 07 bd da 86 a2 bd
       0.14081159 -0.0074882405 -0.033200383 -0.07935877
000110 2b d7 0d be 41 b1 93 bd 19 7a c9 3d 05 b0 9f 3c
       -0.13851611 -0.07211543 0.098377414 0.019493112
000120 8e 3f 4f bd ad 38 03 3d 1f 64 b2 3d 60 70 d2 3d
       -0.05059772 0.032036472 0.08710503 0.1027534
000130 2e 90 35 3d f7 d1 9d 3c 0e eb c8 3d 2b 60 89 3d
       0.044326954 0.019265158 0.09810458 0.06707796
000140 c4 c6 b1 3d d6 f0 a0 bc 8e 60 37 3c 5b 12 cb 3d
       0.0868049 -0.01964609 0.011192454 0.099156104
000150 c7 07 26 bd cc 3f 19 3e f7 46 a8 3d 16 d5 0b 3e
       -0.04053476 0.14965743 0.082166605 0.13655505
000160 84 3d 05 be 98 ce 48 3d 76 e2 7a 3d 11 a1 ad 3c
       -0.13011748 0.04902515 0.061251126 0.021194967
000170 ea 41 04 bd 14 1e 3a 3b 07 00 d0 3d c0 b3 e9 3d
       -0.032289423 0.0028399276 0.10156255 0.11411238
000180 81 a4 16 3d ce 0a 8e 3d a8 d4 2c bd 8e c7 8e bd
       0.036777977 0.069356546 -0.042194992 -0.06971656
000190 c0 61 34 3d 90 93 11 bd 69 b0 fc 3d 13 b3 a4 bd
       0.044038534 -0.035541117 0.12338335 -0.08041968
0001a0 bf 0e ac bd e8 bd 52 3d 31 05 a8 3d ce c2 e8 3d
       -0.0840125 0.05145064 0.08204115 0.11365281
0001b0 f0 55 05 3e 1a 25 dc bd df 86 07 be ca 58 c6 bd
       0.13021064 -0.10749264 -0.13235043 -0.09684904
0001c0 81 cd 12 be 18 f5 3f bd 50 1a 06 bd 2f f9 f8 bd
       -0.14336206 -0.0468646 -0.032739937 -0.12156903
0001d0 af f4 d7 bb d4 a2 e6 3d e0 fd ad bd 9c e6 97 3c
       -0.006590448 0.11261526 -0.084956884 0.01854258
0001e0 bd 5c 2b bd 9f cd c7 3d 29 ce 3e 3d ca 21 8a bc
       -0.04183649 0.09756016 0.04658333 -0.016861815
0001f0 00 b2 67 bd 95 6b 09 3e 96 bf 2b 3c 3e f5 d2 bd
       -0.05656624 0.13419946 0.010482689 -0.103006825
000200 df 0b de 3d 02 96 b6 3d 12 d6 84 3d 10 1a 02 be
       0.10842108 0.089153305 0.06486143 -0.12705255
000210 23 46 fc 3d ea e7 2d 3c ec b2 42 bd 10 46 5d 3d
       0.12318065 0.010614375 -0.047533914 0.054021895
000220 0c ec fb bc e0 73 00 3d 19 8b be bd 92 5b 09 be
       -0.030752204 0.031360507 -0.093038745 -0.13413838
000230 d4 a4 89 bd 7e d0 59 3d 26 61 75 3d f7 41 18 3e
       -0.067208916 0.05317735 0.0599071 0.14868914
000240 34 8b 0b 3e bf 1c c5 3b 6e 0d 1e be 93 33 fb 3c
       0.1362732 0.0060153897 -0.1543481 0.030664241
000250 20 07 0b 3e a2 ee bc 3d 90 7c 0a be d6 08 97 3d
       0.13576937 0.09225203 -0.1352408 0.07374732
000260 bf 52 0c 3e 51 46 9a bc f9 d8 1f 3e fd 6e f6 3c
       0.1370344 -0.018832358 0.15610112 0.03008222
000270 33 c8 5b 3c a0 0e a1 bd 94 42 94 3d 7b c5 aa bd
       0.01341443 -0.078641176 0.07239261 -0.08338448
000280 57 d5 29 bd 60 c3 3c bd 07 10 25 3e b8 9f 75 bc
       -0.041463222 -0.04608476 0.16119395 -0.014991693
000290 5e 80 af bd 49 b1 de bd 9d b2 fe bd eb e4 6b 3c
       -0.08569406 -0.10873658 -0.124364115 0.01439784
0002a0 2f 05 1c 3e 7e b5 a0 bb f6 bd a7 3d 24 c6 99 3d
       0.15236352 -0.004904448 0.08190529 0.075084955
0002b0 ff cb 29 be 3c 71 ad bd d4 45 23 be b0 cc 09 be
       -0.16581725 -0.08468863 -0.15944606 -0.13456988
0002c0 62 32 14 3d 30 da 24 3e 8c bb 00 3e 65 16 fa bd
       0.03618086 0.16098857 0.12571543 -0.12211303
0002d0 fd 9b 16 3e 0f 6a d4 bb 3d f2 81 3d 78 bd a7 bd
       0.14707942 -0.0064823697 0.063450314 -0.08190435
0002e0 0d 9a 13 be 9b 60 a0 bd 40 b2 b2 3d 22 f4 0e 3e
       -0.14414234 -0.07830926 0.08725405 0.13960317
0002f0 e1 3d 51 3d 70 54 af 3d 99 38 f9 bd b0 41 24 3e
       0.051084403 0.08561027 -0.12168998 0.16040683
000300 af 45 3e bc f7 4f b8 bd c7 83 10 3e c9 ae 67 bd
       -0.011613294 -0.08999627 0.14112769 -0.056563172
000310 1f ca c8 bd b6 7c 10 be c2 30 54 3d 4b 9a 3e bd
       -0.098041765 -0.14110073 0.05180431 -0.046533864
000320 2d d7 91 bc 80 f3 e0 bd ee 96 f1 bd 21 e7 4a bd
       -0.0178028 -0.10983944 -0.11796366 -0.049536828
000330 10 ef 96 3d 8c cb f9 3c b7 b3 19 3d 42 4a 81 bc
       0.07369816 0.030492567 0.037524905 -0.01578248
000340 3a e6 13 3e 79 c1 1d bd 10 e9 7c 3d e2 43 7a bd
       0.14443293 -0.038514588 0.061745703 -0.061099894
000350 b3 1e ff bd 17 cb 41 3d 48 4c aa 3c b6 ba 18 3c
       -0.12457027 0.047312822 0.020788327 0.009321859
000360 d9 e1 13 3e b5 3c 97 3d db 75 40 3c 23 a6 02 be
       0.14441623 0.07384626 0.011746849 -0.12758689
000370 f3 a6 b4 bc bc 09 1b be fb 61 52 bd cd 75 db 3c
       -0.022052264 -0.15140432 -0.051362973 0.02678957
000380 7a 22 1d 3d 77 33 08 be f6 7e 22 3c 22 2a f3 3d
       0.038362958 -0.13300882 0.009917965 0.118732706
000390 00 7a 86 bd 82 3a de 3d 89 c2 c0 3b 27 37 0c bd
       -0.065662384 0.10851003 0.0058825654 -0.034232285
0003a0 9d d1 d8 3d f7 ea ad 3d 04 86 c3 3d 65 3e c9 bc
       0.105868556 0.084920816 0.09547046 -0.024565885
0003b0 bb d6 67 3d 36 08 de bc cd 97 a2 bd 93 72 c8 3c
       0.056601267 -0.027103525 -0.0793911 0.024468696
0003c0 a8 25 20 3d 20 20 e7 3d f4 4b f9 bd 57 8c 8b bd
       0.03909841 0.11285424 -0.1217269 -0.06813877
0003d0 f9 72 08 3e 0d 6e d2 3d dd 4e f6 3c ac cb 32 3d
       0.13325109 0.10274897 0.030066902 0.043651268
0003e0 7c 6e 7b bd b3 e9 41 3c aa 21 41 3c 0f 42 06 3e
       -0.061384663 0.011835503 0.011787811 0.13111137
0003f0 67 3e 86 3c 2f ef cf bd 32 e6 f6 bd d5 7f c3 3d
       0.016387178 -0.101530425 -0.12055625 0.095458664

blocks.1.bn.module.weight f4 [128]
000000 2b 2a 80 3f 93 9a 7f 3f 3f 3e 81 3f 9c cc 7b 3f
       1.0012869 0.99845237 1.0097121 0.98359084
000010 53 3e 80 3f 1b a4 79 3f 00 22 79 3f 5f 49 81 3f
       1.001902 0.9751603 0.97317505 1.0100516
000020 34 fd 7a 3f f5 14 78 3f 79 54 7e 3f 06 fb 7a 3f
       0.9804261 0.9690698 0.99347645 0.9803928
000030 2d 55 81 3f 70 dd 81 3f 06 ee 7b 3f 94 67 80 3f
       1.0104119 1.0145702 0.9841007 1.003161
000040 cc 0a 78 3f bf 96 81 3f 38 65 7e 3f cc f4 77 3f
       0.96891475 1.0124129 0.993732 0.96857905
000050 d3 da 7c 3f 91 40 77 3f c0 4c 81 3f 4b d6 7b 3f
       0.987714 0.96582896 1.0101547 0.9837386
000060 3c f0 7b 3f 4c 0c 81 3f 56 29 79 3f 0a 32 81 3f
       0.98413444 1.0081878 0.973287 1.0093396
000070 75 25 7b 3f 30 81 7d 3f 08 4f 81 3f fb 5c 7f 3f
       0.9810403 0.9902525 1.0102243 0.9975125
000080 d8 68 77 3f cd 39 7d 3f d4 c7 77 3f a7 02 7f 3f
       0.96644354 0.9891632 0.9678929 0.9961342
000090 21 6f 79 3f 98 6d 7d 3f d9 57 7a 3f 76 14 7f 3f
       0.97435194 0.9899535 0.97790295 0.99640596
0000a0 0f fd 7d 3f 31 a1 77 3f c8 3c 78 3f 99 ff 75 3f
       0.9921426 0.96730334 0.96967745 0.96093136
0000b0 c3 c9 7b 3f 5a 14 81 3f f0 93 76 3f 12 9e 80 3f
       0.9835474 1.0084336 0.96319485 1.0048239
0000c0 f3 46 81 3f f9 89 7a 3f 61 3a 7b 3f 7a bd 81 3f
       1.0099777 0.9786678 0.98135954 1.0135949
0000d0 e3 d8 7a 3f 38 8f 80 3f 51 0f 7f 3f 01 4e 7e 3f
       0.9798719 1.0043707 0.99632746 0.99337775
0000e0 27 7a 80 3f c3 64 7b 3f a2 e4 77 3f eb 74 7f 3f
       1.0037278 0.98200625 0.9683324 0.9978778
0000f0 30 e0 78 3f b8 42 7f 3f c8 74 7d 3f f8 01 82 3f
       0.9721708 0.9971118 0.9900632 1.0156851
000100 ac 59 78 3f f9 e6 7f 3f 0d a8 7f 3f e0 f9 79 3f
       0.9701183 0.9996181 0.998658 0.97646904
000110 96 1b 7b 3f 9b 42 7c 3f 14 f4 7d 3f d0 b0 77 3f
       0.9808897 0.9853913 0.9920056 0.9675417
000120 5c fb 78 3f 33 d0 76 3f 10 69 7b 3f 92 d9 7f 3f
       0.97258544 0.96411437 0.9820719 0.9994136
000130 f3 70 80 3f 8c 5b 78 3f 14 3d 7f 3f 52 c6 7a 3f
       1.0034469 0.9701469 0.9970257 0.9795886
000140 4f d5 79 3f 85 57 7a 3f 0a 2f 7c 3f 90 b2 7f 3f
       0.9759111 0.97789794 0.98509276 0.9988184
000150 0d 94 7f 3f 94 9b 80 3f 1d 50 7c 3f 6f 15 77 3f
       0.9983528 1.0047479 0.98559743 0.9651708
000160 d1 40 81 3f fb 03 7e 3f ef 7b 80 3f 34 29 80 3f
       1.0097905 0.99224824 1.0037822 1.0012574
000170 e0 94 76 3f 2c e0 80 3f 83 d7 7b 3f 4f fb 7d 3f
       0.96320915 1.0068412 0.9837572 0.9921159
000180 6f de 7a 3f 7c ef 77 3f 77 f8 7b 3f ad 80 7a 3f
       0.97995657 0.968498 0.98426 0.97852594
000190 3b 2d 7a 3f f0 00 7c 3f 3b f6 79 3f f9 85 80 3f
       0.97725266 0.9843893 0.9764134 1.0040885
0001a0 40 6f 7e 3f 61 d8 7e 3f d5 cb 78 3f a6 b3 7d 3f
       0.99388504 0.9954892 0.97186023 0.99102247
0001b0 c5 b9 80 3f c1 e5 80 3f e4 ae 75 3f f7 7e 7c 3f
       1.0056692 1.0070115 0.95969987 0.9863123
0001c0 fa 0f 82 3f 61 72 80 3f 7a 20 77 3f af e1 7a 3f
       1.0161126 1.0034906 0.9653393 0.98000616
0001d0 aa c5 79 3f 42 cc 80 3f eb 93 7d 3f 74 94 7d 3f
       0.97567236 1.0062335 0.9905383 0.99054646
0001e0 97 90 7e 3f 72 4d 7c 3f 01 8a 7c 3f 2a d5 7c 3f
       0.99439377 0.9855567 0.9864808 0.9876276
0001f0 85 57 81 3f a8 7e 7a 3f bd 3f 81 3f eb c9 7a 3f
       1.0104834 0.9784951 1.0097576 0.9796435
