resgcn_runs/resgcn_improved_besthp.pt (torch, 870186 bytes, 16 tensors)

blocks.0.conv.bias f4 [128]
0	0x3a067179	0.0005128603
1	0x36b9e8c0	5.5405253e-06
2	0x381fc5a8	3.8092636e-05
3	0xb9c6e68f	-0.00037937282
4	0xb90e0169	-0.000135427
5	0xb92a6b37	-0.00016252404
6	0xb8bb5692	-8.93298e-05
7	0x39cce40c	0.0003907982
8	0xb96636ce	-0.00021954926
9	0x399f6556	0.00030402344
10	0x36982ac0	4.5349298e-06
11	0xb89f17e4	-7.586161e-05
12	0x3986ee94	0.00025736226
13	0xb92e6e09	-0.00016634924
14	0xb95e6cf1	-0.00021212154
15	0xb9a2225b	-0.00030924645
16	0x3884e10c	6.336169e-05
17	0xb9e1407e	-0.00042963395
18	0xb9f41f00	-0.00046562403
19	0x390468e1	0.00012627571
20	0x397260a8	0.00023114926
21	0xb9ae2862	-0.00033217954
22	0x3749bee0	1.2024975e-05
23	0xb9666499	-0.00021971985
24	0x397727f5	0.00023570641
25	0x3882f8f2	6.245253e-05
26	0xb99b6c5c	-0.00029644638
27	0xb9a55ae6	-0.00031538977
28	0xb93fe7c7	-0.00018301523
29	0x38c27a8c	9.273467e-05
30	0x39d70664	0.00041012757
31	0x39cab4b0	0.00038663065
32	0x3982bc19	0.00024935676
33	0xb95d2010	-0.00021088147
34	0xb8ea72ca	-0.000111793706
35	0xb921f232	-0.00015444381
36	0x38925a80	6.9786794e-05
37	0xb9f96593	-0.0004756866
38	0x37e5da08	2.7400456e-05
39	0x398e34a8	0.00027123583
40	0xb987d209	-0.00025905695
41	0x390040af	0.00012231128
42	0x394de255	0.00019634639
43	0xb9866b39	-0.0002563836
44	0x38eb2f48	0.0001121448
45	0xb9749500	-0.0002332516
46	0x37840628	1.5738493e-05
47	0xb970bc1f	-0.00022958264
48	0xb9f18928	-0.0004606929
49	0x39a4aa88	0.00031407573
50	0x3919ca35	0.00014666545
51	0x3958cbae	0.00020675242
52	0x38ae75a4	8.318879e-05
53	0xb9b11ebd	-0.00033782973
54	0x39f474fb	0.00046626464
55	0xb7b8e0d8	-2.203921e-05
56	0xb976b8ac	-0.00023529184
57	0x39588452	0.00020648658
58	0x3988dbc1	0.0002610367
59	0xb987699b	-0.0002582789
60	0x39847dec	0.0002527082
61	0x39671798	0.00022038666
62	0x39493f7a	0.000191925
63	0xb9a764b4	-0.00031927752
64	0xb98fd8ed	-0.00027436708
65	0x39894012	0.00026178412
66	0xb9945008	-0.00028288388
67	0x38967672	7.1746195e-05
68	0x39674525	0.00022055635
69	0xb896745a	-7.1742295e-05
70	0x39f0995f	0.00045890638
71	0x39a22e05	0.00030933335
72	0xb9685720	-0.00022157701
73	0xb978ee37	-0.00023739865
74	0xb946b98f	-0.00018951877
75	0xb9db0265	-0.0004177272
76	0xb9840ed8	-0.0002518806
77	0x36c14920	5.760361e-06
78	0x39d5930a	0.00040736079
79	0x39f15e70	0.00046037463
80	0x3976f488	0.00023551483
81	0xb9732eed	-0.00023191767
82	0x388c28ec	6.6833425e-05
83	0xb87de874	-6.053639e-05
84	0xb9a2cd23	-0.00031051887
85	0xb96a88b6	-0.00022366908
86	0x3962a491	0.00021614345
87	0xb8811cf2	-6.156591e-05
88	0xb948e510	-0.00019158819
89	0x39c10256	0.0003681357
90	0xb9dad394	-0.00041737838
91	0xb936ce47	-0.00017433717
92	0x395e375b	0.00021192191
93	0x3807e0a4	3.239572e-05
94	0xb8341e0c	-4.2943328e-05
95	0x38f7794e	0.000118004726
96	0xb97e6bea	-0.00024263529
97	0xb9f477fc	-0.00046628702
98	0x3992b817	0.00027984448
99	0x397d32e7	0.00024146923
100	0xb984f5c7	-0.0002536012
101	0xb9a1c37a	-0.00030853954
102	0x397f2211	0.00024331386
103	0xb8cc04b0	-9.728351e-05
104	0x39683b14	0.00022147252
105	0xb98b5f23	-0.00026583028
106	0x389b89dc	7.416654e-05
107	0x39652ff4	0.00021857006
108	0xb9f4e4c8	-0.00046709762
109	0xb88e7c76	-6.79427e-05
110	0x39c48b97	0.00037488036
111	0xb994f0b6	-0.00028408103
112	0xb9f4aa09	-0.00046665993
113	0x39ec3b2e	0.0004505752
114	0xb9c4ef33	-0.0003756225
115	0xb913362a	-0.0001403919
116	0x3795c240	1.7852639e-05
117	0x395943a0	0.00020719925
118	0x395e0b61	0.00021175809
119	0xb9348692	-0.00017216269
120	0xb9284a9f	-0.00016049527
121	0xb8771ff4	-5.8919148e-05
122	0xb958e1a7	-0.00020683427
123	0x3927008c	0.00015926565
124	0x39795c8b	0.00023780965
125	0x39167f04	0.00014352432
126	0x3885f694	6.387863e-05
127	0x395d4953	0.00021103518

blocks.0.conv.lin.weight f4 [128, 768]
0	0x3cfc7e3b	0.03082191
1	0xbcad4057	-0.021148844
2	0x3d65533e	0.05598759
3	0x3cd026f5	0.025409201
4	0xbd990f78	-0.074736536
5	0x3cba6370	0.022752494
6	0xbc71d06a	-0.014759162
7	0x3d8ef0e4	0.0697954
8	0xbda7b5eb	-0.08188995
9	0x3d44808f	0.047974166
10	0xbd5db901	-0.05413151
11	0x3d1239c9	0.03569964
12	0xbda39fb9	-0.07989449
13	0x3ca187c2	0.019718055
14	0xbd533248	-0.051561624
15	0xbd2f57cf	-0.04280835
16	0xbca1469d	-0.019686991
17	0x3d84024b	0.0644575
18	0x3b0484b3	0.0020220696
19	0x3c011c4f	0.007880284
20	0x3d4c7456	0.049915634
21	0xbd71a528	-0.058995396
22	0xbd86f4a8	-0.06589633
23	0x3d93d971	0.07219208
24	0xbd8abd55	-0.067743935
25	0xbbe95cd7	-0.007121663
26	0xbc926a3c	-0.017872922
27	0x3d21a576	0.039464436
28	0x3c6936b8	0.014234237
29	0xbcae42b4	-0.02127204
30	0xbc213ae8	-0.0098407045
31	0x3d2a8e4a	0.041639604
32	0x3db2e17a	0.087344125
33	0xbd4e67c7	-0.05039194
34	0xbbc5ee88	-0.006040398
35	0x3b0499da	0.0020233304
36	0xbdb316b5	-0.087445654
37	0xbd8f598a	-0.069995
38	0x3cc7c536	0.02438603
39	0x3c8d6608	0.017260566
40	0xbc9cf303	-0.019158846
41	0xbd70916a	-0.058732428
42	0x3d8bc9da	0.068256095
43	0xbd2aea57	-0.04172739
44	0xbd3e57ae	-0.046470337
45	0x3da75abb	0.08171602
46	0xbccfb5c9	-0.025355237
47	0xbd7de156	-0.061982475
48	0x3ce06031	0.027389618
49	0xbb820900	-0.003968358
50	0x3cddc5e9	0.02707191
51	0x3d419e2c	0.047269985
52	0x3c897735	0.016780475
53	0xbd7ea1d4	-0.06216605
54	0x3cb16f89	0.02165963
55	0x3d17b71a	0.037039854
56	0x3d2e1b11	0.04250628
57	0xbc6c855b	-0.014436091
58	0xbdb19a2c	-0.08671984
59	0x3c5b3395	0.013378997
60	0x3d43413c	0.047669634
61	0xbc7b9a75	-0.01535665
62	0xbd62f3a8	-0.05540815
63	0x3d63c23d	0.055605162
64	0x3d97a323	0.07404163
65	0xbae8c1d2	-0.0017757958
66	0x3d6746bb	0.05646394
67	0x3c75f057	0.015010915
68	0xbc99f212	-0.018792186
69	0x3d880ffd	0.066436745
70	0x3d28b5f2	0.04118914
71	0x3ccde0b0	0.025131553
72	0x3d5060b0	0.05087346
73	0x3a9e36c6	0.0012070767
74	0x3d60a2d8	0.0548428
75	0x3cf5cd2f	0.030005066
76	0xbd1f2b8e	-0.038859896
77	0x3ba28af4	0.004960412
78	0xba541453	-0.0008090187
79	0xbcde8e55	-0.027167479
80	0x3d400813	0.0468827
81	0xbd4a2959	-0.04935584
82	0x3b7a55e3	0.0038198165
83	0x3d54f042	0.05198694
84	0xbd61e861	-0.055153254
85	0x3d1de017	0.038543787
86	0xbd75fd57	-0.060056057
87	0x3d9f7163	0.07785299
88	0x3aaabee8	0.0013026865
89	0xbd71219d	-0.058869947
90	0x3c64a0f0	0.013954386
91	0xbd64e472	-0.055881925
92	0xbdb4f328	-0.08835441
93	0xbbf85ba5	-0.0075792843
94	0xbd80591a	-0.06266995
95	0x3c95b1e4	0.018273301
96	0x3d89e660	0.06733394
97	0xbd87e7e5	-0.06636027
98	0x3c87a157	0.016556425
99	0x3d66de30	0.05636424
100	0x3da3b08f	0.0799266
101	0x3cf06ee3	0.02934975
102	0x3da86699	0.08222694
103	0x3cd3a526	0.025835585
104	0x3d61ca7a	0.055124737
105	0xbdad4350	-0.084601045
106	0x3d1c4867	0.038154986
107	0x3d403e39	0.04693434
108	0xbc20c0b1	-0.009811566
109	0xbc6e1162	-0.014530512
110	0x3bd92003	0.0066261305
111	0xbd11e31f	-0.03561699
112	0x3c8d9e50	0.017287403
113	0xbbc1ac95	-0.005910466
114	0x3c7b0671	0.01532136
115	0x3d39f489	0.045399223
116	0x3d85d53a	0.0653481
117	0x3d0cadb6	0.03434535
118	0x3c3f76ee	0.01168607
119	0xbd3d48cd	-0.046212006
120	0xba468331	-0.00075726496
121	0xbbc7faf5	-0.0061029145
122	0xbc64dece	-0.013969136
123	0x3a75c418	0.00093752285
124	0xbd5066d1	-0.050879303
125	0x3d9d77fb	0.076889
126	0x3da44406	0.08020787
127	0x3bc4c862	0.006005333
128	0xbd0ed658	-0.034872383
129	0x3cfd66ef	0.030932872
130	0x3bb06428	0.0053830333
131	0xbd909e2e	-0.070614204
132	0x3d1026a6	0.035193108
133	0xbc918269	-0.01776238
134	0x3d72b74e	0.059256844
135	0xbccfc669	-0.025363164
136	0xbd2e5863	-0.04256476
137	0x3d061056	0.032730423
138	0x3ac458e6	0.0014980107
139	0x3c4377a4	0.01193038
140	0xbcc5b642	-0.024134759
141	0x3d985445	0.07437948
142	0x3d31118b	0.04322962
143	0xbdabe712	-0.083936825
144	0xbd90590c	-0.07048234
145	0xbd8e8fdc	-0.06961033
146	0xbd731945	-0.05935027
147	0xbd2ab0e8	-0.041672617
148	0xbd93d54a	-0.07218416
149	0x3d304153	0.043031048
150	0x3d9aa454	0.07550874
151	0x3cf50892	0.029911313
152	0x3d730f47	0.05934074
153	0xbd196ef4	-0.03745933
154	0x3d05b1d4	0.032640293
155	0x3d6c624c	0.05771093
156	0x3d5c2a14	0.053751066
157	0xbcaaf37a	-0.020868052
158	0xbd736165	-0.059419055
159	0x3c33bae9	0.010969856
160	0x3cc635e7	0.024195625
161	0xbb6e6291	-0.0036374668
162	0xbd33e631	-0.0439207
163	0xbd857c0f	-0.06517803
164	0xbc5e9e14	-0.013587493
165	0x3b90d8b7	0.0044203657
166	0xbd907673	-0.070538424
167	0x3c9ff0d1	0.01952401
168	0xbc0c7e60	-0.008575052
169	0xbc949521	-0.018137516
170	0xbd0cab99	-0.034343336
171	0x3d2fe1b5	0.04293986
172	0x3c91bc61	0.017790021
173	0x3d8409c3	0.064471744
174	0xbc6b710a	-0.014370212
175	0x3d403cd9	0.04693303
176	0xbd9f96cd	-0.07792435
177	0xbd7657ce	-0.06014233
178	0x3d5d66de	0.05405318
179	0x3c9e06c4	0.019290335
180	0x3cd687ae	0.026187744
181	0xbd15f660	-0.036611915
182	0x3d121f8a	0.03567461
183	0xbd188dc3	-0.03724457
184	0xbd789eb5	-0.06069823
185	0x3c2fdf85	0.010734444
186	0x3cb03814	0.021511115
187	0x3d8246e1	0.06361175
188	0x3c3415c9	0.010991522
189	0x3be9ccd6	0.007135014
190	0x3d78f51a	0.060780622
191	0x3c2fe3e3	0.010735485
192	0xbce7ca16	-0.028294604
193	0x3c04074d	0.008058381
194	0xbcf5d156	-0.030007046
195	0x3d8498ca	0.06474455
196	0xbd9e2e19	-0.07723636
197	0x3da58cbc	0.080834836
198	0xbcd06637	-0.025439365
199	0xbd817941	-0.063219555
200	0xbd7b79ae	-0.06139534
201	0x3d3018cb	0.042992394
202	0x3b2abb1e	0.0026051472
203	0xbc804c50	-0.015661389
204	0x3c64821b	0.013947035
205	0x3d7e8c56	0.062145554
206	0x3d6881cb	0.056764405
207	0xbd7c70a9	-0.06163088
208	0x3d5a1def	0.053251203
209	0x3c835cc6	0.016035449
210	0x3ce8159d	0.028330619
211	0xbd8a66c9	-0.06757886
212	0x3c96d283	0.018410927
213	0xbdb27b45	-0.08714918
214	0xbcb06ed2	-0.021537218
215	0xbcf1bceb	-0.029509028
216	0xbd2970fa	-0.04136751
217	0xbd54938d	-0.051898528
218	0xbbc1d1d2	-0.005914905
219	0x3d86a654	0.06574693
220	0x3d523a9c	0.051325426
221	0x3d77e79f	0.060523625
222	0x3d44d64c	0.048055932
223	0x3cf83699	0.030299472
224	0xbca0781b	-0.01958852
225	0x3d5c721c	0.05381976
226	0x3cace42c	0.021104895
227	0x3d56460e	0.052312903
228	0xbd9e4d11	-0.07729543
229	0x3d80abc4	0.06282762
230	0xbc8394e4	-0.016062208
231	0x3d11ba5f	0.035578128
232	0x3d931f1e	0.071836695
233	0xbd504874	-0.050850347
234	0x3d4ef60d	0.05052762
235	0x3d83b40d	0.06430826
236	0x3bea1974	0.0071441475
237	0x3d5108aa	0.051033653
238	0x3d4389f9	0.047739003
239	0x3d394dac	0.04524009
240	0x3d168cf1	0.036755506
241	0x3d8e2cf6	0.06942169
242	0x3d956ccd	0.07296143
243	0x3d946c30	0.07247198
244	0xbb2bcbc8	-0.0026213992
245	0xbcd39cf5	-0.025831679
246	0xbcacda65	-0.021100232
247	0xbd7dcc4b	-0.061962407
248	0xbc326ab3	-0.010889697
249	0xbd9dba26	-0.077015206
250	0x3b014151	0.001972277
251	0xbb51213c	-0.0031910678
252	0xbd9cfd91	-0.076655515
253	0xbd590f83	-0.05299331
254	0x3d5db15a	0.054124214
255	0xbd8200fc	-0.06347844

blocks.0.bn.module.weight f4 [128]
0	0x3f7de2dd	0.9917429
1	0x3f7dbb94	0.99114347
2	0x3f81203d	1.0087963
3	0x3f811e3a	1.008735
4	0x3f7dcff3	0.9914543
5	0x3f805485	1.0025793
6	0x3f7de6d8	0.99180365
7	0x3f7e89c6	0.99428976
8	0x3f7e16bd	0.99253446
9	0x3f7e3423	0.99298304
10	0x3f7fb672	0.99887764
11	0x3f810e09	1.0082408
12	0x3f7e307f	0.9929275
13	0x3f7e2fe5	0.9929183
14	0x3f8126b2	1.0089934
15	0x3f80658c	1.003099
16	0x3f7dfe0a	0.9921576
17	0x3f7e4591	0.993249
18	0x3f810da4	1.0082288
19	0x3f7dcecc	0.9914367
20	0x3f8084cc	1.0040526
21	0x3f7f1084	0.99634576
22	0x3f7e1def	0.99264425
23	0x3f80c901	1.0061342
24	0x3f811f0c	1.00876
25	0x3f809cb7	1.0047826
26	0x3f7e4feb	0.99340695
27	0x3f7de5d7	0.9917883
28	0x3f7e6b3d	0.9938238
29	0x3f7faac3	0.99869937
30	0x3f7df5e0	0.992033
31	0x3f811911	1.0085775
32	0x3f80f3f1	1.0074445
33	0x3f7defb6	0.99193895
34	0x3f8028ff	1.0012511
35	0x3f7f4df8	0.99728346
36	0x3f7deff4	0.99194264
37	0x3f811e19	1.008731
38	0x3f80ff86	1.007798
39	0x3f811de7	1.008725
40	0x3f81274e	1.009012
41	0x3f809a2b	1.0047048
42	0x3f7df2ed	0.991988
43	0x3f7dcc51	0.9913989
44	0x3f7f4477	0.99713844
45	0x3f7f1d66	0.99654233
46	0x3f80ab0e	1.0052202
47	0x3f7ecf33	0.9953491
48	0x3f7df873	0.9920723
49	0x3f80f246	1.0073936
50	0x3f810881	1.008072
51	0x3f7ddd3b	0.99165696
52	0x3f80e622	1.0070231
53	0x3f81173e	1.0085218
54	0x3f8106c0	1.0080185
55	0x3f7e1259	0.99246746
56	0x3f8118bd	1.0085675
57	0x3f7df0e5	0.991957
58	0x3f80c8d2	1.0061285
59	0x3f81202c	1.0087943
60	0x3f81081d	1.0080601
61	0x3f811c19	1.00867
62	0x3f80595c	1.002727
63	0x3f7de5c6	0.9917873
64	0x3f7de805	0.9918216
65	0x3f7e7592	0.9939815
66	0x3f7dea61	0.9918576
67	0x3f8126bc	1.0089946
68	0x3f7e371d	0.99302846
69	0x3f811c93	1.0086845
70	0x3f7ded67	0.9919037
71	0x3f810b6c	1.0081611
72	0x3f7eb29d	0.9949129
73	0x3f803f96	1.0019405
74	0x3f7dee0d	0.9919136
75	0x3f7de7d2	0.99181855
76	0x3f811561	1.0084649
77	0x3f7e4204	0.9931948
78	0x3f7e49fb	0.99331635
79	0x3f811e20	1.0087318
80	0x3f7e075d	0.99229985
81	0x3f80885f	1.0041617
82	0x3f7e6862	0.99378026
83	0x3f8116ec	1.008512
84	0x3f8122ee	1.0088785
85	0x3f811d02	1.0086977
86	0x3f807623	1.0036052
87	0x3f81230d	1.0088822
88	0x3f810f1f	1.008274
89	0x3f7e068b	0.99228734
90	0x3f8112bd	1.0083843
91	0x3f810719	1.0080291
92	0x3f81262a	1.0089772
93	0x3f7de12b	0.99171704
94	0x3f7ef2fe	0.99589527
95	0x3f7db248	0.9910016
96	0x3f7ddf37	0.99168724
97	0x3f7e1fec	0.9926746
98	0x3f811431	1.0084287
99	0x3f80c247	1.0059289
100	0x3f7e2796	0.99279153
101	0x3f7ee422	0.99566853
102	0x3f7de5e9	0.9917894
103	0x3f8124cc	1.0089355
104	0x3f7e2904	0.99281335
105	0x3f810f5c	1.0082812
106	0x3f7e8452	0.99420655
107	0x3f7e3ea9	0.9931436
108	0x3f7de62a	0.9917933
109	0x3f7ee180	0.99562836
110	0x3f811663	1.0084957
111	0x3f7ffcc6	0.99995077
112	0x3f7de71f	0.9918079
113	0x3f80e522	1.0069926
114	0x3f7dfe1a	0.99215853
115	0x3f7fa90a	0.9986731
116	0x3f812036	1.0087955
117	0x3f800926	1.0002792
118	0x3f80e6c8	1.0070429
119	0x3f809446	1.004525
120	0x3f7dc27e	0.99124897
121	0x3f7fb91f	0.9989185
122	0x3f801d06	1.0008857
123	0x3f7ddff8	0.99169874
124	0x3f8118e7	1.0085725
125	0x3f81225a	1.0088608
126	0x3f7e0cfc	0.9923856
127	0x3f7dc09b	0.9912202

blocks.0.bn.module.bias f4 [128]
0	0xbc08a568	-0.008340217
1	0xbc0f202a	-0.008735696
2	0x3c0af288	0.0084806755
3	0x3c11edbc	0.008906778
4	0xbc0ed82e	-0.008718533
5	0xbb8c2ed0	-0.0042780414
6	0xbc07c4b5	-0.008286645
7	0xbbc7c61f	-0.006096616
8	0xbc0081d1	-0.007843451
9	0xbbf209b3	-0.00738641
10	0x3bbae754	0.005703846
11	0x3c0be417	0.008538268
12	0xbbf93469	-0.0076051247
13	0xbbfbd519	-0.0076853153
14	0x3c109bb1	0.008826182
15	0x3c12621c	0.008934524
16	0xbc03aaa7	-0.008036292
17	0xbbd0c637	-0.0063712853
18	0x3c0a6330	0.0084465
19	0xbc0a43a7	-0.008438981
20	0x3bab5467	0.0052285674
21	0xbb86775b	-0.0041035837
22	0xbbeed5dc	-0.0072886776
23	0x3c12c42c	0.008957904
24	0x3c0f0178	0.0087283775
25	0x3c11222c	0.008858245
26	0xbb6a4e86	-0.003575237
27	0xbc094dc8	-0.008380361
28	0xbbb22c0f	-0.005437381
29	0xbc0059f4	-0.0078339465
30	0xbc05e77b	-0.008172865
31	0x3c10251a	0.008797908
32	0x3c132132	0.008980082
33	0xbc0508f4	-0.00811981
34	0xbbcadf15	-0.006191144
35	0xbc1038a8	-0.00880257
36	0xbbfda0d8	-0.0077401213
37	0x3c0f97f1	0.008764253
38	0x3c056958	0.008142792
39	0x3c0f0086	0.008728152
40	0x3c12c14d	0.008957219
41	0x3c019cd5	0.007910927
42	0xbc00879a	-0.00784483
43	0xbc10b662	-0.008832546
44	0xbb5a2884	-0.003328831
45	0xb99913c6	-0.00029197166
46	0x3c0d4ad9	0.008623802
47	0xbb60709a	-0.0034246803
48	0xbbebb427	-0.0071931067
49	0x3c0b9573	0.008519518
50	0x3c0dd82a	0.008657495
51	0xbc066ccc	-0.00820465
52	0x3c0efe45	0.008727615
53	0x3c0bf9c8	0.008543439
54	0x3c03d001	0.008045197
55	0xbbd7ccfc	-0.0065857153
56	0x3c0efc72	0.00872718
57	0xbc06ec6c	-0.008235078
58	0x3c0e4611	0.008683697
59	0x3c0f1b9e	0.008734612
60	0x3c064740	0.008195698
61	0x3c0e3880	0.008680463
62	0x3bc4e3a6	0.006008583
63	0xbc02b0b0	-0.007976696
64	0xbc07ff06	-0.008300548
65	0xbbd1f2aa	-0.0064071016
66	0xbc071e9e	-0.008247046
67	0x3c13d142	0.009022059
68	0xbbf3a103	-0.0074349656
69	0x3c10e506	0.008843666
70	0xbc03e41f	-0.008049994
71	0x3c0f02d8	0.008728705
72	0xbb298c18	-0.0025870856
73	0xbc0f1de3	-0.008735153
74	0xbbe5748a	-0.007002418
75	0xbc0507cb	-0.008119534
76	0x3c10341a	0.0088014845
77	0xbc0f3b45	-0.008742158
78	0xbbe8b755	-0.007101933
79	0x3c0d9afc	0.008642908
80	0xbbda0372	-0.0066532427
81	0x3c0885df	0.008332699
82	0x3b7d9168	0.0038691405
83	0x3c0e4b29	0.008684912
84	0x3c119f09	0.008888015
85	0x3c0edfab	0.008720319
86	0x3c12b71c	0.0089547895
87	0x3c12bc93	0.008956092
88	0x3c0a683c	0.008447703
89	0xbc00030f	-0.007813229
90	0x3c0cb7c3	0.008588734
91	0x3c060d5e	0.008181898
92	0x3c12beb7	0.008956603
93	0xbc087c15	-0.008330365
94	0xbab3b138	-0.0013709432
95	0xbc04a403	-0.008095744
96	0xbc08b3a1	-0.008343608
97	0xbbfab28b	-0.0076506785
98	0x3c127862	0.008939834
99	0x3bb0e1da	0.0053980174
100	0xbc069996	-0.008215329
101	0xbbfd77cb	-0.0077352277
102	0xbc0e0627	-0.008668459
103	0x3c0c7b13	0.008574265
104	0xbbf7efa8	-0.007566411
105	0x3bf8d5c9	0.0075938446
106	0xbbd13447	-0.006384406
107	0xbb301cce	-0.0026872638
108	0xbc069e20	-0.008216411
109	0xbad141b6	-0.0015965018
110	0x3c0c8710	0.008577123
111	0xba18f520	-0.00058348663
112	0xbc071573	-0.00824486
113	0x3c04f6e5	0.008115505
114	0xbc043759	-0.008069837
115	0x3a0464dd	0.000505043
116	0x3c0f6d85	0.008754139
117	0xba31f830	-0.0006788997
118	0x3c035b80	0.008017421
119	0x3bf100df	0.00735484
120	0xbc0bb79d	-0.008527664
121	0x3bc86f2b	0.006116768
122	0x3c12b130	0.008953378
123	0xbc09f794	-0.008420844
124	0x3c0e3233	0.008678961
125	0x3c11f7ff	0.0089092245
126	0xbc01eb11	-0.007929579
127	0xbc02b662	-0.007978054

blocks.0.bn.module.running_mean f4 [128]
0	0xbc30859c	-0.010774042
1	0xba92ddce	-0.0011205019
2	0x3c7170ef	0.014736398
3	0xbb9326ba	-0.0044907006
4	0x3c289f2e	0.010291858
5	0x3c43a8a9	0.011942067
6	0x3bdb03ac	0.0066837873
7	0xba848688	-0.0010110894
8	0x3baf261d	0.0053451196
9	0x3c923172	0.017845843
10	0xbb54802d	-0.0032425032
11	0xbc8d4b00	-0.017247677
12	0x3cbb668d	0.022876048
13	0x3c97cafc	0.018529408
14	0x3bacdc14	0.005275259
15	0xbc965268	-0.018349841
16	0xbc50cf54	-0.012744743
17	0x3bdb5ff3	0.0066947876
18	0xbb547c2e	-0.003242265
19	0x3b40911b	0.0029383365
20	0x3bdbba9a	0.0067055942
21	0xbbda4675	-0.006661231
22	0xbb982f58	-0.0046443157
23	0xbc9a5b0e	-0.018842246
24	0x3b7d593c	0.0038657924
25	0x3b48dccb	0.003064918
26	0xbab3dd68	-0.00137226
27	0x3cce0803	0.025150305
28	0x3bd9c440	0.0066457093
29	0xb98c350c	-0.00026742404
30	0x3c78b2bc	0.015179332
31	0xbc4a663b	-0.012353475
32	0x3c2a97b0	0.010412142
33	0xbc96246a	-0.01832791
34	0x3bc46d20	0.005994454
35	0x3bbbc8e0	0.0057307333
36	0xbc61b2f4	-0.013775576
37	0x3bef4464	0.007301854
38	0x3ca1738a	0.019708414
39	0x3be4cf9f	0.006982758
40	0x3c1ad236	0.009449532
41	0x3c923988	0.017849699
42	0x3ce477ab	0.027889093
43	0x3b029f34	0.0019931318
44	0x3b914215	0.0044329264
45	0x3bfcc2e5	0.007713663
46	0x3d0c414a	0.034241952
47	0x3c92e16f	0.01792976
48	0x3ca7a50d	0.020464445
49	0x39803996	0.00024456967
50	0xbb9de16e	-0.004818133
51	0xbc73f3e2	-0.014889689
52	0xbadd8795	-0.0016901369
53	0xbc79fcbd	-0.015258011
54	0xba7097df	-0.0009177904
55	0x3c6678c3	0.014066878
56	0xbcd91e57	-0.026503725
57	0x3c032d74	0.008006442
58	0xbbaaec84	-0.005216183
59	0xbc34ef4c	-0.011043381
60	0x3cab6ed0	0.020926863
61	0x3c175db6	0.009238651
62	0x3a7e7578	0.0009706835
63	0xbb18d61e	-0.0023320983
64	0xbb24a8b3	-0.0025124967
65	0x3bc95fd5	0.0061454573
66	0x389b8b45	7.416917e-05
67	0xbc5a2f05	-0.013316874
68	0x3b8400f0	0.004028432
69	0xbcbcf213	-0.023064649
70	0xbc47fec8	-0.012206741
71	0x3947d427	0.00019057152
72	0xbb52cdd1	-0.0032166133
73	0xba0ced57	-0.00053759426
74	0xbc5d80a2	-0.013519438
75	0x3ba26757	0.0049561667
76	0xbc579ef2	-0.013160454
77	0x3c1ab381	0.009442211
78	0x3cb51500	0.02210474
79	0xbc6e3070	-0.014537916
80	0xbbfe834c	-0.0077671167
81	0x3c849673	0.016185021
82	0xbb42ff94	-0.0029754387
83	0xbc5528db	-0.013010229
84	0xbcd69c6c	-0.026197635
85	0xbc5aa3b1	-0.013344691
86	0x3a6946ef	0.00088988146
87	0xbc8557c7	-0.016277207
88	0xbc1e1a0c	-0.009649765
89	0x3cb4dd1e	0.022078093
90	0x3bfe7657	0.007765572
91	0x3bdd72a6	0.006758052
92	0xbbf0d128	-0.007349152
93	0xbb65cd3b	-0.0035064954
94	0xbca4b0b3	-0.020103788
95	0x3ccc401a	0.02493291
96	0xbb7fa2a9	-0.0039006865
97	0xbb29146f	-0.0025799533
98	0x3c7b7731	0.015348242
99	0x3c0778c2	0.008268537
100	0xbb3175bc	-0.0027078232
101	0x3c5960aa	0.013267675
102	0x3a7ccdcb	0.00096437027
103	0xbbd9b898	-0.0066443197
104	0xbc91f896	-0.01781873
105	0x3bdce707	0.006741408
106	0x3c0652f8	0.008198492
107	0x3b315ee5	0.0027064618
108	0x3c244fbf	0.010028779
109	0xbb5c28ad	-0.003359358
110	0xbaedd048	-0.0018143738
111	0x3bd45141	0.006479413
112	0xbbe0ad4a	-0.006856595
113	0x3c266e09	0.01015807
114	0xbc08a3b3	-0.00833981
115	0x3bf8c6b1	0.0075920452
116	0xbc8c451b	-0.017122796
117	0x3bdd5205	0.0067541623
118	0x3c69f326	0.0142791625
119	0x3b8cc3e3	0.0042958125
120	0x3ba8a851	0.005147018
121	0xbc1c1545	-0.009526555
122	0x3c494752	0.0122850705
123	0xbb06b784	-0.0020556161
124	0x3c829e92	0.015944753
125	0xb9abd7b5	-0.00032776376
126	0xbb0a430f	-0.00210971
127	0xb9b50fd0	-0.00034534791

blocks.0.bn.module.running_var f4 [128]
0	0x3ec6f77f	0.388607
1	0x3ec6d261	0.3883238
2	0x3ec6d70a	0.38835937
3	0x3ec6b0d5	0.38806787
4	0x3ec6c186	0.38819522
5	0x3ec6f5d5	0.3885943
6	0x3ec6a812	0.38800102
7	0x3ec6b22f	0.38807818
8	0x3ec6b505	0.38809982
9	0x3ec6e4ce	0.3884644
10	0x3ec6b95f	0.38813302
11	0x3ec6da55	0.3883845
12	0x3ec6dca5	0.38840213
13	0x3ec72794	0.38897383
14	0x3ec7116d	0.38880482
15	0x3ec6b21d	0.38807765
16	0x3ec6bbcc	0.38815153
17	0x3ec69bd2	0.38790756
18	0x3ec6e4fb	0.38846573
19	0x3ec6bf7b	0.38817963
20	0x3ec6c4ce	0.38822025
21	0x3ec6d10d	0.38831368
22	0x3ec6ac1d	0.38803187
23	0x3ec6f41a	0.3885811
24	0x3ec6c44b	0.38821635
25	0x3ec6c35e	0.38820928
26	0x3ec69fa4	0.3879367
27	0x3ec71529	0.3888333
28	0x3ec6dbea	0.38839656
29	0x3ec6b62c	0.3881086
30	0x3ec6dba6	0.38839453
31	0x3ec6e705	0.3884813
32	0x3ec6af47	0.388056
33	0x3ec6b9b8	0.38813567
34	0x3ec6c70c	0.38823736
35	0x3ec6d8f6	0.38837403
36	0x3ec6ed2f	0.38852832
37	0x3ec6c05e	0.3881864
38	0x3ec7009a	0.38867646
39	0x3ec6d2fc	0.38832843
40	0x3ec6cbc9	0.3882735
41	0x3ec6d8cf	0.38837287
42	0x3ec6f862	0.38861376
43	0x3ec6f7d3	0.3886095
44	0x3ec6cafc	0.3882674
45	0x3ec6a14c	0.38794935
46	0x3ec6c446	0.3882162
47	0x3ec6ae3b	0.38804802
48	0x3ec6b080	0.38806534
49	0x3ec6f851	0.38861325
50	0x3ec6c2de	0.38820547
51	0x3ec6d9ab	0.38837942
52	0x3ec6a113	0.38794765
53	0x3ec70aab	0.38875327
54	0x3ec6abfe	0.38803095
55	0x3ec6be05	0.38816848
56	0x3ec6f2b5	0.38857046
57	0x3ec6c24e	0.38820118
58	0x3ec6a916	0.38800877
59	0x3ec6b660	0.38811016
60	0x3ec6b5c0	0.3881054
61	0x3ec6b5bb	0.38810524
62	0x3ec6c3bb	0.38821205
63	0x3ec6b48a	0.38809615
64	0x3ec6c9b6	0.38825768
65	0x3ec6b0c8	0.38806748
66	0x3ec6a0e3	0.38794622
67	0x3ec6e001	0.38842776
68	0x3ec6c555	0.38822427
69	0x3ec6b9cc	0.38813627
70	0x3ec6b783	0.38811883
71	0x3ec6b776	0.38811845
72	0x3ec6ad89	0.38804272
73	0x3ec6c7ed	0.38824406
74	0x3ec6b128	0.38807034
75	0x3ec69dcc	0.38792264
76	0x3ec6c1eb	0.38819823
77	0x3ec6c96d	0.3882555
78	0x3ec6b51d	0.38810053
79	0x3ec6b05d	0.3880643
80	0x3ec6c7bd	0.38824263
81	0x3ec6fcca	0.38864738
82	0x3ec69d99	0.38792112
83	0x3ec6d698	0.38835597
84	0x3ec6cb80	0.38827133
85	0x3ec6e483	0.38846216
86	0x3ec6bf7c	0.38817966
87	0x3ec6cfeb	0.38830504
88	0x3ec6b9d3	0.38813648
89	0x3ec6c252	0.3882013
90	0x3ec6c387	0.3882105
91	0x3ec6da0a	0.38838226
92	0x3ec6983e	0.38788027
93	0x3ec6bbb7	0.3881509
94	0x3ec6cc1f	0.38827607
95	0x3ec6ccf3	0.3882824
96	0x3ec6c397	0.38821098
97	0x3ec6cac3	0.3882657
98	0x3ec6ccb3	0.38828048
99	0x3ec6ca3f	0.38826177
100	0x3ec6ea7f	0.3885078
101	0x3ec6fa15	0.38862672
102	0x3ec6bae8	0.38814473
103	0x3ec6b161	0.38807204
104	0x3ec6e5dd	0.38847247
105	0x3ec6dbe0	0.38839626
106	0x3ec6c566	0.38822478
107	0x3ec6c140	0.38819313
108	0x3ec6a11b	0.3879479
109	0x3ec6cd45	0.38828483
110	0x3ec6d469	0.3883393
111	0x3ec6c3e1	0.3882132
112	0x3ec6d1d4	0.3883196
113	0x3ec6af28	0.3880551
114	0x3ec6c888	0.38824868
115	0x3ec6c547	0.38822386
116	0x3ec6c1fb	0.3881987
117	0x3ec6a778	0.38799644
118	0x3ec6c1ce	0.38819736
119	0x3ec6cd6c	0.388286
120	0x3ec6d82b	0.38836798
121	0x3ec6b985	0.38813415
122	0x3ec6b587	0.3881037
123	0x3ec6c3fb	0.38821396
124	0x3ec6c9f8	0.38825965
125	0x3ec6c2bc	0.38820446
126	0x3ec6b0f2	0.38806874
127	0x3ec6c4bf	0.3882198

blocks.0.res_proj.weight f4 [128, 768]
0	0x3c8e1035	0.017341712
1	0x3c8a9283	0.016915565
2	0xbc0514be	-0.008122621
3	0x3bc502d8	0.006012302
4	0xbd169ae7	-0.03676882
5	0x3b98382c	0.004645368
6	0x3b17e987	0.0023179965
7	0xbd06313e	-0.032761805
8	0xbd30b296	-0.043139063
9	0xbd0bfb1f	-0.034175035
10	0xbba18b10	-0.0049299076
11	0xbcbef1e9	-0.023308711
12	0x3cb5de62	0.022200767
13	0x3c9a42ba	0.018830646
14	0xbccad0cb	-0.024757763
15	0x3cd6d774	0.026225783
16	0x3c8427a1	0.016132178
17	0x3ca9f5f0	0.020747155
18	0xbc4a1a74	-0.0123354085
19	0x3d103c7b	0.03521393
20	0xbc469fbd	-0.0121230455
21	0xbac0c682	-0.0014707597
22	0x3d0af046	0.03392055
23	0xbcbd3ce2	-0.02310032
24	0xbcec0004	-0.028808601
25	0xbbd5d6d4	-0.0065258536
26	0x3c62fb12	0.013853805
27	0xbcd729fb	-0.026265135
28	0xbcab1bc1	-0.020887258
29	0xbb20897e	-0.0024496014
30	0xbd08a09f	-0.033356305
31	0xbccbd577	-0.024882061
32	0x3d34f98a	0.04418329
33	0x3be9c62b	0.007134219
34	0xba93ae69	-0.0011267188
35	0x3c7f57d3	0.015584904
36	0x3c57273f	0.013131916
37	0x3c1da9c6	0.009622997
38	0x3c8bc571	0.01706192
39	0xbbbf3d24	-0.005836146
40	0x3ce22cb8	0.027609214
41	0xbcc7c0dd	-0.024383957
42	0x3bbcfc34	0.0057673696
43	0xbc3b4095	-0.011428972
44	0xbd272e48	-0.04081562
45	0x3c8af3dc	0.016961984
46	0xbcc1a9a6	-0.023640465
47	0x3c99fe81	0.018798115
48	0x3cbf93d7	0.023385925
49	0xbcdc170f	-0.026866464
50	0x3bb4aad0	0.0055135265
51	0x3c7d357a	0.015454644
52	0x3d19caae	0.037546806
53	0x3cdfaf71	0.027305337
54	0xbd306d83	-0.04307319
55	0xbd237291	-0.03990418
56	0xbc6c61e6	-0.014427638
57	0xbb96b3bc	-0.0045990627
58	0x3aa358ab	0.0012462338
59	0xbd202b68	-0.039103895
60	0xbcdc4960	-0.026890457
61	0x3cc36607	0.023852361
62	0x3c9cebed	0.019155467
63	0xbc148459	-0.009064757
64	0x3cd986da	0.02655356
65	0x3c83b3bf	0.01607692
66	0xbca6a842	-0.020343903
67	0xbb441a7a	-0.0029923008
68	0x38b297fc	8.516011e-05
69	0x3cb27519	0.021784352
70	0xbcbf73cf	-0.023370652
71	0x3bb726cd	0.005589342
72	0xbb7cec2e	-0.0038592923
73	0xbcf9796a	-0.030453403
74	0x3bbf1426	0.0058312593
75	0xbc7dfc6b	-0.015502076
76	0xbca834eb	-0.020533046
77	0xbc8cac8a	-0.017172117
78	0xbc122190	-0.008919135
79	0xbc428def	-0.01187466
80	0x3c4ef21e	0.012630967
81	0x3cb74fbf	0.022376893
82	0x3c7a18ae	0.015264673
83	0xbcbb7d73	-0.022886967
84	0xbcf94aa6	-0.030431103
85	0xbd0d1b38	-0.034449786
86	0xbc908644	-0.017642148
87	0xbcb533a7	-0.022119356
88	0xbcaee74c	-0.021350525
89	0x3d358347	0.04431465
90	0x3c6f7d8f	0.014617338
91	0x3d299a1e	0.041406743
92	0xbc900189	-0.017578857
93	0x3c72299c	0.014780428
94	0xbba16d8b	-0.0049263886
95	0x3d28f9e1	0.041253928
96	0x3c67cb7c	0.014147636
97	0x3b6cd73e	0.0036139037
98	0xbd15a0a7	-0.036530163
99	0xbc792b72	-0.015208112
100	0x3aaf970b	0.0013396455
101	0x3bab7480	0.0052323937
102	0x3c7647bc	0.015031751
103	0x3c4c4ed3	0.012469965
104	0xbc1457fd	-0.009054181
105	0xbc8505e4	-0.01623816
106	0x3c86e213	0.016465222
107	0x3d229109	0.039689098
108	0x3d2ed951	0.042687718
109	0xbb996580	-0.004681289
110	0x3bbfe133	0.0058557033
111	0xbb7f25b8	-0.0038932394
112	0x3cdf1842	0.027233247
113	0x3ac8978c	0.0015303954
114	0x3c825f7e	0.015914675
115	0xbcb1b8bd	-0.021694535
116	0xbafbd4fc	-0.0019213255
117	0x3bfd89d4	0.0077373777
118	0x3cde80c9	0.027161019
119	0x3c91e66d	0.01781007
120	0x3ccd9fa7	0.025100542
121	0x3bf1bb21	0.007377044
122	0x3c71f945	0.014768903
123	0x3caf7a8c	0.02142074
124	0x3b86e67e	0.0041168323
125	0x3d0ff0e4	0.03514184
126	0x3c7f45da	0.015580619
127	0x3d096379	0.03354213
128	0x3d042cf3	0.03226943
129	0xbbbbd697	-0.005732368
130	0x3d117b6e	0.035518102
131	0xbbe7422e	-0.00705745
132	0xbb84d471	-0.0040536453
133	0xbb7025cf	-0.003664363
134	0xbcbe64a9	-0.023241358
135	0x3c2a712b	0.010402958
136	0x3bbd7968	0.005782295
137	0xbccd4a32	-0.025059793
138	0xbd25c15c	-0.040467605
139	0xbbf23417	-0.0073914635
140	0xbd01911a	-0.03163252
141	0xbbd3389c	-0.0064459573
142	0x3c90c63b	0.017672649
143	0xbd0990a4	-0.033585206
144	0xba9f7f24	-0.0012168628
145	0x3c7c924e	0.015415741
146	0xbca3cb93	-0.019994533
147	0x3c6d388d	0.014478815
148	0xbc1d6ab7	-0.009607962
149	0x3d118b40	0.03553319
150	0x3c8da08f	0.017288474
151	0xbca44a2e	-0.020054903
152	0x3bb19a07	0.005419973
153	0x3cd0cbac	0.025487743
154	0xbc137eeb	-0.009002428
155	0x3c31598c	0.010824572
156	0x3b32e54c	0.0027297316
157	0x3c39797b	0.011320467
158	0x3c4c1495	0.012456079
159	0xb9b14198	-0.00033808942
160	0xbca8a59c	-0.020586781
161	0x3cb1a7f5	0.021686533
162	0xbcaec137	-0.021332366
163	0x3b858d56	0.0040756864
164	0x3c8d9f64	0.017287917
165	0x3cbe474a	0.023227353
166	0x3d107898	0.035271257
167	0xbb7c79a4	-0.0038524652
168	0xbcad36a5	-0.02114422
169	0xbc18c52a	-0.009324351
170	0xbc878aea	-0.016545732
171	0x3c36edbb	0.011165078
172	0x3d2d9003	0.04237367
173	0xbd0cbf75	-0.034362275
174	0x3be81646	0.0070827333
175	0x3cbfcd07	0.023413194
176	0x3caad7ae	0.020854797
177	0x3d06be26	0.032896183
178	0x3cee0850	0.029056698
179	0xbc38cdf2	-0.01127957
180	0xbd1e3149	-0.03862122
181	0xbbdc09ee	-0.006715051
182	0xbc1d9e96	-0.009620329
183	0xbccaec55	-0.024770895
184	0x3ce758f7	0.028240664
185	0xbd262bce	-0.04056912
186	0x3caf9995	0.021435538
187	0x3c5281b0	0.012848303
188	0x3c34aa4b	0.011026929
189	0xbd1d3ccb	-0.038388055
190	0xbcd66fa6	-0.026176285
191	0x3c043ca9	0.008071103
192	0x3cac3009	0.021018999
193	0xbc280dbe	-0.010257183
194	0x3c56b4d3	0.013104635
195	0x3cc77c8c	0.02435138
196	0xbce08276	-0.027405959
197	0x3ce3555d	0.027750665
198	0xbb42f39a	-0.0029747249
199	0xbcd444a3	-0.025911635
200	0xbc340b94	-0.010989089
201	0x3cfec817	0.03110127
202	0x3c639d5a	0.013892496
203	0xbd343a99	-0.044001196
204	0x3d11a4b7	0.035557475
205	0x3cdf35e0	0.02724737
206	0xbb4fa308	-0.0031682868
207	0x3c81b376	0.015832644
208	0x3c45302b	0.01203541
209	0x3bb4b691	0.0055149277
210	0x3c30adef	0.0107836565
211	0x3c7e9b59	0.015539967
212	0xbd235a87	-0.039881255
213	0xbad4e70b	-0.0016243173
214	0x3baa7ff2	0.0052032406
215	0xbccb4a75	-0.024815777
216	0xbc03558b	-0.0080160005
217	0xbca5af95	-0.020225326
218	0x3cee3283	0.02907682
219	0xbb0cd035	-0.0021486406
220	0xbc65e0d7	-0.014030657
221	0xbaa94081	-0.00129129
222	0x3d1b5e59	0.037931774
223	0x3c1b9901	0.009496928
224	0xbd2ea7da	-0.042640544
225	0x3aec7dde	0.0018042882
226	0xbca2d1b8	-0.019875392
227	0x3a08d8b4	0.00052202796
228	0xbcb71a81	-0.022351505
229	0xbca7e026	-0.020492624
230	0xbc9c0002	-0.019042972
231	0xbd1cf434	-0.038318828
232	0xbd1fcfe6	-0.039016627
233	0x3cb66cf4	0.02226875
234	0xbb14935f	-0.0022670848
235	0x3ca0d25f	0.019631563
236	0x3af32796	0.0018551226
237	0x3c0587d3	0.008150059
238	0xbc8bf426	-0.017084192
239	0x3c01dcd3	0.007926184
240	0xbc0c2cf8	-0.008555643
241	0xbbbdca6d	-0.0057919533
242	0xbb0f0e0d	-0.0021828443
243	0x3b520225	0.0032044735
244	0x3b78c390	0.0037958361
245	0xbd24c905	-0.04023077
246	0x3b1c8e7c	0.0023888638
247	0x3c978723	0.018497055
248	0xbc745b49	-0.014914342
249	0xbd190b8c	-0.037364528
250	0x3d102edd	0.035200942
251	0x3d0c064d	0.034185696
252	0xbd0aa4ed	-0.03384869
253	0x3cc635bc	0.024195544
254	0x3b1cf035	0.0023946885
255	0xbd0b9c52	-0.034084626

blocks.0.res_proj.bias f4 [128]
0	0xbb0a5cb2	-0.002111238
1	0x3c0c97bb	0.008581097
2	0xbc4f2677	-0.012643448
3	0x3d1906be	0.037359945
4	0x3cbbef67	0.022941304
5	0xbb90c41f	-0.0044179107
6	0x3b82e443	0.003994496
7	0xbbed5d4b	-0.0072437874
8	0xbd0de5de	-0.034643047
9	0xbc550da7	-0.013003743
10	0xbc62c4ad	-0.0138408365
11	0x3cd72b4d	0.026265765
12	0xbc1ad513	-0.009450215
13	0xbcd146f0	-0.025546521
14	0xbcd7d908	-0.026348606
15	0xbca92a88	-0.020650163
16	0xbc6e31b2	-0.0145382155
17	0xbcd7fea3	-0.026366537
18	0x3c952e55	0.01821057
19	0xbcd4ea85	-0.025990734
20	0xbbc0ba28	-0.0058815666
21	0x3be4b742	0.006979854
22	0xbcdd55b7	-0.027018411
23	0xbcdc1fa4	-0.026870556
24	0x3c790e61	0.015201182
25	0xbc8c9578	-0.017161116
26	0x3c930f7c	0.01795172
27	0x3aa7a617	0.0012790587
28	0xbc469df9	-0.012122625
29	0x3bea2d2d	0.0071464987
30	0xbd2b8cfa	-0.041882493
31	0x3cc2ce68	0.023780063
32	0xbca8423a	-0.020539392
33	0x3b2b2af4	0.0026118131
34	0x3c68c53c	0.014207181
35	0xbd1401ae	-0.036134414
36	0x3cb06345	0.02153171
37	0x3d27a81e	0.040931813
38	0xbd0ab8e2	-0.033867724
39	0x3c8c87d9	0.017154621
40	0x3d3550b6	0.044266425
41	0xbcc4dc2b	-0.024030766
42	0xbc12e9e8	-0.0089669
43	0xbc146ac6	-0.00905866
44	0xbcca2a29	-0.024678307
45	0xbc855ab6	-0.016278606
46	0x3c79148d	0.015202654
47	0xbcdf9084	-0.02729059
48	0xbc8ab342	-0.01693118
49	0xbbe8829e	-0.007095649
50	0xbc9b392a	-0.018948156
51	0x3c3414e5	0.01099131
52	0x39f92ed2	0.00047527865
53	0x3d0330a5	0.032028813
54	0x3c818cf8	0.01581429
55	0x3c6de627	0.014520205
56	0x3cf58497	0.02997045
57	0x3c5495d3	0.012975174
58	0xbc64bc45	-0.013960903
59	0x3ceccd23	0.02890641
60	0xbc673a7c	-0.014113065
61	0xbc517008	-0.012783058
62	0xbc0a6e63	-0.00844917
63	0x3bb845e6	0.005623567
64	0xbbe19fb1	-0.006885492
65	0xbc984793	-0.018588817
66	0xb95c5db8	-0.00021015748
67	0xbcbf3e75	-0.023345212
68	0xb9dcbc74	-0.00042102078
69	0x3d0182e5	0.03161897
70	0x3c395d74	0.011313785
71	0x3ce76a1f	0.028248845
72	0xbc3b2755	-0.011422952
73	0xbbb98202	-0.00566125
74	0xbc6cce44	-0.014453474
75	0x3c193460	0.009350866
76	0x3d21eea2	0.03953422
77	0xbcf69480	-0.030100107
78	0x3982a5ce	0.00024919066
79	0xbbdb26c2	-0.00668797
80	0xbd007951	-0.031365696
81	0x3d198828	0.037483364
82	0xbc81d889	-0.015850322
83	0x3d1a914c	0.037736222
84	0x3b289395	0.0025722731
85	0x3d284d18	0.041089147
86	0x3be098f0	0.006854169
87	0xbc6725db	-0.014108147
88	0x3cb76012	0.022384677
89	0xbc81ac1d	-0.01582914
90	0xbb166bcd	-0.0022952438
91	0x3d0781db	0.033082824
92	0x3d363ea9	0.04449335
93	0xbb9b7f8d	-0.00474543
94	0x3b5966e2	0.0033172895
95	0xbc317dff	-0.0108332625
96	0xbbcd1c0e	-0.006259448
97	0xbbba2a42	-0.005681307
98	0x3ca57e65	0.020201871
99	0x3d084ec4	0.03327824
100	0x3c996d3e	0.018728849
101	0x3b72b375	0.0037033234
102	0xbd10b16a	-0.035325445
103	0x3c4592d6	0.012058934
104	0x3c2bcca3	0.010485801
105	0x3c618f9e	0.013767151
106	0xbaa36934	-0.0012467266
107	0x3ce5a677	0.028033478
108	0xbc90d36c	-0.017678939
109	0xbcc80b3c	-0.02441942
110	0x3d0f1eb6	0.034941398
111	0xbc928abf	-0.017888425
112	0xbc7f51b3	-0.015583443
113	0x3d2c2ccb	0.042034905
114	0xbc22b2a5	-0.0099302875
115	0x3d2bbe43	0.041929495
116	0x3cee38f1	0.029079886
117	0xbc30ac20	-0.010783225
118	0x3d0d59cd	0.03450947
119	0x3cc39855	0.023876349
120	0x3bf7abb6	0.0075583113
121	0xbc163e90	-0.0091701895
122	0x3bbb9777	0.005724843
123	0xbd250e77	-0.040296998
124	0xbc7870cd	-0.015163613
125	0xbc7f9e69	-0.015601733
126	0x3bb6f6e2	0.00558363
127	0xba4c2213	-0.000778706

blocks.1.conv.bias f4 [128]
0	0x398885fc	0.00026039768
1	0x392d7e06	0.00016545513
2	0x39775350	0.00023586792
3	0xb99c5b38	-0.00029822602
4	0x399e7995	0.00030226694
5	0x399ec269	0.00030280955
6	0xb99a2c9d	-0.00029406408
7	0xb997f9ad	-0.00028986987
8	0xb8bb8274	-8.941154e-05
9	0x397a7020	0.00023883628
10	0xb97a6a8f	-0.00023881554
11	0x3997e80e	0.0002897386
12	0x39a048db	0.0003057186
13	0xb9947c1d	-0.0002832123
14	0x3984066b	0.00025181784
15	0x397f01a0	0.000243193
16	0xb98c1b16	-0.00026723061
17	0xb9954381	-0.0002846979
18	0xb9525d24	-0.00020061858
19	0xb99e68f8	-0.00030214316
20	0x399b8fd3	0.0002967106
21	0xb964f3f2	-0.00021834651
22	0x399bbb0a	0.0002970326
23	0x399e6dff	0.00030218062
24	0xb99ecac9	-0.00030287195
25	0x399e3e14	0.0003018236
26	0x399f5c2a	0.0003039551
27	0xb94f7c16	-0.00019787284
28	0xb9349d34	-0.000172247
29	0x396e9f32	0.00022756754
30	0x38ff973e	0.000121875186
31	0xb99d1f3e	-0.0002996865
32	0xb9a023d9	-0.00030544287
33	0x3991b7ce	0.000277935
34	0xb993f94b	-0.00028223763
35	0x399877a6	0.00029080844
36	0xb94bf0e8	-0.00019449333
37	0x3995e766	0.000285919
38	0xb957919a	-0.00020558239
39	0x39059718	0.00012740155
40	0xb99c9fe5	-0.0002987377
41	0x397264e2	0.000231165
42	0xb89eb0c8	-7.566955e-05
43	0xb974157a	-0.00023277654
44	0x394e8d73	0.00019698385
45	0x38bb0c8a	8.9191904e-05
46	0x399d83aa	0.0003004347
47	0xb96c2c08	-0.00022523117
48	0x39986448	0.00029066415
49	0x3957413b	0.00020528298
50	0x39703d12	0.00022910934
51	0xb90aa0bf	-0.00013220588
52	0x399a13c2	0.0002938789
53	0xb9997e8d	-0.00029276722
54	0xb94e46e0	-0.00019672094
55	0x398b4836	0.00026565947
56	0xb9998fa2	-0.0002928945
57	0xb8e97182	-0.00011131448
58	0xb986444c	-0.00025609357
59	0x38a18016	7.700936e-05
60	0x3937a1c4	0.00017512502
61	0xb99d89a6	-0.0003004793
62	0x38e0dfec	0.00010722861
63	0x399fa0f4	0.00030446763
64	0x396f2c04	0.00022809213
65	0xb9957baf	-0.00028511646
66	0x399e86a4	0.00030236423
67	0xb96b7781	-0.00022455865
68	0xb9967e80	-0.0002870448
69	0xb99f3488	-0.00030365982
70	0x399a93bb	0.00029483237
71	0xb9586c57	-0.00020639725
72	0x399794c8	0.00028911815
73	0x399c5c06	0.00029823201
74	0xb99ded67	-0.00030122252
75	0xb96baca3	-0.00022475659
76	0xb968488b	-0.00022152269
77	0x398b416f	0.00026560898
78	0xb98a9a43	-0.00026436345
79	0xb9705ba2	-0.0002292232
80	0xb99c2e32	-0.00029789057
81	0xb964258b	-0.0002175776
82	0x382578d0	3.945158e-05
83	0x3990dc38	0.00027629896
84	0xb999ea23	-0.0002935688
85	0xb986ff05	-0.00025748476
86	0xb9523930	-0.00020048465
87	0x39864c56	0.00025615346
88	0x394398ae	0.00018653527
89	0x39a04dae	0.00030575454
90	0x38dc12c4	0.00010493913
91	0xb9981f36	-0.00029014953
92	0xb9869f2e	-0.0002567707
93	0xb998ea2c	-0.0002916617
94	0xb8a92c4c	-8.066799e-05
95	0x396cbc38	0.00022576831
96	0x399a82b4	0.0002947055
97	0xb99e36df	-0.0003017699
98	0xb94def1a	-0.00019639396
99	0xb8a0a83e	-7.660732e-05
100	0x3993e39e	0.00028207613
101	0xb97ec2da	-0.00024295916
102	0x399cd74e	0.00029915053
103	0xb73b2760	-1.1155236e-05
104	0xb9898026	-0.00026226154
105	0xb987b8e5	-0.00025886964
106	0xb80bb6c0	-3.331038e-05
107	0xb93a49c3	-0.0001776582
108	0x3971103a	0.00022989596
109	0x39852054	0.00025391823
110	0xb983550f	-0.0002504964
111	0xb99bfb21	-0.0002975101
112	0x388ea012	6.800903e-05
113	0xb948acde	-0.00019137884
114	0x3971522b	0.00023014161
115	0x395bc47e	0.00020958667
116	0xb7fb9c68	-2.9994364e-05
117	0xb99ebf4c	-0.00030278636
118	0x373bb4e0	1.1188182e-05
119	0xb8aa5898	-8.1227336e-05
120	0x399b1f1e	0.00029587088
121	0x371b5d10	9.260388e-06
122	0xb8b9df8a	-8.863125e-05
123	0xb99373b6	-0.00028124236
124	0xb9a001cd	-0.0003051892
125	0x39948c26	0.00028333178
126	0x38124678	3.487474e-05
127	0xb8f1a720	-0.00011522905

blocks.1.conv.lin.weight f4 [128, 128]
0	0x3c9f854a	0.019472737
1	0xbe12b99e	-0.1432862
2	0xbc9da84b	-0.019245287
3	0xbd7a294d	-0.061074544
4	0x3e017001	0.12640382
5	0x3c2828cd	0.010263634
6	0x3de9b2d6	0.114110634
7	0x3df058fc	0.117357224
8	0xbcf1fced	-0.02953955
9	0xbe0e540a	-0.13899246
10	0x3dec7bb1	0.1154703
11	0xbdab0101	-0.08349801
12	0x3da31d2c	0.079645485
13	0xbe0e04ad	-0.13868971
14	0x3e150a2f	0.14554666
15	0x3d8dfe2a	0.069332436
16	0x3de47a0b	0.1115609
17	0xbcb7fd82	-0.02245975
18	0xbd043635	-0.03227826
19	0xbdba3c52	-0.090935364
20	0x3d010b12	0.031504698
21	0xbd17a566	-0.03702297
22	0x3d739e73	0.05947728
23	0xbd49d812	-0.049278326
24	0xbc960eaf	-0.018317549
25	0x3d9a230d	0.07526217
26	0x3e0ebb15	0.13938554
27	0xbd9c8979	-0.07643408
28	0xbc0639db	-0.008192505
29	0x3d16bddf	0.03680217
30	0xbd69f1cc	-0.05711536
31	0xbd917ecc	-0.07104263
32	0x3c98243a	0.018571962
33	0xbc0f581a	-0.008749032
34	0xbd9df286	-0.07712273
35	0x3da63fe6	0.081176564
36	0xbce72a66	-0.02821846
37	0x3dc3b42b	0.09555849
38	0x3b400edf	0.002930574
39	0xbdbb6b1a	-0.091512874
40	0x3e08669c	0.13320392
41	0x3d778249	0.060426984
42	0xbdaf3c76	-0.08556454
43	0xbc4276a0	-0.011869103
44	0xbb94cd8b	-0.004541104
45	0x3dd09a2b	0.10185655
46	0x3d9f5487	0.07779794
47	0x3d439ee3	0.047758948
48	0xbda70e47	-0.0815702
49	0x3c0c804b	0.008575509
50	0xbdcdcaa9	-0.1004842
51	0x3ddd026f	0.1079148
52	0x3ddd599d	0.10808108
53	0x3ce95608	0.028483406
54	0x3ca2955c	0.01984661
55	0xbda07114	-0.07834068
56	0x3d5ff36e	0.054675512
57	0xbdab2898	-0.08357352
58	0x3c9b66ec	0.018969975
59	0xbdd776f5	-0.10520736
60	0xbd96eae2	-0.07369019
61	0xbe14dd07	-0.1453744
62	0x3d9ab5a5	0.07554177
63	0xbbdb04fa	-0.006683943
64	0x3d847027	0.06466704
65	0x3dc090bc	0.09402606
66	0xbde2948a	-0.11063488
67	0x3e00a144	0.12561518
68	0xbd72e327	-0.05929866
69	0xbdf4991f	-0.11943268
70	0xbdf472c3	-0.119359516
71	0xbc9d09fa	-0.019169796
72	0xbdc598f6	-0.096483156
73	0xbd91b0f9	-0.07113833
74	0x3db566a6	0.08857469
75	0xbe094097	-0.13403545
76	0xbe1435f3	-0.14473705
77	0xbe04057f	-0.12892722
78	0xbe009fa6	-0.12560901
79	0x3d60392e	0.05474203
80	0xbc987e66	-0.018614959
81	0x3e22d9de	0.15903422
82	0x3d3364bd	0.043797243
83	0x3d472ff9	0.048629735
84	0xbd49153a	-0.04909251
85	0x3e070fab	0.1318957
86	0x3dcbeaa3	0.09956863
87	0xbc1f96e4	-0.009740565
88	0xbda750cc	-0.08169708
89	0xbdbf5de8	-0.09344083
90	0x3dd0613f	0.10174798
91	0x3dc384f5	0.09546844
92	0xbcb08ae5	-0.021550605
93	0xbdf0e7d6	-0.11762969
94	0x3dfff4fc	0.12497899
95	0xbdc33210	-0.09531033
96	0xbdc157e7	-0.09440594
97	0x3de57832	0.11204566
98	0xbdc59773	-0.09648027
99	0x3e0e4ab1	0.1389568
100	0xbca51ec4	-0.020156272
101	0xbd94038c	-0.07227239
102	0xbdbc554b	-0.09195956
103	0xbde0df10	-0.10980046
104	0x3dabda8f	0.08391296
105	0x3deb0a04	0.1147652
106	0x3dce1c3b	0.10063978
107	0xbbe246f8	-0.006905433
108	0x3d5eda1f	0.054407235
109	0xbdd1266d	-0.10212407
110	0x3d4c61e7	0.049898054
111	0x3a38f373	0.000705532
112	0xbdd73ba7	-0.10509425
113	0xbe07d285	-0.132639
114	0x3ddec549	0.10877473
115	0xbdde0c57	-0.108421974
116	0xbdc2b719	-0.09507579
117	0x3e2083fa	0.15675345
118	0xbda22000	-0.0791626
119	0xba39f7e2	-0.00070941274
120	0xbd6823aa	-0.056674637
121	0x3dbadf7e	0.09124659
122	0x3da19673	0.07890024
123	0xbda265df	-0.079295866
124	0x3d0365ca	0.032079495
125	0x3df384d8	0.11890572
126	0x3d13cdd9	0.036084983
127	0xbdad4fe3	-0.08462503
128	0x3df5ed6b	0.120081745
129	0xbe19aae9	-0.15006603
130	0x3d450363	0.048098933
131	0xbdf224bb	-0.11823412
132	0xbc988413	-0.018617665
133	0x3d9c65de	0.07636617
134	0x3dcabea5	0.09899644
135	0x3db92fe1	0.09042335
136	0xbd26ca4a	-0.04072026
137	0x3e1df255	0.15424474
138	0xbb93739b	-0.004499865
139	0x3e01e491	0.12684847
140	0x3dd2735d	0.1027591
141	0xbdf69231	-0.120396025
142	0xbd9e5fa2	-0.07733084
143	0x3e163cfd	0.14671703
144	0x3da75da4	0.081721574
145	0x3ddb0209	0.106937476
146	0x3dd5a68a	0.104321554
147	0x3cbfea0d	0.023427034
148	0x3d5db625	0.054128785
149	0xbdf631ac	-0.12021193
150	0x3ce6fad9	0.028195785
151	0xbd6a3373	-0.057177972
152	0xbdc57922	-0.09642245
153	0xbdb6e8d6	-0.08931129
154	0x3da6c7e1	0.081435926
155	0x3d0b1188	0.033952266
156	0x3c989c36	0.018629175
157	0x3e0fa7c9	0.14028849
158	0xbe098f22	-0.13433507
159	0xbd88e392	-0.066840306
160	0xbce601ea	-0.028077085
161	0xbd1cbdd0	-0.038266957
162	0xbddeb718	-0.10874766
163	0x3cbbd8e6	0.022930574
164	0x3da23673	0.079205416
165	0xbd03244a	-0.03201703
166	0xbdbd956c	-0.092570156
167	0x3e085e16	0.13317141
168	0x3e125b1c	0.14292568
169	0x3d37628e	0.044771723
170	0x3cb3c9e1	0.02194685
171	0x3d477f6d	0.048705507
172	0xbd2080da	-0.039185382
173	0x3dbb125d	0.09134362
174	0x3d9040ca	0.070436075
175	0xbdf8ff97	-0.12158125
176	0x3dd8d2d3	0.105870865
177	0x3d2d91ba	0.042375304
178	0xbd67365d	-0.05644833
179	0x3dde76af	0.10862481
180	0x3da994ed	0.082803585
181	0xbdd438b1	-0.103623755
182	0x3dff8a79	0.124775834
183	0x3bc33ce2	0.0059581855
184	0xbdf9beea	-0.12194617
185	0xbdbadfa1	-0.09124685
186	0xbe11e4b4	-0.142474
187	0xbd8c9489	-0.06864268
188	0x3d98c794	0.074599415
189	0x3d48b24d	0.048998166
190	0xbdea0fb5	-0.11428777
191	0x3d0a8fa6	0.0338284
192	0x3df86fe7	0.12130719
193	0xbce12761	-0.027484598
194	0xbdb1708b	-0.08664044
195	0x3de0616b	0.10956081
196	0x3b86b06d	0.004110387
197	0xbd4f9f75	-0.05068918
198	0xbd7ebcf6	-0.062191926
199	0xbd5e919d	-0.054338086
200	0xbe0fe9cd	-0.14054032
201	0x3da8639e	0.082221255
202	0x3d4d7bc8	0.050166875
203	0xbd834fe2	-0.06411721
204	0xbdc76f0e	-0.09737979
205	0xbc31597b	-0.010824556
206	0xbd84a6a8	-0.064771
207	0xbd451725	-0.048117775
208	0x3e05f526	0.13081798
209	0xbdf00ac8	-0.11720806
210	0xbde92f6c	-0.11385998
211	0xbd9d94b4	-0.076943785
212	0xbd93e078	-0.072205484
213	0xbcb6fd50	-0.022337586
214	0x3c8dad24	0.017294474
215	0x3d3cb707	0.046072986
216	0xbcd36c06	-0.025808346
217	0x3e1acf09	0.1511804
218	0x3e1b9858	0.15194833
219	0xbdaa7988	-0.083239615
220	0x3c1e7a5d	0.009672728
221	0x3deef47f	0.11667728
222	0x3b5a3712	0.0033296985
223	0xbd8d6350	-0.06903708
224	0x3dde7d69	0.10863764
225	0xbd5ff02b	-0.0546724
226	0xba36ae2c	-0.00069687027
227	0xbdb75980	-0.08952618
228	0xbe03c2a4	-0.12867218
229	0x3d43a420	0.047763944
230	0xbd63c927	-0.055611756
231	0xbe1bc6f4	-0.15212613
232	0xbcc7a55f	-0.024370847
233	0x3c1b02f5	0.009461154
234	0x3e151bd8	0.14561403
235	0xbce70ac9	-0.028203385
236	0x3d89a99d	0.06721804
237	0x3d9800bb	0.07422014
238	0xbca3aecd	-0.019980812
239	0x3da815cf	0.08207285
240	0xbc98d3ea	-0.018655736
241	0x3d217d24	0.039425984
242	0x3d7b5cde	0.061367862
243	0xbd066a23	-0.032816064
244	0xbe1949eb	-0.14969604
245	0x3d8035de	0.06260274
246	0x3df469b2	0.11934222
247	0xbdd9b74c	-0.10630664
248	0xbdba0223	-0.09082439
249	0xbe12581d	-0.14291425
250	0xbc352f00	-0.011058569
251	0xbcfc4224	-0.030793257
252	0x3d20cd92	0.039258547
253	0xbdfaac7c	-0.1223993
254	0xbde50c2c	-0.11183962
255	0xbde3170f	-0.110883825

blocks.1.bn.module.weight f4 [128]
0	0x3f7e60d2	0.99366486
1	0x3f7dea5e	0.9918574
2	0x3f7e2703	0.9927828
3	0x3f812283	1.0088657
4	0x3f80b7ee	1.0056131
5	0x3f7fc9ab	0.99917096
6	0x3f8045fe	1.002136
7	0x3f7f119e	0.99636257
8	0x3f7e00d2	0.9922
9	0x3f7e1562	0.9925138
10	0x3f7eb7f6	0.9949945
11	0x3f7e061d	0.9922808
12	0x3f7dd663	0.99155253
13	0x3f7e5695	0.99350864
14	0x3f806e7d	1.0033718
15	0x3f80f40c	1.0074477
16	0x3f7df7be	0.9920615
17	0x3f7ef80c	0.9959724
18	0x3f811cc2	1.0086901
19	0x3f7e371e	0.9930285
20	0x3f80c10b	1.0058912
21	0x3f7e1326	0.9924797
22	0x3f7e1e6c	0.9926517
23	0x3f81265e	1.0089834
24	0x3f812044	1.0087972
25	0x3f807407	1.0035409
26	0x3f801408	1.0006113
27	0x3f7e85a3	0.99422663
28	0x3f810cfa	1.0082085
29	0x3f7de79b	0.99181527
30	0x3f7dfba8	0.9921212
31	0x3f8107af	1.008047
32	0x3f811e86	1.008744
33	0x3f7ebf50	0.9951067
34	0x3f7e3eb3	0.9931442
35	0x3f7dd54b	0.99153584
36	0x3f7e1763	0.99254435
37	0x3f81205b	1.0087999
38	0x3f8041fa	1.0020134
39	0x3f7df72f	0.992053
40	0x3f8119bc	1.0085979
41	0x3f811476	1.0084369
42	0x3f80a97b	1.0051721
43	0x3f7de5e8	0.99178934
44	0x3f812496	1.008929
45	0x3f809aa3	1.0047191
46	0x3f80c380	1.0059662
47	0x3f7e4408	0.9932256
48	0x3f7e35c9	0.9930082
49	0x3f80f3c1	1.0074388
50	0x3f7e7e48	0.9941144
51	0x3f803ff7	1.001952
52	0x3f8118f6	1.0085742
53	0x3f811768	1.0085268
54	0x3f811904	1.0085759
55	0x3f7e2fb9	0.9929157
56	0x3f7f6d5e	0.99776256
57	0x3f7dff71	0.992179
58	0x3f80c0a0	1.0058784
59	0x3f7f1cc1	0.9965325
60	0x3f7e36c9	0.99302346
61	0x3f812000	1.0087891
62	0x3f7eccb7	0.9953112
63	0x3f7e9866	0.9945129
64	0x3f7dd955	0.9915975
65	0x3f811ef7	1.0087575
66	0x3f7dee1e	0.99191463
67	0x3f7fef90	0.9997492
68	0x3f7e537e	0.9934615
69	0x3f811f95	1.0087763
70	0x3f7edcf7	0.99555916
71	0x3f7e22ce	0.9927186
72	0x3f811d1f	1.0087012
73	0x3f7dd327	0.9915032
74	0x3f7ec5ed	0.9952076
75	0x3f7dfd2e	0.99214447
76	0x3f811597	1.0084714
77	0x3f7dea46	0.991856
78	0x3f7df2a1	0.9919835
79	0x3f811d87	1.0087136
80	0x3f7dff7b	0.9921796
81	0x3f80ee0d	1.0072647
82	0x3f810701	1.0080262
83	0x3f81191d	1.0085789
84	0x3f811736	1.0085208
85	0x3f8112a8	1.0083818
86	0x3f812255	1.0088602
87	0x3f8120d8	1.0088148
88	0x3f7fbba4	0.9989569
89	0x3f7df1cf	0.99197096
90	0x3f811742	1.0085223
91	0x3f811ad7	1.0086316
92	0x3f812130	1.0088253
93	0x3f81196b	1.0085882
94	0x3f7fd985	0.99941283
95	0x3f7dc092	0.99121964
96	0x3f7e060b	0.9922797
97	0x3f7df812	0.9920665
98	0x3f811ef1	1.0087568
99	0x3f8107ba	1.0080483
100	0x3f7e036a	0.9922396
101	0x3f7dd8d9	0.9915901
102	0x3f7f6a8d	0.9977196
103	0x3f803185	1.0015112
104	0x3f7fc9c0	0.9991722
105	0x3f7feb1d	0.9996813
106	0x3f7e1901	0.992569
107	0x3f80dcff	1.0067443
108	0x3f7e60fa	0.99366724
109	0x3f81236c	1.0088935
110	0x3f811315	1.0083948
111	0x3f808131	1.0039426
112	0x3f803b8c	1.0018172
113	0x3f80f4c6	1.0074699
114	0x3f7e1e75	0.99265224
115	0x3f80c2ab	1.0059408
116	0x3f8122c4	1.0088735
117	0x3f802e83	1.0014194
118	0x3f8068dc	1.0032
119	0x3f80fe03	1.0077518
120	0x3f7e1ebb	0.9926564
121	0x3f80181b	1.0007356
122	0x3f7e71ad	0.99392205
123	0x3f7e228e	0.99271476
124	0x3f811a2d	1.0086113
125	0x3f809c5c	1.0047717
126	0x3f7df62f	0.9920377
127	0x3f7e291e	0.9928149
